models/DQN/2/dqn_agent_target_weights.pth (torch, 49906 bytes, 6 tensors)

fc1.weight f4 [84, 42]
000000 b1 38 ea bd 7d 9a d2 bd 75 3c 18 3d 47 65 05 3e
       -0.11436594 -0.102833726 0.03716703 0.13026915
000010 6e 3b 03 bd 39 27 13 be de bf b2 3d 99 64 53 bd
       -0.0320391 -0.14370431 0.08728002 -0.05160961
000020 d1 23 8e 3c e3 fd cc bd c8 5e 95 bd 42 24 51 bd
       0.017351063 -0.100093625 -0.07293469 -0.05105997
000030 3b 23 70 3d 91 3b d8 bd 5d ce c0 3c e2 e9 46 3d
       0.05862735 -0.105582364 0.023535902 0.04856289
000040 f1 b4 b0 3d d7 71 b0 bc 0b fb 00 be b7 07 b0 3d
       0.08628262 -0.021538658 -0.12595765 0.085952215
000050 68 6a 36 3d 94 ce e1 bd a0 e0 a2 3b 32 c9 0a 3e
       0.04453507 -0.1102573 0.004970625 0.13553312
000060 8f a8 f0 3d 8e 8a 04 3e ae 77 87 3c dd c8 29 3d
       0.117509 0.1294348 0.01653656 0.041451324
000070 ae 21 08 be a1 54 11 be 82 43 85 bd ed 74 5b 3b
       -0.13294098 -0.1419244 -0.06507017 0.0033486441
000080 5e e6 c3 3d 5b 0e be 3d 60 07 50 bd cc f2 3b bc
       0.095654234 0.09280082 -0.050788283 -0.0114714615
000090 4e 9c 02 bb 9a 59 d7 bd fa eb a0 bd 1d da e1 3d
       -0.001992959 -0.10515137 -0.07857509 0.1102793
0000a0 76 8c d7 bc 78 0f 5d bd d0 92 d1 bb b9 47 98 3d
       -0.026312094 -0.05396983 -0.0063956752 0.07435555
0000b0 c7 3b 0c 3e 53 94 18 be 45 69 63 3d 9d c4 b1 bd
       0.13694678 -0.14900331 0.055520315 -0.08680079
0000c0 f4 53 d4 bd 2a 4d 02 3d cd 91 fd bc d5 ab 91 3d
       -0.10367575 0.03181187 -0.030953312 0.071128525
0000d0 65 8f f0 3b e3 c7 0a 3c d0 a8 af bd 29 f1 9c 3c
       0.0073413127 0.008470508 -0.0857712 0.019157963
0000e0 bc f6 ff 3c 0d c6 cb bd b8 f9 0d be de fb e3 3d
       0.031245582 -0.099498846 -0.13864791 0.11132024
0000f0 5f 03 09 be ef 27 a1 bb 9d 6c db 3d 77 88 95 bd
       -0.13380192 -0.0049180905 0.10714076 -0.07301419
000100 71 2c b1 3d 37 76 85 bd 0a 9a cf 3d b8 38 da bc
       0.08651055 -0.06516688 0.101368025 -0.026638374
000110 59 5f e7 3b 2d bb b6 3d 21 45 cb 3d 7f 6a a3 3d
       0.007060927 0.0892242 0.09925295 0.07979297
000120 41 7e e3 3b 70 f7 1d bc a7 57 d7 ba 20 e9 16 3d
       0.006942541 -0.009641513 -0.0016429321 0.03684342
000130 99 2e 3b 3d f9 de 93 3d ca 61 f1 3d 1a ea a4 3d
       0.045698736 0.07220263 0.1178623 0.08052464
000140 bc 8b 0b be a7 37 7b 3d 5c 21 dc bc 81 6d 2c bd
       -0.13627523 0.06133237 -0.026871376 -0.04209662
000150 5b ba f5 bd 8e 7a 5f 3d 18 6f 0b be 9a e6 09 3e
       -0.11998435 0.054560237 -0.13616598 0.13466874
000160 c0 a4 38 bc 6f 7b c3 bd 02 e2 94 3c fd 04 26 3d
       -0.011269748 -0.095450275 0.018174175 0.0405321
000170 48 1c b5 bd d6 ec 71 bd 29 bf 07 be d5 fe 1e bc
       -0.08843285 -0.059063755 -0.13256516 -0.009704311
000180 52 43 3e 3c db d7 23 bd 1a 71 df bc ff 71 16 3e
       0.01161273 -0.040000778 -0.02727561 0.14691924
000190 0a e0 01 3e 89 b3 25 3c 53 dc 07 bd 4e 86 0a 3d
       0.1268312 0.010113605 -0.033169102 0.03381949
0001a0 8a 6d d4 3d 7e 03 e4 3c 75 76 0a be b4 31 f2 3d
       0.103724554 0.027833696 -0.1352175 0.11825886
0001b0 59 cf b9 bd bc 8a a4 3c 84 3d f1 3d ca 39 2e bd
       -0.090727516 0.020085685 0.11779311 -0.04253558
0001c0 35 13 e0 3d de 97 93 3d 6e 62 27 3d 11 9a 0a 3e
       0.109411635 0.07206701 0.040865354 0.13535334
0001d0 0d f6 1d 3d 1e 3c c6 3d 00 5b 12 3e 21 70 df bd
       0.03856473 0.09679435 0.14292526 -0.10910059
0001e0 3f 99 64 bd ca fa e9 3d 55 7e c7 bd be 5d a5 3c
       -0.05581021 0.11424787 -0.09740893 0.020186301
0001f0 63 3e 8f bd f9 f3 a0 3c 33 e5 32 3d cc 97 0c bc
       -0.06994321 0.019647585 0.043675613 -0.008581113
000200 74 b3 df bd c3 8e ee 3d 74 a4 a6 bd d8 fa 89 3d
       -0.109229 0.116483234 -0.08136836 0.06737298
000210 71 fb db 3d 83 2d d5 bc 07 93 c7 3d fb 72 d0 bd
       0.10741318 -0.026022678 0.0974484 -0.10178181
000220 bb 7a 78 3d 2b 97 70 3d 13 17 11 bd c2 c9 b3 bd
       0.06066392 0.058737915 -0.035422396 -0.087787166
000230 e5 6e 11 3e 1d 2d c4 bb 0f e4 88 3d 80 3b e8 3d
       0.14202459 -0.0059868232 0.06684124 0.11339474
000240 75 04 f7 bd 8a 6d 03 b9 04 12 e6 3d 8f 0d ce bd
       -0.12061397 -0.0001253394 0.11233905 -0.1006118
000250 8f a7 06 3e 04 8a 12 3e 77 aa f9 bd 97 5f a0 bd
       0.13149856 0.14310461 -0.12190717 -0.07830732
000260 71 9d 36 bd e4 79 b8 3c 72 6f d6 3d 0e 47 46 3d
       -0.04458374 0.02251906 0.10470475 0.048407607
000270 ef 6d 53 bd 9e ed 00 be e5 1a d0 3d b7 51 a0 3d
       -0.051618513 -0.12590644 0.1016138 0.07828086
000280 c7 c2 f0 3c ab 15 60 bc b9 42 19 3e 87 28 03 3d
       0.029389752 -0.013677041 0.14966859 0.03202107
000290 97 58 a7 3c 82 af e0 bc c5 22 51 3d 87 3c 49 bd
       0.020427985 -0.027427439 0.05105855 -0.04912999
0002a0 0e 0d 80 3d f3 93 b1 bd da a2 83 bd ec 32 05 3e
       0.0625249 -0.08670797 -0.06427546 0.13007706
0002b0 78 dd 89 bd ce 6f d3 3d 5e b7 15 be 5f be 8d bd
       -0.06731695 0.103240594 -0.1462073 -0.06921076
0002c0 f7 26 fe 3d a2 c8 a1 3d 8a 14 00 bb f0 f4 9e bd
       0.12409776 0.07899596 -0.0019543492 -0.07761562
0002d0 42 f7 07 3e d2 3e fa bd 82 a6 3f bd 48 33 00 3e
       0.13277915 -0.12219013 -0.046789654 0.12519562
0002e0 2f 5d 64 bd 60 88 b0 bd 3c 5a d1 bd 1e 02 02 bd
       -0.05575293 -0.086197615 -0.10222289 -0.0317403
0002f0 a7 75 d9 3d e2 5d 99 bd f4 8d 89 bc ea c7 07 be
       0.106181435 -0.0748861 -0.016791321 -0.13259855
000300 69 66 38 bc 9b 88 08 be 30 a5 a4 3d fc ac f9 3d
       -0.011254885 -0.13333361 0.080393195 0.12191197
000310 ac d9 ab bd b7 61 30 bc 68 5a 93 bd 00 15 e1 bc
       -0.08391127 -0.0107654845 -0.07194978 -0.027475834
000320 44 14 c9 bd 37 38 e8 3d 4d 8e 0d 3e 8c 05 e4 3d
       -0.098183185 0.11338847 0.13823815 0.111338705
000330 c6 5d 1a be 9d 30 3c 3d 40 ab b1 3d 0a b3 8e bd
       -0.15074834 0.0459448 0.086752415 -0.06967743
000340 94 51 8e 3d 45 30 16 3d e0 35 8b bd ab 25 1b 3e
       0.069491535 0.036667127 -0.06797385 0.15151088
000350 32 d2 46 3c 7b 5e c4 bd d7 95 c0 bd f0 50 25 bc
       0.012135075 -0.09588333 -0.0940358 -0.010090098
000360 a7 db 97 3b 7d 20 ac 3c a4 9c c8 3d b4 df f7 3d
       0.004634339 0.021011585 0.09795502 0.12103215
000370 55 8f 6b 3d fa ea cb 3d fb 8f 80 bd 9c 0b d8 bd
       0.05750974 0.099569276 -0.06277462 -0.10549089
000380 54 01 73 3c 1a f2 05 3d c0 a4 77 bd cd 73 fb bd
       0.01483186 0.03270159 -0.060459852 -0.122779466
000390 94 23 de 3d c3 fa 66 3d 26 d5 b2 3d 44 73 29 3d
       0.1084663 0.05639149 0.08732061 0.04136969
0003a0 1f 42 ae bd 32 47 af 3d 5c bc 4a 3d bf 1f 6a bb
       -0.08508705 0.08558501 0.04949604 -0.0035724489
0003b0 60 3e 16 3e 2c f3 8e 3d d0 97 0f 3e c0 c9 71 bd
       0.14672232 0.06979975 0.14022756 -0.059030294
0003c0 47 1d d7 bd 74 77 9d bd 93 69 14 3e 37 6c 86 bd
       -0.10503631 -0.076887995 0.14493398 -0.06563609
0003d0 b9 07 03 3e a8 e3 20 bc 1f bf 80 3d ae bd 13 be
       0.12795915 -0.0098199025 0.062864535 -0.14427826
0003e0 89 6c 78 bd 27 39 09 be bd b0 06 3e 39 46 9c bd
       -0.060650382 -0.13400708 0.13153358 -0.076305814
0003f0 f9 6e 79 bd b5 a3 f6 3d e5 09 d5 3d 39 0f 9b 3d
       -0.060896847 0.120429434 0.10402278 0.07571263

fc1.bias f4 [84]
000000 96 04 09 bd 21 0a 1c 3c 81 3a c7 bd 25 ff 6d bd
       -0.03345164 0.009523899 -0.097279556 -0.058104653
000010 03 bf 74 3d a2 f2 9f 3c d1 2e d2 bd f8 97 22 3d
       0.059752475 0.019524876 -0.10262836 0.03969571
000020 a2 da 80 3d 6c df aa 3c 6c 33 0c bc c9 e0 a4 bd
       0.06291701 0.020858489 -0.008557182 -0.08050687
000030 5b c0 2d 3d ff a6 a9 3d a7 e0 c7 3d 49 5c 10 3e
       0.042419773 0.08283805 0.09759646 0.14097704
000040 05 88 6d bc 6e 62 8c 3d 6b 01 dc bd 4c 2c 1d 3e
       -0.014497762 0.068547115 -0.10742458 0.15348929
000050 87 5b 2c bd 82 c0 d8 3d 26 bc eb 3d 0c 36 f8 3d
       -0.042079475 0.10583593 0.11510496 0.121196836
000060 c5 9d 14 3e 32 fc e0 bd fd 7f d1 3b 07 bb a6 3d
       0.1451331 -0.109856024 0.006393431 0.081411414
000070 76 ca bf 3d cb 08 02 be af 70 01 3d f9 83 d9 bd
       0.09364788 -0.12698667 0.031601604 -0.10620875
000080 cf 01 3f 3b 1c cb fb bc 6c 40 a1 3d 27 62 92 3d
       0.0029145365 -0.030736499 0.078736156 0.07147627
000090 b3 48 fe 3d f8 86 b1 bd 18 09 31 3d 9c 44 49 3d
       0.1241621 -0.08668321 0.043221563 0.049137697
0000a0 4c ed 09 3e 25 3a 96 bc 77 3c 6a 3d 81 b7 0a be
       0.13469428 -0.018338272 0.05718657 -0.13546564
0000b0 6c 9b 7a bd bc 32 a1 3b 06 af 6b bd 35 ec d8 bd
       -0.061183378 0.004919378 -0.057539962 -0.10591928
0000c0 6b 5c 18 3d a3 16 da 3d d5 4e 94 bd 7a d9 cf bd
       0.03719751 0.10648849 -0.072415985 -0.10148902
0000d0 fa cb 7b 3d 57 cf f3 3d 0c d9 54 bd 01 6e 59 3d
       0.061473824 0.11904781 -0.051964805 0.053083424
0000e0 cb c5 92 3b f8 7b 69 bd 34 73 f3 3c 4d 6f 77 3c
       0.004479145 -0.05700299 0.029718019 0.01510222
0000f0 64 81 8f bd 48 4d 05 3e a1 9c a8 bd 95 8b 24 bc
       -0.07007101 0.13017762 -0.082329996 -0.010043045
000100 6e fc 60 3d 18 13 cd 3d 07 43 b9 bd 94 48 e8 bc
       0.054928236 0.100134075 -0.090459876 -0.02835492
000110 e4 c2 16 be fc dd 90 bd 7c c7 fb 3d 76 9b df 3d
       -0.14722782 -0.0707359 0.12293908 0.10918324
000120 72 d6 af bd c6 cd 98 3d 8b 5b 15 bd 9f 1d 02 3c
       -0.08585824 0.07461123 -0.036464255 0.0079416325
000130 c3 cd c5 bd 39 c2 5c bc cc 7f 17 be c1 83 bd 3d
       -0.096583866 -0.013474041 -0.14794844 0.09253646
000140 7a 35 41 3c d0 e8 1a bd a5 80 15 3e 9a 4d 3c bc
       0.011792535 -0.037819684 0.14599855 -0.011493111

fc2.weight f4 [64, 84]
000000 de fe 8b bd 0f 33 9c 3d d4 f4 bb 3d 3a 1d a2 3b
       -0.068357214 0.07626926 0.09177557 0.0049473317
000010 8e 2e de bd b7 2b 95 3d fc 81 a9 3d b9 2f 3f 3d
       -0.10848723 0.072837286 0.08276746 0.04667637
000020 7f 1e aa bd 6c 23 c5 3d 9b 8e d7 bd 62 a2 c4 3d
       -0.08306598 0.09625897 -0.10525247 0.096012846
000030 1b 08 95 3d 97 e1 65 3d cb 17 57 bc a0 d7 c9 bd
       0.072769366 0.056123342 -0.013128231 -0.0985558
000040 7f 4a 8d 3d 5e 05 85 3d a7 c9 f6 3c 7f a7 c4 3d
       0.068989746 0.06495164 0.030125452 0.0960226
000050 8c 9e 19 bd a4 30 7b 3d 72 ed af bc 27 ba 51 3d
       -0.037504718 0.061325684 -0.021475527 0.05120292
000060 3e c5 74 3d df 20 80 bd c1 da 81 bd a9 e7 9c 3d
       0.059758417 -0.0625627 -0.06340552 0.07661373
000070 5a e6 3d bd fb 5d a2 bd f1 4d f9 3c f6 75 66 3d
       -0.04636226 -0.079280816 0.030432673 0.05626484
000080 d8 46 2d 3d d6 a9 98 3d 81 26 6f 3d 51 25 50 ba
       0.04230389 0.07454269 0.05838633 -0.0007940131
000090 3f db 4b 3c d3 4e 01 bd 67 f0 bd 3c e8 ce 80 bb
       0.012442409 -0.031569313 0.023185922 -0.003930915
0000a0 fb 71 59 3d ca 6a b7 3d bc 5e 5a 3c a5 55 b0 bb
       0.053087216 0.08955915 0.0133282505 -0.0053813034
0000b0 a4 a5 de ba 0d b1 d5 3d e1 3c a0 bd 8c 9a bd 3d
       -0.0016986621 0.104341604 -0.07824112 0.09257993
0000c0 2b d9 de bd ad ad 89 bd 85 8a b5 3c bc dc 9b 3d
       -0.10881265 -0.06722579 0.022160778 0.07610461
0000d0 07 54 21 3d 8c e3 6b 3c 7d f2 35 bd ca a5 7d 3a
       0.039386775 0.014397513 -0.044420708 0.00096758886
0000e0 cb a4 4e 3d 18 e7 25 3d b8 41 76 3d c3 36 97 bb
       0.050450128 0.04050359 0.060121268 -0.0046146824
0000f0 f7 ba 0e bd 17 89 fe bc 82 11 ce 3d 5b 77 8e bd
       -0.034846272 -0.031071229 0.10061933 -0.06956359
000100 86 18 b4 3d 7e 6d 13 3d a4 e6 aa 3d 91 b4 d4 3d
       0.0879374 0.03599309 0.083447725 0.10386003
000110 31 7d 17 3d 78 b6 9b bd 6d 38 7b bd 90 36 9a bb
       0.036984626 -0.076031625 -0.06133311 -0.0047062114
000120 f3 8f d8 bc 3c 8d 99 bd f0 df 72 bd 58 eb 82 3d
       -0.026435828 -0.074976414 -0.059295595 0.063925445
000130 b6 b2 73 bd a5 ab ce bd 92 c7 a7 3d 6b 6c c7 3d
       -0.059496604 -0.10091332 0.08192362 0.09737476
000140 47 6f cd 3d be d8 90 3d 4e 86 c7 bd 6b 19 3c 3d
       0.1003099 0.0707259 -0.097424135 0.045922678
000150 cc 02 8b bd 6d ba 44 bd 0a 95 1e bb c0 b7 ba bd
       -0.06787643 -0.048029352 -0.002419772 -0.09117079
000160 77 f0 89 bd 0f ce f2 ba 2d 20 c8 bd 32 59 03 bc
       -0.06735318 -0.0018524545 -0.09771762 -0.008016871
000170 8a fc cd 3d b2 f2 8d bd 7c 14 40 3d 00 48 ad bd
       0.10057934 -0.06931056 0.046894535 -0.084609985
000180 ac 6f a8 3d 43 9f d9 bd a5 a7 7d bc bf 70 f1 3c
       0.08224425 -0.1062608 -0.015481864 0.029472707
000190 2b e2 5f 3c 8a 95 8c 3d a3 25 db bc 70 50 26 3d
       0.0136647625 0.0686446 -0.026751345 0.040604055
0001a0 3a 1b b5 3b bd ab 6f 3d 9d 86 9a bd 3a fa 85 3d
       0.0055269273 0.05851339 -0.07545207 0.065418676
0001b0 b2 a6 58 3c ff 5c f1 bc 43 62 95 bd a0 4d d9 bd
       0.013223337 -0.02946329 -0.072941326 -0.10610509
0001c0 bf f3 11 3d 68 f8 c8 3d 77 9b aa bc c2 09 d8 3d
       0.035632845 0.09813005 -0.020826085 0.10548736
0001d0 b7 27 8b bc 64 25 9f 3d ad 83 80 3c 90 54 d9 3d
       -0.016986711 0.077708036 0.015687788 0.10611832
0001e0 96 e2 de bd 55 9e 7c 3d 92 0f c5 bd 91 c9 b6 3d
       -0.108830616 0.061674435 -0.096221104 0.089251645
0001f0 b1 28 28 3d 74 64 6e bc d5 fe 1a 3c 2a 07 c7 bd
       0.04105443 -0.014550317 0.009460171 -0.09718163
000200 54 4b f7 3c e8 15 bd bd a8 4b 9e 3d 89 c0 a1 bc
       0.030187286 -0.09232694 0.07729274 -0.019745128
000210 5f e0 c6 3d 5e a5 2f 3d b0 1e b9 bd c3 41 a4 bd
       0.09710764 0.042882316 -0.09039056 -0.080203556
000220 ba 56 67 3d 44 e7 27 3d e6 d2 24 bd 4d 2d cb 3d
       0.056479193 0.040992036 -0.04024019 0.0992075
000230 10 a0 80 bd 7b 1f 0b 3d fc c0 8a bd 89 4d 5e bd
       -0.062805295 0.03396557 -0.0677509 -0.054273162
000240 50 0d 9a bd 41 8c 9f bd d2 c3 3c bd e9 da 97 3d
       -0.075220704 -0.07790423 -0.046085186 0.07414801
000250 2b 47 29 bd e6 8b 28 3c 75 9b 6e bd 9e 9b 25 bd
       -0.041327637 0.010287261 -0.058253724 -0.04043161
000260 f4 f7 cc bd d1 94 c6 3d d1 3e 40 bd 94 6d 12 bc
       -0.10008231 0.09696353 -0.046934906 -0.008937258
000270 f9 59 3c bc 68 25 86 bd 57 80 9a bd d9 a7 8e bd
       -0.0114960605 -0.065501034 -0.0754401 -0.06965608
000280 14 97 82 bd 03 ac 62 3c 31 41 95 bd 44 06 47 3d
       -0.06376472 0.013834956 -0.07287825 0.04858996
000290 a1 53 d4 3d 40 92 9c bd 4c 93 62 3d 27 de d6 bd
       0.103675134 -0.076450825 0.055316254 -0.10491591
0002a0 9f c7 4b 3d fc 9b cf bd aa 79 b7 bd c0 e3 b5 3d
       0.04975092 -0.101371735 -0.089587525 0.088813305
0002b0 6b de 21 3d 6e 9f cc 3d d5 99 d3 bd 49 41 10 3d
       0.039518755 0.09991346 -0.103320755 0.03521851
0002c0 18 c4 95 bd f7 7b 54 3d 7d a1 69 3d df d4 aa 3d
       -0.073127925 0.051876035 0.057038773 0.08341383
0002d0 e7 fe c1 b8 e5 57 b5 3b 07 d5 28 bd c5 3d bb 3c
       -9.2504364e-05 0.0055341595 -0.041218784 0.022856602
0002e0 aa ac fd 3c da d9 ef bc 88 de 6a bd 16 5c aa 3d
       0.030966122 -0.029278684 -0.05734113 0.08318345
0002f0 2d 6a 2f bd a1 14 c8 3d 87 26 f9 bc 34 38 df 3d
       -0.042825866 0.0976956 -0.03041388 0.10899392
000300 e1 91 80 3d 66 4d 19 bd 3d 52 91 bd b8 1c 23 3d
       0.06277824 -0.03742733 -0.07095764 0.03982231
000310 11 74 b6 bd 89 b1 07 bd e5 3c 88 3c 23 1b ec bc
       -0.08908857 -0.033128295 0.0166306 -0.028821534
000320 4f 40 a3 3d 44 e9 86 3d df c0 ca bb 16 f2 b9 bd
       0.0797125 0.06587461 -0.006187543 -0.09079377
000330 81 f4 65 3d f7 32 bc bc 96 a3 3e 3d d7 c6 95 3d
       0.05614138 -0.02297352 0.046542726 0.07313316
000340 2f 74 49 bd 0c 14 da 3d d8 a7 b3 3d e3 4d c7 3d
       -0.049183067 0.10648355 0.08772248 0.097316526
000350 84 5c 50 3d 32 80 0e 3d da 0a bd bd 46 cb 93 bb
       0.05086948 0.034790225 -0.092305854 -0.004510316
000360 55 8c ba 3b 9a ec 2e bd 0e dd da 3c 1e 8a 21 bd
       0.0056929984 -0.04270611 0.026716735 -0.03943836
000370 be 73 bc 3d 2f ee 37 bd 81 82 15 3d 8f 6b 3a 3d
       0.092017636 -0.044904884 0.03650141 0.045512732
000380 4f f7 10 bd 20 92 da 3b c3 25 4e 3c 58 06 9c 3d
       -0.0353921 0.0066702515 0.012582245 0.076183975
000390 53 e9 f5 bc 54 f6 b4 3d 87 2e 4b bc dc a4 b0 ba
       -0.030018484 0.08836046 -0.01240123 -0.0013476866
0003a0 25 b4 54 bd 39 0a 64 bd 6f f6 4d bd 18 6e 3f bd
       -0.05192961 -0.05567381 -0.050283846 -0.046735853
0003b0 76 36 3b 3d c9 fd 74 3d 82 c0 a8 3d a3 49 a9 3a
       0.045706235 0.05981234 0.08239843 0.0012915622
0003c0 97 f2 b1 bd 7d 04 ac bd 9f 5c f8 bc f6 8e e2 bc
       -0.086888485 -0.083992936 -0.030317603 -0.02765606
0003d0 6b 5d 8f bd 11 89 92 3d c5 ce 68 bd e6 39 97 3c
       -0.0700024 0.071550496 -0.056837816 0.018460225
0003e0 60 3b 7a bd b9 26 0b bd 1f c2 a0 bd 0a f3 c6 3d
       -0.06109178 -0.033972476 -0.07849526 0.09714325
0003f0 61 7f 85 bd 66 3d 70 bd 39 cf 2f 3d 8e 01 96 bd
       -0.06518436 -0.058652304 0.042922232 -0.07324515

fc2.bias f4 [64]
000000 26 35 c0 bd bc 4a bf 3d 69 35 1c bd 9e c3 90 3d
       -0.09385137 0.09340426 -0.038136873 0.07068561
000010 5f 40 49 bd 71 f8 82 bd 61 e2 9d bd f9 21 90 3d
       -0.049133655 -0.06395043 -0.07709194 0.0703773
000020 b8 33 9c 3c 62 e4 86 3d 36 dd 81 3d 57 6f 4e bd
       0.01906763 0.06586529 0.06341021 -0.05039915
000030 11 81 f7 3c 96 e8 bb bd 8b 5e 78 3d 14 8b 2d bd
       0.03021291 -0.091752216 0.06063704 -0.042368963
000040 a4 21 d9 3d b0 c2 bc bc 57 0a 0b 3d a7 5a bc bd
       0.106021196 -0.023042053 0.033945408 -0.09196978
000050 f0 2d 82 bc a9 3a b5 3d 0c 92 1b bd e7 73 d1 3d
       -0.015891045 0.08849079 -0.037981078 0.10227185
000060 1c 2f d1 bb 9b bd e2 bc ab 5a 67 bd 2a 89 48 3d
       -0.0063837897 -0.027678302 -0.056482952 0.048958935
000070 25 77 52 bd 00 4b ce 3d 30 80 03 bd 09 6e da 3c
       -0.051383156 0.10072899 -0.03210467 0.026663797
000080 a6 73 8c 3d cb 6c 83 3d 2e f9 b2 3d 62 4c 9b 3d
       0.06857996 0.06417235 0.087389335 0.07582928
000090 e2 ac 80 bd 08 2e 44 bc a4 2b dd 3d 59 fd 9e bc
       -0.06282975 -0.011973865 0.107993394 -0.019407915
0000a0 5c 12 14 bd b8 dc 5d bc 43 d3 48 ba fb 42 b2 3c
       -0.03615032 -0.013541393 -0.0007660875 0.021760454
0000b0 7c eb 51 bd 18 bb 3b 3d a4 4d 71 3d 88 67 9a bd
       -0.051249966 0.045832723 0.058911934 -0.07539278
0000c0 9e 34 26 bc 6e 7b bf 3c bf 38 60 3d c9 3a fc 3c
       -0.010144381 0.023374286 0.054741617 0.03078975
0000d0 86 e7 85 bd 10 cf 6b 3d 05 4b b7 3d bd 1f a1 bc
       -0.065383 0.057570517 0.08949856 -0.019668454
0000e0 ff 72 fe bc 58 5c ab 3d 52 5d 31 3d 74 3c 00 bd
       -0.031060694 0.083672225 0.043301888 -0.031307653
0000f0 ea f4 aa bd c6 31 c0 bd f5 42 a6 3d 8b d9 00 3d
       -0.08347495 -0.093844935 0.0811824 0.031457465

fc3.weight f4 [42, 64]
000000 70 fe 3c bc f0 9b 31 3c 7c 22 40 bd b4 c3 d4 bd
       -0.011535272 0.010840401 -0.046907887 -0.1038889
000010 80 aa be 3d 68 75 1c bd 82 2f d3 bd d0 39 b5 bc
       0.09309864 -0.038197905 -0.10311796 -0.022122294
000020 00 e4 eb bd ac 0b 66 bd a4 a5 f3 3d 96 fb d6 3d
       -0.11518097 -0.056163475 0.11896828 0.10497205
000030 e0 50 8a 3b 2c 1d 0c bd 58 e3 0b 3d 3c 33 a1 bd
       0.004221067 -0.034207508 0.03415236 -0.078711
000040 3c 75 2b 3d 00 0c 4d bc d0 a1 48 3d c0 5b e2 bd
       0.04185985 -0.012515068 0.04898244 -0.11052656
000050 ac c8 6d 3d 40 d8 58 bd 76 f2 d6 bd 00 86 06 bd
       0.058052704 -0.052940607 -0.104954645 -0.032842636
000060 d8 25 a1 3c 80 4c f1 3b 52 04 ac bd 32 34 f0 3d
       0.019671366 0.007363856 -0.083992615 0.117287055
000070 24 3c 5d 3d 5c 66 b0 bd ac af 43 bd 08 95 cb bc
       0.054012433 -0.086132735 -0.047774956 -0.024851337
000080 58 a4 63 3d 8e f1 e7 bd 20 28 8f bc 2e 27 c7 3d
       0.055576652 -0.1132537 -0.017475188 0.0972427
000090 30 7d d7 bd 10 d3 96 bc 24 34 b4 3d 70 91 d3 3d
       -0.105219245 -0.01841119 0.087990075 0.103304744
0000a0 08 e1 c0 3d 80 57 29 3b 20 40 f7 bc 54 84 2a bd
       0.09417921 0.0025839508 -0.030181944 -0.041630104
0000b0 18 50 b4 bd 32 c3 df bd 60 51 29 bd 20 56 51 3c
       -0.08804339 -0.109259024 -0.04133737 0.012776881
0000c0 de d0 8f bd 06 99 91 3d b0 07 8e 3c 60 71 80 bd
       -0.0702226 0.07109265 0.01733765 -0.062716246
0000d0 98 a1 d4 3c fa 41 dc 3d e0 b9 fa bc 4a 90 81 3d
       0.02595596 0.107547715 -0.03060621 0.06326349
0000e0 90 9a 93 bc ce 10 f0 3d 7c 99 fb bd 96 b4 cd 3d
       -0.018018037 0.11721955 -0.12285134 0.1004421
0000f0 98 22 78 bd 1c fc 7a 3d 00 fa 9d 3c 10 23 2d bc
       -0.060579866 0.061275586 0.019284248 -0.010567442
000100 d6 21 92 bd 16 e1 e7 3d 90 0d e9 bd 44 19 13 3d
       -0.0713536 0.113222286 -0.1137954 0.035912767
000110 dc 5c a4 bd 80 74 d8 ba 6c 59 ce 3d 80 8d 3c 3d
       -0.08025524 -0.0016514212 0.100756496 0.046033382
000120 ae e2 87 3d b8 c3 a9 bc 00 40 b3 3a b8 19 62 3d
       0.066350326 -0.020723209 0.001367569 0.05520031
000130 1e cc ce 3d e8 07 d1 bc 54 ed 11 3d c8 a1 07 3d
       0.10097526 -0.025516465 0.035626724 0.03311327
000140 1c 5f 4f bd d8 06 57 3d 78 08 20 3d 2c df 78 3d
       -0.050627813 0.05249676 0.039070576 0.06075971
000150 76 90 c3 3d 1e c4 94 3d 20 32 fd 3d 44 2b 46 bd
       0.09549038 0.07263969 0.12363076 -0.048381105
000160 8c ef c1 bd 7e 1e a4 3d 94 18 27 3d 9e 35 fc 3d
       -0.09469518 0.080136284 0.040794924 0.12314914
000170 48 87 26 3d b6 56 8c 3d cc bf c2 bd 8e 13 8f 3d
       0.040656358 0.06852476 -0.095092386 0.06986152
000180 14 ea 3c bd 38 9a ed 3c 90 8f 84 3c 30 c7 11 bc
       -0.04612167 0.029004201 0.016181737 -0.008897588
000190 42 78 bb 3d 58 85 6e bd ec 2a dd 3d 02 1f 80 bd
       0.09153797 -0.058232635 0.10799202 -0.06255914
0001a0 a0 a6 6e bd 66 8d f6 3d 48 bd 4f 3d 04 09 58 bd
       -0.058264375 0.12038688 0.050717622 -0.052742973
0001b0 a8 9e ac 3d 10 e0 8f bd e2 ef f3 bd 7a bb b7 3d
       0.08428699 -0.070251584 -0.119109884 0.08971305
0001c0 38 17 58 bd a0 53 29 bd c2 7d c0 bd 20 4a 45 bd
       -0.052756518 -0.041339517 -0.093989864 -0.048166394
0001d0 a0 21 86 3b 74 f6 83 3d b0 2f 70 bc 70 42 53 bc
       0.004093364 0.064434916 -0.014659807 -0.012894258
0001e0 02 a4 8d 3d a8 ce 54 3d 40 03 3d bb 4a bf ae bd
       0.06916048 0.051954895 -0.0028841048 -0.08532579
0001f0 40 60 08 3d 5a 77 c4 bd 44 fb 53 bd 30 67 02 3d
       0.033294916 -0.09593077 -0.051753297 0.03183669
000200 5c 6d 0c 3d aa d4 e0 3d 5a 18 c5 3d 3a 62 e7 bd
       0.03428398 0.109780625 0.09623785 -0.11298032
000210 52 3f c6 bd 2c 16 18 3d 70 61 16 bc 2a b7 f4 3d
       -0.09680046 0.03713052 -0.009178504 0.11948998
000220 3c 3e 2a 3d 92 0a e7 bd 72 5c 91 3d c0 ee 30 3d
       0.041563258 -0.11281313 0.07097711 0.04319644
000230 32 1f a1 3d e4 f4 d0 bd 0c e4 56 3d ee 73 d5 3d
       0.07867278 -0.10202959 0.052463576 0.104225025
000240 4c 75 2f bd bc b8 a3 bd 6c 00 80 bd e0 88 ce 3b
       -0.042836472 -0.0799422 -0.062500805 0.006302938
000250 b2 9f be 3d c8 92 d3 3c ec 74 23 3d 4c 3e dd bd
       0.09307803 0.025826827 0.039906427 -0.10802898
000260 e0 b1 9d 3d b0 d8 24 bc 78 b1 e8 3d 48 9e c5 bd
       0.076999426 -0.010061428 0.113619745 -0.096493304
000270 20 c3 ed bb 80 bc 8e ba 1c 51 48 bd 4c 1f 5e bd
       -0.0072559267 -0.0010889918 -0.048905477 -0.054229066
000280 d8 25 48 3d cc 8b 7f 3d 04 8c ce 3d 80 36 7a 3b
       0.048864216 0.06238918 0.100852996 0.0038179457
000290 60 b8 d9 bd f8 0f e0 bc 6e 8b 92 bd b8 03 b9 bc
       -0.1063087 -0.027351364 -0.071555 -0.022584781
0002a0 aa 8c e2 bd 24 5f af bd 66 fd 8f bd 08 09 48 3d
       -0.11061986 -0.085630685 -0.07030754 0.048836738
0002b0 e2 ab d3 bd b0 fc 7c bc 9e df 8f bd 58 fa 9d bd
       -0.103355184 -0.015441105 -0.070250735 -0.07713765
0002c0 ac bf 3d 3d c4 ab 71 bd 00 d6 05 3d 08 14 18 bd
       0.04632537 -0.0590017 0.03267479 -0.03712848
0002d0 28 11 c2 3c 3a f2 ff 3d 14 88 db 3d a0 54 5a 3d
       0.023689821 0.12497373 0.10719314 0.05330336
0002e0 4a c0 c0 3d 00 57 90 bb 64 b1 8d 3d 10 92 1f bc
       0.09411676 -0.0044049025 0.069186 -0.009739414
0002f0 d0 23 1a 3d 4c 0a 1c 3d b6 5a 89 bd ac 3d 4f 3d
       0.03763181 0.038095757 -0.06706755 0.050595924
000300 00 cc 28 3c 94 12 31 bd 74 0a ed 3d 84 02 2f bd
       0.010302544 -0.043230608 0.115742594 -0.04272701
000310 54 eb 37 3d 1c 1c ec 3d 64 68 99 3d 70 c8 6f bd
       0.04490216 0.11528799 0.07490614 -0.05854076
000320 70 45 64 bc 78 9c 4c bd 28 c3 07 3d 5c dd 4e 3d
       -0.013932571 -0.049953908 0.0331451 0.050504074
000330 54 f6 43 3d 88 e3 ea bc 98 e6 fb bc 98 c5 e8 bd
       0.04784234 -0.028672948 -0.030749604 -0.11365813
000340 48 a5 83 3c 58 56 46 bd 50 3f 6b 3d c4 61 83 bd
       0.016070023 -0.048422188 0.057433426 -0.06415132
000350 54 3a 17 bd 7e 5e b5 3d cc 26 79 bd 5c c4 4b bd
       -0.03692086 0.088559136 -0.060828015 -0.04974781
000360 2e 9e c5 3d 58 2d 4c bd d4 e9 61 3d 18 3f d9 bc
       0.09649311 -0.04984793 0.055154637 -0.026519343
000370 f8 44 9e 3c e8 3c d2 3d 18 ef d5 bc 00 96 b2 ba
       0.019319996 0.10265523 -0.026114985 -0.0013625026
000380 d4 95 4b bd d0 c9 72 bd 20 ec ea bd 0c b2 2b bd
       -0.049703434 -0.059274495 -0.114708185 -0.041917846
000390 50 a4 8a bc 80 22 2d 3c 80 78 25 3c 12 53 e2 bd
       -0.016924053 0.0105673075 0.01009953 -0.11051001
0003a0 de 8e b9 3d d8 26 a0 bc e8 d3 c9 bd 70 8c b1 bd
       0.09060453 -0.019549772 -0.09854871 -0.086693645
0003b0 34 66 6d 3d fc a1 ef 3d 76 49 f9 3d 00 1f a5 3b
       0.057958797 0.11700818 0.12172215 0.005039096
0003c0 30 13 23 bc 66 03 cc 3d 74 c4 f3 3d 90 47 06 3d
       -0.009953305 0.09961586 0.11902705 0.03278309
0003d0 f4 ed 66 3d 7e cd fc 3d b2 2c f8 bd d2 a1 fe bd
       0.056379274 0.12343882 -0.121179 -0.124332085
0003e0 68 c8 0c 3d 60 64 e9 3b 00 a3 31 3d ec b8 0e bd
       0.03437081 0.0071225613 0.04336834 -0.034844324
0003f0 10 c9 87 3d bc cc 07 3d d8 d1 fb 3c 58 71 f8 3d
       0.066301465 0.033154234 0.03073971 0.121309936

fc3.bias f4 [42]
000000 ea d9 a0 bd 26 69 9e 3d 6c fa 6d bd 94 b7 5c bd
       -0.07854064 0.07734899 -0.05810015 -0.05388601
000010 1a c9 c8 3d c6 92 b1 bd 80 57 e3 3c ec 39 e7 3d
       0.09803982 -0.08670573 0.027751684 0.112903446
000020 e4 6d 30 3d 78 f5 d0 3c e0 f3 3b 3d 20 4b d6 3d
       0.04307355 0.025507674 0.045886874 0.10463548
000030 c8 76 0a 3d b0 ec 93 3c c8 01 e9 bd 90 f2 9d bc
       0.033804685 0.018057197 -0.11377293 -0.019280702
000040 bc d5 ae 3d c8 fa 56 bd 00 dc 1f 3b e0 7b bd 3d
       0.0853686 -0.052485257 0.0024392605 0.09252143
000050 24 d2 e6 3d 60 9b cf 3b 60 0a 75 bc 40 a3 0c 3b
       0.1127055 0.006335661 -0.014956087 0.002145961
000060 04 d7 73 bd 74 97 5b bd 8e 43 b8 bd 4c 10 a7 bd
       -0.059531227 -0.053611234 -0.0899726 -0.08157405
000070 c0 a1 ae bd dc e0 c5 3d de a0 e3 3d c4 12 aa bd
       -0.08526945 0.09662029 0.11114667 -0.083043605
000080 8a b7 96 bd 9c 1c 3f bd 30 e8 f9 3c 7c 9b 85 bd
       -0.07359226 -0.046658143 0.030506223 -0.06523797
000090 b0 e6 2b 3c a4 14 64 3d 06 c7 e9 3d c0 54 d3 3b
       0.010492012 0.055683747 0.11414914 0.006449312
0000a0 c0 45 14 bc 5c 15 2b 3d
       -0.009049833 0.041768417
