models/PPO/ppo_actor_weights.pth (torch, 366148 bytes, 10 tensors)

fc1.weight f4 [336, 42]
6.211806e-38 -4.57382e-40 -2.1436044e-38 -1.352678e-39 7.98922e-40 -6.951641e-38 4.735e-42 4.91692e-40
1.425668e-39 1.28865e-39 -9.07705e-40 3.64925e-40 -3.8001645e-38 2.23824e-40 -4.662981e-38 -5.39553e-40
-1.202856e-39 -5.887477e-38 1.76631e-40 1.248668e-39 4.675319e-38 1.349487e-39 -5.1697555e-38 4.3338e-41
1.079272e-39 -2.373896e-38 -4.19616e-40 3.26182e-40 5.074384e-38 4.07289e-40 -1.235345e-39 7.007769e-38
-5.080978e-38 -4.12322e-40 5.0791e-40 -3.12216e-40 -5.591045e-38 -1.240722e-39 6.29944e-40 -4.0488647e-38
3.117564e-38 3.0654177e-38 -3.5323125e-38 -1.086703e-39 3.2053593e-38 6.922574e-38 2.7333548e-38 -6.985284e-38
4.07715e-40 -4.9004663e-38 5.132842e-38 -1.382667e-39 5.1366624e-38 1.0179e-39 7.21908e-40 -1.262374e-39
5.92987e-38 5.87175e-38 -7.9523e-40 -5.542614e-38 -3.818332e-38 -1.067194e-39 -7.09689e-40 -2.85915e-38
5.171e-40 6.7716e-40 1.0304913e-38 7.40264e-40 7.1042e-41 -6.3711e-40 -1.134414e-39 2.5106616e-38
-1.8014678e-38 3.21293e-40 1.190678e-39 1.435024e-39 3.6549406e-38 7.22441e-40 -5.1418596e-38 -4.63317e-40
-1.059045e-39 2.41888e-40 6.2845e-41 -6.979358e-38 4.6438986e-38 -2.60276e-40 -3.41753e-40 -9.02436e-40
5.992072e-38 4.6837605e-38 -1.209689e-39 1.5064239e-38 1.049504e-39 -3.5474196e-38 -7.92084e-40 7.29103e-40
4.9941223e-38 -6.945398e-38 3.5062483e-38 -1.75402e-40 -4.10529e-40 -6.02844e-40 1.132996e-39 8.14261e-40
6.06127e-40 5.8097946e-38 -7.58912e-40 -6.00905e-40 -5.0783236e-38 1.345673e-39 -6.384658e-38 3.3873e-40
-8.61367e-40 6.0349373e-38 -5.5542303e-38 1.2027647e-38 -9.15313e-40 -1.023585e-39 -1.402285e-39 5.036536e-38
-1.393545e-39 4.3939003e-38 -7.29268e-40 3.909504e-38 3.794084e-38 5.1182236e-38 -3.8302038e-38 2.260374e-38
9.31765e-40 7.0174684e-38 -2.01783e-40 1.042235e-39 -7.0126575e-38 -9.7439e-40 2.678166e-38 -5.3968017e-38
5.025978e-38 6.6306e-40 1.197059e-39 -2.7097043e-38 1.9134125e-38 4.265853e-38 5.255617e-38 3.13398e-40
1.4534402e-38 1.019976e-39 8.45387e-40 7.65639e-40 3.8219754e-38 -5.982566e-38 2.9171043e-38 3.5043022e-38
2.1667875e-38 -1.6098e-40 -5.80425e-40 5.34082e-40 -2.2762e-40 5.611957e-38 8.13702e-40 -3.44457e-40
-6.67221e-40 6.2145065e-38 1.556359e-39 1.329496e-39 6.4506353e-38 -7.0103913e-38 1.474654e-39 -1.151325e-39
-7.003914e-38 -1.39083e-40 2.62476e-40 -1.415785e-39 -4.418417e-39 5.5486296e-38 6.6016337e-38 6.15494e-40
5.517207e-38 1.5968525e-38 6.222688e-38 -1.19856e-39 5.619095e-38 -7.58961e-40 4.667001e-38 -4.6495038e-38
9.87826e-40 -1.499375e-39 5.84912e-40 1.561076e-39 5.9267616e-38 3.5164834e-38 4.16703e-40 5.605e-38
4.69767e-40 -3.8316e-41 7.73726e-40 4.112645e-38 1.01322e-39 6.390336e-38 4.6732833e-38 6.6003646e-38
-1.168712e-39 -2.52472e-40 6.0552685e-38 5.11445e-40 -1.477343e-39 3.9871e-41 -1.7318726e-38 4.306836e-38
9.555398e-39 9.3328e-41 -7.05503e-40 -2.74505e-40 -4.1730646e-38 -4.18202e-40 -6.689985e-38 -5.600442e-38
-2.04546e-40 -3.8859262e-38 9.0316e-40 -1.053605e-39 2.54933e-40 5.762943e-38 5.69116e-40 1.29503e-39
-6.03313e-38 -3.70436e-40 -7.07671e-40 6.08047e-40 -7.1646e-41 5.18493e-38 6.213102e-38 -2.8152378e-38
7.88864e-40 9.48872e-40 1.262173e-38 1.11008e-39 1.06923e-39 -1.164199e-39 -6.37676e-40 -1.423007e-39
-4.3829073e-38 7.22148e-40 -1.348094e-39 1.112105e-39 1.89956e-40 4.533131e-38 5.2491e-40 -9.48875e-40
6.6157105e-38 5.0836e-41 1.56112e-40 4.09944e-40 -9.3394e-40 8.16268e-40 -8.91234e-40 -3.0799823e-38
00000000: f819 a901 fffa 0480 f86a e980 b7ba 0e80
00000010: 12b3 0800 de3d bd81 330d 0000 a35a 0500
00000020: 2f86 0f00 3b08 0e00 50e2 0980 43f9 0300
00000030: 90e6 4e81 ee6f 0200 78e0 7d81 0ee0 0580
00000040: 1319 0d80 ba45 a081 60ec 0100 c798 0d00
00000050: 708c 7e01 d2b1 0e00 f0bb 8c81 cf78 0000
00000060: 92c0 0b00 483f 0181 b891 0480 438d 0300
00000070: 4c23 8a01 5b6f 0400 a473 0d80 06c5 be01
00000080: 4051 8a81 637d 0480 d987 0500 5566 0380
00000090: e633 9881 a182 0d80 07dc 0600 f070 5c81
000000a0: 80bc 2901 b0e5 2601 4051 4081 49d5 0b80
000000b0: 3084 2e01 4d73 bc01 68d1 1401 5328 be81
000000c0: 8b70 0400 4467 8581 b0ba 8b01 500e 0f80
000000d0: 50d5 8b01 7e15 0b00 63dc 0700 fcbe 0d80
000000e0: 2a6d a101 20d8 9f01 c7a8 0880 62e2 9681
000000f0: c8e3 4f81 e79e 0b80 53ba 0780 bcaa 1b81
00000100: 77a1 0500 a65f 0700 e835 7000 8e0f 0800
00000110: 09c6 0000 01f0 0680 495a 0c80 84b1 0801
00000120: 9829 c480 a27f 0300 20f7 0c00 43a0 0f00
00000130: 70fe 4601 dfdd 0700 88f9 8b81 8a0b 0580
00000140: 3088 0b80 49a2 0200 30af 0000 07ff bd81
00000150: 80d6 7c01 8bd5 0280 abb8 0380 a0d3 0980
00000160: a61e a301 1802 7f01 1f2c 0d80 f808 a400
00000170: 976d 0b00 d023 4181 02a0 0880 71f0 0700
00000180: f4f3 8701 5c12 bd81 f8e5 3e01 f3e8 0180
00000190: 6378 0480 7c90 0680 5556 0c00 d4dd 0800
000001a0: a399 0600 5c28 9e01 8a43 0880 148b 0680
000001b0: c03e 8a81 30a7 0e00 92ce ad81 3eb0 0300
000001c0: 2461 0980 6049 a401 5633 9781 30f8 8200
000001d0: 85f7 0980 5725 0b80 0045 0f80 881b 8901
000001e0: a32c 0f80 083a 6f01 e7f0 0780 88da 5401
000001f0: d091 4e01 d054 8b01 4089 5081 0822 f600
00000200: 6225 0a00 9e08 bf01 7d32 0280 5459 0b00
00000210: 17e7 be81 349c 0a80 30d0 1101 38ea 9281
00000220: f4d1 8801 5738 0700 ea08 0d00 c487 1381
00000230: 285a d000 5041 6801 4e12 8f01 a069 0300
00000240: 0044 9e00 471b 0b00 9834 0900 4a56 0800
00000250: 9016 5001 66dc a281 80d2 1e01 d8ca 3e01
00000260: 38f1 eb00 bfc0 0180 fd51 0680 ced0 0500
00000270: 837a 0280 a2c5 9801 45dc 0800 35c0 0380
00000280: f143 0780 ca2c a901 7ff2 1000 187a 0e00
00000290: 5e9a af01 4cd7 be81 bc0e 1000 6d89 0c80
000002a0: 28aa be81 b583 0180 addb 0200 a26a 0f80
000002b0: c01c 3080 4e0c 9701 acb6 b301 bfb3 0600
000002c0: 5231 9601 c0e1 ad00 ce65 a901 190d 0d80
000002d0: 60f7 9801 ad43 0880 8018 7e01 a024 7d81
000002e0: a8c1 0a00 a653 1080 7f5e 0600 a5ff 1000
000002f0: 8057 a101 a074 3f01 9989 0400 2695 9801
00000300: 851d 0500 cf6a 0080 d56c 0800 e8e9 5f01
00000310: 7208 0b00 24f6 ad01 1070 7e01 d4ad b301
00000320: e5b9 0c80 cabf 0280 10d7 a401 b391 0500
00000330: 3b16 1080 256f 0000 9095 bc80 887c 6a01
00000340: 900c 6800 2904 0100 a8ae 0780 35fd 0280
00000350: 0834 6381 c78d 0480 641e b681 6275 9881
00000360: 313a 0280 e891 5381 a5d5 0900 0679 0b80
00000370: a6c6 0200 dae1 9c01 7732 0600 041a 0e00
00000380: c83c a481 a008 0480 b3b4 0780 fd9e 0600
00000390: b8c7 0080 b025 8d01 0023 a901 b046 1981
000003a0: 0897 0800 1255 0a00 4070 8900 7416 0c00
000003b0: 94a4 0b00 50ad 0c80 95f1 0680 c47e 0f80
000003c0: d0a0 6e81 0edd 0700 f0ad 0e80 191c 0c00
000003d0: 8511 0200 a0ce 7601 3cb7 0500 1455 0a80
000003e0: c618 b401 b68d 0000 2db3 0100 c276 0400
000003f0: 722b 0a80 6ce3 0800 66b4 0980 b0b0 2781

fc1.bias f4 [336]
-4.06318e-40 6.6280296e-38 1.48736e-39 -2.82496e-40 -3.06568e-40 -1.50931e-40 -1.227175e-39 6.51354e-38
-4.0107965e-38 3.2868946e-38 4.7124457e-38 -1.18579e-40 1.9413163e-38 9.75353e-40 -5.87115e-40 3.7525405e-38
4.82445e-40 4.5760556e-38 5.567748e-38 3.944256e-38 1.575665e-39 7.6842e-41 8.74521e-40 2.5858e-41
1.211095e-39 2.8993628e-38 -5.232971e-38 -1.7293e-40 -1.48979e-40 5.623293e-38 4.626518e-38 1.531396e-39
-2.8154126e-38 1.188217e-39 -6.6528e-40 -2.117e-40 1.95809e-40 -3.481998e-38 -9.7705e-40 -8.25589e-40
1.50926e-39 -1.281391e-39 1.394198e-39 8.06231e-40 4.00812e-40 3.77951e-40 5.53863e-40 -1.148372e-39
-1.30714e-39 -6.208777e-38 1.26495e-40 5.95906e-40 -3.2422e-40 -8.6444e-40 -6.70713e-39 -3.32429e-40
4.7192997e-38 3.7191806e-38 -6.1570835e-38 9.46249e-40 -9.20245e-40 1.9565e-41 -4.6778818e-38 1.225511e-39
3.477691e-38 3.885027e-38 -7.65207e-40 9.01751e-40 -5.32086e-40 -5.12458e-40 2.41762e-40 -4.185748e-38
-6.66034e-40 3.5063447e-38 6.9924446e-38 1.53533e-40 1.235175e-39 -6.77196e-40 -1.8822712e-38 5.88788e-40
1.7743e-40 -4.3329606e-38 3.89845e-40 5.894425e-38 3.1529978e-38 -1.170868e-39 -6.9847e-40 -9.80816e-40
7.017526e-38 4.1660312e-38 8.91824e-40 -1.54136e-40 4.0415892e-38 6.37274e-40 -1.55955e-40 -5.261887e-38
-1.66574e-40 -1.398147e-39 -1.048679e-39 -1.7257887e-38 -2.87988e-40 -7.95391e-40 -3.56998e-40 3.1255637e-38
-2.8154564e-38 1.464381e-39 -4.2943475e-38 1.05379e-40 5.04962e-40 6.9702845e-38 9.94808e-40 8.73595e-40
-5.311649e-38 1.03037e-40 2.1500862e-38 -6.9954776e-38 5.598044e-38 1.130304e-39 -6.9566e-41 -2.8428187e-38
6.54258e-40 -1.276992e-39 1.209581e-39 6.138471e-38 -3.44456e-40 9.53833e-40 5.817882e-38 -7.02378e-40
4.284933e-38 1.437142e-39 1.64608e-40 -4.7004595e-38 -5.5989306e-38 5.0135903e-38 -1.547158e-39 -8.03279e-40
-6.234516e-38 -1.036288e-39 1.50198e-39 -4.22109e-40 -1.689624e-38 8.26428e-40 -9.00602e-40 1.106e-42
-1.11873e-39 1.045591e-39 -9.6011e-41 1.144016e-39 2.3618964e-38 -7.20623e-40 1.220062e-39 1.026839e-39
-5.645576e-38 6.79595e-40 -1.080648e-39 -7.64211e-40 -2.8164e-40 5.7996e-41 3.5331e-41 7.55918e-40
-1.1416e-40 5.7657e-40 5.628211e-38 5.38993e-40 -8.3437e-40 -1.4087e-40 -1.1147e-40 2.62428e-40
-6.488e-40 1.019314e-39 -2.47681e-40 7.1597e-41 -2.68643e-40 -7.6441e-41 -4.39339e-40 -2.79649e-40
-5.8832843e-38 -1.431084e-39 -8.47267e-40 -4.49807e-40 5.3469e-40 1.510717e-39 -4.99964e-38 5.81746e-40
-5.111883e-38 3.02596e-40 -1.24868e-40 -7.84178e-40 3.884e-41 -3.4865505e-38 -4.2892872e-38 -1.402462e-39
-1.5556e-41 -6.14946e-40 -3.553565e-38 -3.58524e-40 4.25936e-40 -4.2991613e-38 4.21114e-40 -6.603952e-38
9.07367e-40 1.117426e-39 8.925e-40 -1.69849e-40 1.418485e-39 -5.0522034e-38 4.2768997e-38 3.1996285e-38
-4.44513e-40 -6.01011e-40 5.59903e-40 6.86914e-40 -2.8056282e-38 -6.878e-40 1.538612e-39 1.262414e-39
5.81041e-40 1.58362e-40 -1.49045e-40 -1.9841097e-38 5.7768e-40 -6.23803e-40 7.11844e-40 6.188995e-38
-8.37689e-40 3.810514e-38 6.59321e-40 1.052958e-39 4.3278778e-38 -4.6821597e-38 1.10803e-40 2.59666e-40
-1.412101e-39 1.3287785e-38 -3.6549e-41 8.35063e-40 -4.3866202e-38 -5.8375314e-38 4.6490016e-38 4.6749223e-38
-7.4926e-41 5.439316e-38 1.290737e-39 1.45427e-40 1.3238403e-38 1.138447e-39 1.450215e-39 -5.0481856e-38
-1.411933e-39 -6.857429e-38 -1.268146e-39 -1.495178e-39 4.35972e-40 -1.324066e-39 4.1679145e-38 -1.080014e-39
00000000: a66c 0480 a06e b401 2832 1000 7c13 0380
00000010: 9656 0380 bca4 0180 dd5c 0d80 c050 b101
00000020: 585e 5a81 a0f4 3201 f448 8001 8d4a 0180
00000030: 0064 d300 e39e 0a00 a364 0680 c84e 4c01
00000040: dc40 0500 e824 7901 8a91 9701 e8be 5601
00000050: 5028 1100 34d6 0000 cf85 0900 1548 0000
00000060: 0a30 0d00 38db 1d01 7c74 8e81 0fe2 0180
00000070: 4b9f 0180 a214 9901 40e4 7b01 e9ac 1000
00000080: 2049 1981 44f0 0c00 883e 0780 224e 0280
00000090: d621 0200 f893 3d81 9ea3 0a80 68fd 0880
000000a0: 346f 1000 fff3 0d80 752e 0f00 72c7 0800
000000b0: 4d5d 0400 931d 0400 f207 0600 3281 0c80
000000c0: c63b 0e80 dc04 a981 9e60 0100 257d 0600
000000d0: cb87 0380 b569 0980 c008 4980 ad9e 0380
000000e0: b878 8001 d07d 4a01 9c9c a781 c24d 0a00
000000f0: 4505 0a80 8a36 0000 28b0 7e81 3a58 0d00
00000100: f057 3d01 6085 5301 1655 0880 b7d1 0900
00000110: 3dcb 0580 8694 0580 efa1 0200 d0e4 6381
00000120: a240 0780 50e7 3e01 3a5a be01 fdab 0100
00000130: 2a73 0d00 bf5f 0780 10f6 cc80 4d69 0600
00000140: 9aee 0100 a8e8 6b81 bb3e 0400 2676 a001
00000150: 60aa 2b01 e7bf 0c80 0d9b 0780 1eae 0a80
00000160: 0509 bf01 00d2 6201 0bb6 0900 abad 0180
00000170: 880b 5c01 76f0 0600 bdb2 0180 003e 8f81
00000180: 57d0 0180 7739 0f80 4a6b 0b80 f8eb bb80
00000190: cb22 0380 3aa9 0880 2ae3 0380 002c 2a01
000001a0: bc49 1981 19f2 0f00 78ce 6981 c125 0100
000001b0: a17f 0500 cbbf bd01 1fd5 0a00 3a83 0900
000001c0: ca98 9081 3a1f 0100 a81f ea00 5d6f be81
000001d0: ac64 9801 d44e 0c00 ecc1 0080 1cc7 1a81
000001e0: ce1f 0700 bce7 0d80 d22b 0d00 e61a a701
000001f0: 34c0 0380 e662 0a00 b860 9e01 f2a5 0780
00000200: 404b 6901 2ba6 0f00 dcca 0100 d8ea 7f81
00000210: da6a 9881 a07b 8801 d9d8 1080 37bf 0880
00000220: 3cb8 a981 c048 0b80 e95a 1000 ab98 0480
00000230: d8fb b780 bfff 0800 83ce 0980 1503 0000
00000240: 902e 0c80 af62 0b00 a40b 0180 0d75 0c00
00000250: 0898 0001 ced8 0780 0949 0d00 692e 0b00
00000260: ecaf 9981 6f66 0700 68c4 0b80 4f52 0880
00000270: 1911 0380 aba1 0000 7d62 0000 313b 0800
00000280: 3b3e 0180 3e47 0600 e836 9901 7ede 0500
00000290: e215 0980 b088 0180 bc36 0180 8bdb 0200
000002a0: 9710 0780 6f19 0b00 6fb2 0280 95c7 0000
000002b0: deec 0280 16d5 0080 b3c8 0480 8c0b 0380
000002c0: 8228 a081 4895 0f80 d639 0980 e1e5 0480
000002d0: 80d2 0500 4473 1000 681a 8881 ac55 0600
000002e0: a028 8b81 844b 0300 155c 0180 f889 0880
000002f0: 456c 0000 6cd3 3d81 f087 6981 7e45 0f80
00000300: 5d2b 0080 38b2 0680 7879 4181 6be7 0380
00000310: 56a3 0400 9011 6a81 e595 0400 d4c6 b381
00000320: 5fe1 0900 ee2a 0c00 edb7 0900 78d9 0180
00000330: 2972 0f00 b888 8981 48db 6801 5034 2e01
00000340: 1fd7 0480 608b 0680 c818 0600 d67a 0700
00000350: c0c0 1881 4e7d 0780 06c1 1000 19bf 0d00
00000360: b553 0600 73b9 0100 7a9f 0180 e80c d880
00000370: 564a 0600 e9ca 0680 55c0 0700 007b a801
00000380: 231f 0980 d076 4f01 eb2d 0700 3877 0b00
00000390: d0a1 6b01 c8eb 7e81 e034 0100 d8d3 0200
000003a0: 5d60 0f80 f0b0 9000 e265 0080 d117 0900
000003b0: 90d4 6e81 a8e9 9e81 a01d 7d01 e886 7e01
000003c0: ddd0 0080 8012 9401 0d0e 0e00 6495 0100
000003d0: 4827 9000 8765 0c00 9cca 0f00 b86c 8981
000003e0: e55f 0f80 4ead ba81 13cf 0d80 f347 1080
000003f0: 50bf 0400 f56a 0e80 40ec 6201 a4c2 0b80

fc2.weight f4 [168, 336]
-4.6691848e-38 -3.5080095e-38 -3.9857592e-38 -5.5886675e-38 1.1736816e-38 -4.0351342e-38 -2.2736426e-38 4.6965135e-38
-4.677014e-38 -2.745924e-38 -3.5632957e-38 5.9705135e-38 -3.738707e-38 8.598558e-39 5.9752633e-38 2.7011609e-38
-4.677523e-38 -3.8864934e-38 2.915999e-38 5.0533894e-38 -1.573379e-38 -4.5986087e-38 4.655201e-38 -1.1608e-41
-4.1614394e-38 -5.167836e-38 5.613837e-38 -3.209655e-38 5.6029226e-38 -3.1099768e-38 6.844713e-38 4.707625e-38
2.8365285e-38 -5.577291e-38 -4.71643e-40 -5.461961e-38 -3.798891e-38 -5.641087e-38 5.631612e-38 -2.0152578e-38
2.12056e-40 -6.9425477e-38 3.8134376e-38 -2.7121762e-38 -6.857524e-38 4.619294e-38 -9.42382e-40 -4.327972e-38
6.369128e-38 1.001058e-39 -6.6018254e-38 2.3604525e-38 4.9649395e-38 2.336256e-38 -5.5978847e-38 -5.8614633e-38
-4.3412025e-38 2.8103904e-38 -7.215e-40 5.5981e-38 5.9248076e-38 3.6914148e-38 -3.97382e-40 -6.1780626e-38
-3.9728874e-38 1.511604e-39 2.8086842e-38 4.6351276e-38 -6.603748e-38 -6.471038e-38 4.1849072e-38 -4.0207804e-38
5.95057e-38 4.1899048e-38 3.9800576e-38 2.06469e-40 4.232789e-38 -3.42804e-40 6.766e-41 6.941371e-39
3.8604136e-38 -5.9866677e-38 2.4107782e-38 6.7541756e-38 -5.059806e-38 -6.7358467e-38 5.1388686e-38 -8.133618e-39
5.376991e-38 2.3555502e-38 3.543135e-38 6.4606316e-38 -3.9405365e-38 -6.554097e-39 5.21052e-40 5.300965e-38
6.679351e-39 2.2748758e-38 4.0164958e-38 3.8877692e-38 -5.968129e-38 6.635777e-38 6.62708e-40 -3.411904e-39
-4.599093e-38 1.143193e-39 5.82953e-40 -4.016359e-38 6.9281855e-38 5.352978e-38 8.74992e-39 -7.78406e-40
-4.6868658e-38 -1.6027682e-38 -3.965047e-38 -3.9984852e-38 -5.9551474e-38 -1.5329701e-38 7.7979e-40 -6.031573e-38
6.91901e-40 5.90851e-38 5.003315e-38 -5.22097e-40 -1.55171e-40 4.6547884e-38 2.475007e-38 3.815191e-38
6.4661965e-38 3.5148512e-38 1.349616e-39 7.01594e-38 9.6415e-41 4.72497e-40 -5.574981e-38 2.928604e-38
-2.8960321e-38 -2.3096123e-38 3.50795e-38 -5.1635135e-38 -1.2542989e-38 4.716497e-38 -1.446717e-39 2.2984e-40
-4.6787248e-38 4.458156e-38 -4.6822157e-38 6.197201e-38 -2.3127714e-38 -4.1943755e-38 -2.7445338e-38 -4.6070165e-38
4.6395624e-38 -6.504566e-38 -6.737311e-38 -1.1817363e-38 1.6109843e-38 1.21794e-40 -5.582345e-38 -1.518731e-39
-8.03873e-40 2.348685e-38 -5.955367e-38 -1.7189336e-38 2.729846e-38 -5.266304e-38 3.0562544e-38 6.3088587e-38
2.90238e-40 5.047643e-38 3.505448e-38 4.520432e-39 5.32795e-39 -6.137065e-38 4.667223e-38 5.89353e-40
1.28305e-39 5.8228727e-38 -5.8818337e-38 5.4105277e-38 2.640813e-38 6.31969e-40 -5.80224e-38 5.4642434e-38
2.1242e-40 6.968598e-38 -4.6764514e-38 -6.1720516e-38 -6.165787e-38 -3.7991107e-38 5.3034775e-38 4.6966704e-38
-3.82739e-38 5.9702926e-38 -8.38565e-40 8.22984e-40 1.45481e-39 9.336672e-39 -4.5761363e-38 3.7766675e-38
1.0435111e-38 -2.7539752e-38 5.8161913e-38 -3.5488724e-38 -5.9725964e-38 6.118502e-38 -5.6355964e-38 -1.8314175e-38
-3.1643965e-38 6.374517e-38 2.727559e-38 3.771744e-38 3.6159e-40 2.7278696e-38 -1.478761e-39 -1.016949e-39
-6.507622e-38 1.463976e-39 4.881707e-38 4.6983183e-38 -2.3529012e-38 5.2127115e-38 1.0796523e-38 5.565137e-38
3.9707148e-38 3.8620167e-38 -4.6582008e-38 -5.47365e-40 9.266641e-39 4.5730893e-38 5.6134525e-38 3.513571e-38
2.747767e-38 2.0442142e-38 2.3452187e-38 6.6619724e-38 2.596068e-38 -2.3859808e-38 -1.083038e-39 1.409038e-39
4.953032e-38 9.17999e-40 -3.1618585e-38 -5.6404225e-38 -5.389998e-38 1.036658e-39 -5.606716e-38 8.573368e-39
2.3971228e-38 -3.6151213e-38 -2.376805e-38 4.3445364e-38 3.97498e-40 -3.5018583e-38 -4.7079705e-38 -6.263849e-38
00000000: f036 7e81 84fe 3e81 6001 5981 5423 9881
00000010: 78cd 7f00 90b1 5b81 e893 f780 d8b3 7f01
00000020: 10a4 7e81 9880 1581 1801 4281 6888 a201
00000030: f88d 4b81 48a1 5d00 82a9 a201 b010 1301
00000040: 28ab 7e81 d099 5381 18c3 1e01 fc90 8901
00000050: 6853 ab80 405f 7a81 0874 7d01 5c20 0080
00000060: 0092 6281 90ae 8c81 bcd2 9801 10c0 2e81
00000070: ac86 9801 c052 2981 b054 ba01 5c27 8001
00000080: 706f 1a01 0cd4 9781 c022 0580 50b0 9481
00000090: d0d4 4e81 a490 9981 9c4e 9901 3071 db80
000000a0: 204f 0200 7ffe bc81 909f 4f01 38aa 1381
000000b0: f8ad ba81 907f 7b01 fa42 0a80 20a3 6b81
000000c0: 5862 ad01 8be6 0a00 02b8 b381 e883 0001
000000d0: 9428 8701 5065 fe00 9063 9881 7090 9f81
000000e0: 885b 6c81 2003 1901 40db 0780 1065 9801
000000f0: e249 a101 d0fa 4801 bd53 0480 d02e a881
00000100: f84d 5881 bd75 1000 58eb 1801 405c 7c01
00000110: 68c5 b381 8e28 b081 18d9 6301 80e9 5a81
00000120: 6cfd a101 c01e 6401 e8b1 5801 8d3f 0200
00000130: 7874 6601 99bb 0380 9cbc 0000 b895 4b00
00000140: 502e 5201 fcf8 a281 5841 0301 bcdd b701
00000150: b4bd 8981 005e b781 b0e4 8b01 3891 5880
00000160: 2860 9201 943f 0001 18e8 4001 08e0 af01
00000170: 108b 5681 285e 4780 7bac 0500 564e 9001
00000180: 50bb 4800 48b6 f700 c8ad 5a01 98ab 5301
00000190: ca77 a281 9ea4 b401 5c37 0700 0027 2580
000001a0: 0066 7a81 c272 0c00 0959 0600 e0ab 5a81
000001b0: 689a bc01 d0b8 9101 3847 5f00 e179 0880
000001c0: 602d 7f81 a886 ae80 b0e0 5781 c0b2 5981
000001d0: 521d a281 f8ec a680 bd7d 0800 ee31 a481
000001e0: bd88 0700 4ed8 a001 0434 8801 65af 0580
000001f0: 8eb0 0180 486e 7d01 90c0 0601 00b8 4f01
00000200: d006 b001 e05d 3f01 2eb2 0e00 f7fd be01
00000210: c40c 0100 2125 0500 f2c3 9781 c872 1f01
00000220: ccac 1d81 987e fb80 b0fd 3e01 7090 8c81
00000230: c094 8880 3065 8001 dcc0 0f80 b380 0200
00000240: e8bb 7e81 a0b9 7201 90ec 7e81 30b4 a801
00000250: a8d6 fb80 105d 6481 386d 1581 70d4 7a81
00000260: 109a 7c01 3612 b181 3468 b781 00ae 8080
00000270: b06b af00 8353 0100 44f7 9781 9b89 1080
00000280: dfc0 0880 c8bf ff00 da1e a281 e02c bb80
00000290: 80a0 1401 c85c 8f81 f865 2601 54be ab01
000002a0: 1129 0300 f068 8901 d0da 3e01 2039 3100
000002b0: 2804 3a00 1a11 a781 981b 7e01 e06a 0600
000002c0: 9ff8 0d00 8083 9e01 661e a081 e049 9301
000002d0: 90c7 0f01 ace1 0600 b6f3 9d81 38c0 9401
000002e0: 2450 0200 0ab4 bd01 389c 7e81 ec04 a881
000002f0: 44d9 a781 e0d7 4e81 d85f 9001 08b6 7f01
00000300: 0862 5081 de86 a201 9421 0980 25f6 0800
00000310: 6bd7 0f00 d8aa 6500 0826 7981 109f 4d01
00000320: d8a0 7100 d0f0 1581 f054 9e01 1038 4181
00000330: ec96 a281 bc8f a601 606a 9981 786c c780
00000340: 4049 2c81 e687 ad01 a080 1401 705a 4d01
00000350: f7ef 0300 f484 1401 2f1a 1080 d712 0b80
00000360: 8227 b181 f8f0 0f00 88e4 8401 00cd 7f01
00000370: a81a 0081 4ce7 8d01 5090 7500 587f 9701
00000380: b02f 5801 a844 5201 d89d 7d81 d5f5 0580
00000390: a0e7 6400 90fb 7801 0ed0 9801 084c 3f01
000003a0: 489a 1501 6098 de00 285f ff00 2c5b b501
000003b0: e857 0d01 b8e7 0181 12cb 0b80 d357 0f00
000003c0: 98d5 8601 02ff 0900 e025 2c81 028c 9981
000003d0: ceba 9281 c849 0b00 1ca1 9881 105b 5d00
000003e0: 0483 0201 70d3 4481 d467 0181 008a 6c01
000003f0: 1054 0400 c8a8 3e81 c429 8081 a884 aa81

fc2.bias f4 [168]
-6.537591e-38 -5.592193e-38 3.989324e-38 3.703188e-38 4.6584497e-38 -4.1602982e-38 2.4499092e-38 2.8316812e-38
-9.79356e-40 -3.3804e-40 -2.4614402e-38 -3.1263e-40 1.5141142e-38 -3.9750107e-38 -4.2780947e-38 5.588878e-38
4.1522245e-38 4.672207e-38 2.5605243e-38 -4.6485375e-38 1.363413e-38 2.5182948e-38 -5.0089223e-38 -4.0679627e-38
7.001978e-38 6.986372e-38 1.002731e-39 -4.314914e-38 -3.9765218e-38 -4.315533e-38 -2.0151143e-38 5.5756623e-38
-3.202644e-38 -5.0980987e-38 -2.982017e-38 3.98999e-40 3.2551132e-38 1.179012e-39 2.812545e-38 -4.6768258e-38
-5.611557e-38 -2.6970803e-38 -6.597877e-38 5.5975215e-38 5.550727e-38 -3.5290794e-38 6.419893e-38 -3.055055e-38
5.9290866e-38 1.7471524e-38 1.071929e-39 1.554355e-39 -1.016185e-39 -4.807765e-39 4.008626e-38 -3.0019243e-38
2.1597686e-38 -1.267233e-39 -1.031433e-39 -1.022967e-39 -3.856268e-38 6.40717e-40 3.7896716e-38 1.9255915e-38
-1.6068645e-38 -5.5846374e-38 -2.1748253e-38 3.471532e-38 -6.3299936e-38 -2.3452916e-38 5.8774045e-38 -3.9619304e-38
3.467782e-38 6.2040326e-38 3.2885986e-38 -4.5851427e-38 1.553816e-39 -6.7033e-41 -3.8126708e-38 5.1640023e-38
7.9486e-40 -2.7826895e-38 4.4988385e-38 3.753119e-38 3.4898195e-38 4.3405612e-38 -6.991718e-38 -4.2563466e-38
-5.0097025e-38 -7.014779e-38 -3.7613362e-38 4.20447e-40 4.0269237e-38 4.826186e-38 6.09294e-38 1.4768834e-38
4.1987722e-38 -4.920793e-38 -4.9951335e-38 -6.224461e-38 -7.08752e-40 -3.5162592e-38 -6.9457253e-38 -1.117907e-39
2.3338222e-38 -4.672909e-38 -5.0824e-40 -5.0761555e-38 3.7354043e-38 -3.83676e-40 -6.1997973e-38 5.8575307e-38
-5.631073e-38 1.241508e-39 -4.7043944e-38 -2.80521e-38 3.2650366e-38 -3.5347518e-38 -4.6811014e-38 -6.999809e-38
6.237684e-38 1.169682e-39 -1.27608e-39 6.985193e-38 -6.448133e-38 -5.497423e-38 -2.3136121e-38 5.1405547e-38
-2.7823711e-38 -3.2893e-41 -2.826818e-38 -6.053635e-38 5.2873883e-38 -5.290089e-38 5.599222e-38 -9.2393e-40
6.2741e-40 6.786836e-39 3.26818e-38 1.332156e-39 -2.2882e-40 -5.72045e-38 -1.483243e-38 -6.9988003e-38
6.447288e-38 -6.310574e-38 1.7326966e-38 -6.9877323e-38 3.6600459e-38 3.1229e-38 1.468854e-39 4.1633093e-38
4.0528377e-38 3.203135e-38 2.801254e-38 7.35046e-39 5.5756007e-38 1.3946339e-38 1.147975e-39 1.563989e-39
1.129448e-39 5.699748e-38 4.0283587e-38 3.9894205e-38 2.6877465e-38 6.661425e-39 -6.58425e-40 1.9578113e-38
00000000: 5cf8 b181 e63b 9881 1033 5901 e89e 4901
00000010: 50a1 7d01 1882 6281 c062 0501 e02b 1a01
00000020: 0caa 0a80 51ae 0380 7803 0681 7c67 0380
00000030: 58df a400 906b 5881 f0eb 6881 cc24 9801
00000040: 9011 6201 1061 7e01 8068 0b01 2817 7d81
00000050: 6876 9400 e81b 0901 185b 8881 207b 5d81
00000060: aa9c be01 e82f be01 35eb 0a00 20ed 6a81
00000070: a080 5881 c0f5 6a81 306d db80 b2c8 9701
00000080: 585e 2e81 90c8 8a81 405b 2281 3f58 0400
00000090: a839 3101 9bd6 0c00 2821 1901 70a1 7e81
000000a0: d8c2 9881 d0d7 1281 7e9c b381 0861 9801
000000b0: ec1a 9701 3024 4081 20c4 ae01 4055 2681
000000c0: b467 a101 803f be00 1aac 0b00 e9ec 1000
000000d0: b610 0b80 185a 3480 1840 5a01 b870 2381
000000e0: 902d eb00 88cc 0d80 373b 0b80 9e23 0b80
000000f0: 88f4 5181 0ffa 0600 5054 4e01 a8ad d100
00000100: d8f8 ae80 3e07 9881 48d1 ec80 1802 3d01
00000110: 9e51 ac81 3061 ff80 88ff 9f01 40b5 5781
00000120: d4cd 3c01 cce3 a801 600c 3301 90a3 7981
00000130: 68eb 1000 dcba 0080 e094 4f81 d893 8c01
00000140: bfa7 0800 0881 1781 a8f0 7401 d856 4c01
00000150: fc00 3e01 9852 6c01 2a55 be81 d0bc 6781
00000160: 8860 8881 e0f5 be81 60c9 4c81 0994 0400
00000170: 203f 5b01 9c61 8301 98dd a501 80d1 a000
00000180: 589a 6401 ecf4 8581 00fb 8781 2a72 a981
00000190: b6b7 0780 8071 3f81 a414 bd81 452c 0c80
000001a0: 7821 fe00 d86a 7e81 c488 0580 a42f 8a81
000001b0: f05f 4b01 882d 0480 48c6 a881 0875 9f01
000001c0: da4a 9981 d284 0d00 d810 8081 ecba 1881
000001d0: f8c3 3101 4073 4081 08dd 7e81 8d8d be81
000001e0: 50ce a901 99bc 0c00 31e5 0d80 b127 be01
000001f0: ee88 af81 72a7 9581 18ee fb80 70f0 8b01
00000200: 987c 1781 b15b 0080 18e8 1981 aecb a481
00000210: b8ef 8f01 8a02 9081 e26c 9801 8a0f 0a80
00000220: f7d4 0600 f0e6 4900 c8ef 3101 8281 0e00
00000230: db7d 0280 b8b9 9b81 c882 a180 8586 be81
00000240: 0a83 af01 48ca ab81 88ac bc00 6339 be81
00000250: 9845 4701 e006 2a01 91fe 0f00 10ac 6201
00000260: 50a8 5c01 3065 2e01 c883 1801 180a 5000
00000270: 44c8 9701 b8dc 9700 1680 0c00 c407 1100
00000280: 714c 0c00 7229 9b01 2053 5b01 6834 5901
00000290: b855 1201 5889 4800 6c2b 0780 d02f d500

fc3.weight f4 [84, 168]
6.2142e-40 -4.3543343e-38 2.2995969e-38 4.6727945e-38 -5.5650696e-38 5.049347e-38 -2.75226e-40 -2.7024904e-38
5.79859e-40 -4.9160644e-38 1.3122e-39 4.980914e-38 8.763564e-39 -2.3312573e-38 1.264396e-39 -1.0454426e-38
3.4954392e-38 -3.75328e-40 4.833955e-38 3.8182356e-38 2.3555457e-38 2.1780786e-38 1.54917e-39 -7.0153956e-38
-4.2067e-40 6.196533e-38 1.542216e-39 6.4448564e-38 2.1455e-38 -5.624109e-38 -6.0148977e-38 -1.439754e-39
3.1416663e-38 -3.1523364e-38 4.2013327e-38 -5.590329e-38 2.92777e-38 4.716645e-38 1.17407e-39 -3.508061e-38
1.243135e-39 -5.603962e-38 4.2183882e-38 -3.8391766e-38 4.280274e-38 -2.00885e-40 -5.585552e-38 6.4185075e-38
-3.8519385e-38 1.565749e-39 3.7975166e-38 4.2321456e-38 5.601011e-38 -2.7325186e-38 -8.88528e-40 4.6779423e-38
2.1958807e-38 -3.945552e-38 4.6804893e-38 1.531115e-39 3.0022943e-38 -1.0681919e-38 -3.256761e-38 3.5014032e-38
-2.85196e-40 4.6394862e-38 -2.1245781e-38 -2.80484e-40 -5.54388e-38 -1.384608e-39 1.212722e-39 1.113515e-39
-6.817707e-38 -6.933133e-38 -7.0123184e-38 6.335071e-38 -5.0319126e-38 -8.36663e-40 1.9877587e-38 5.855123e-38
-1.451852e-39 -4.0710568e-38 2.03994e-40 5.605445e-38 -1.560577e-39 -6.73366e-40 -3.7728493e-38 -3.860992e-38
-6.829348e-38 7.799e-40 5.52179e-40 1.402043e-39 5.58768e-40 1.470785e-39 5.9772565e-38 2.363496e-38
4.6955516e-38 -4.6553243e-38 5.4127025e-38 -7.57357e-40 6.9710983e-38 -4.340736e-38 8.0666e-41 5.02688e-40
1.024412e-39 8.02625e-40 -8.96848e-40 1.279095e-39 -2.3437042e-38 -4.5666165e-38 -1.34028e-39 -3.9309763e-38
1.350116e-39 -3.8112628e-38 -6.32022e-40 8.1905e-40 -1.9534639e-38 6.416911e-38 -8.00417e-40 -2.7242374e-38
7.82893e-40 -1.345692e-39 -6.380615e-38 -7.00187e-38 7.14759e-40 -3.2385353e-38 -2.9095934e-38 -1.50875e-39
5.48425e-40 -1.0962201e-38 5.6020404e-38 5.9645025e-38 -2.20094e-40 -6.248976e-38 2.4622002e-38 1.269724e-39
-5.875981e-38 -6.5400976e-38 7.76151e-40 -6.4746973e-38 -7.003062e-38 -1.6008916e-38 -2.821196e-38 -4.229231e-38
-1.43334e-39 -2.0038198e-38 1.95935e-40 -2.4853923e-38 -6.0310473e-38 6.9887104e-38 9.56158e-40 5.0591e-41
-5.61215e-38 -3.5833085e-38 6.10906e-40 -3.245923e-39 -1.214505e-39 6.0169693e-38 -3.525307e-38 1.7889e-41
-2.8980343e-38 -3.5270447e-38 -2.73252e-40 -6.7455616e-38 1.1724754e-38 5.528e-41 -6.9743925e-38 -1.348077e-39
-1.496622e-39 6.3853606e-38 -1.207719e-39 -3.31504e-40 -1.561646e-39 2.720261e-38 -6.440471e-38 -1.9033523e-38
-6.184059e-38 -3.5674144e-38 3.145729e-38 -2.01923e-40 -2.808135e-38 -1.9146199e-38 8.916014e-39 3.996427e-38
-6.9733953e-38 -6.3050146e-38 6.16273e-40 6.3067545e-38 -3.52069e-40 2.3494125e-38 -1.923883e-38 -4.6416184e-38
3.2503578e-38 1.2018208e-38 -3.4964997e-38 2.37509e-40 -5.166002e-38 -7.0179493e-38 5.4125546e-38 6.004861e-38
3.0720655e-38 -7.00399e-38 -4.205707e-38 9.12949e-40 -2.2680105e-38 5.303602e-38 -2.780925e-38 9.32923e-40
-2.7789587e-38 -3.9982745e-38 -5.192315e-38 1.439138e-39 -3.9983126e-38 -3.2272756e-38 2.8690723e-38 4.182636e-38
-6.7731167e-38 1.395085e-39 2.9335656e-38 -5.6870745e-38 -1.265588e-39 2.7915816e-38 -2.51085e-40 -6.12457e-40
6.02023e-40 1.8287e-41 -7.008395e-38 2.13358e-38 6.4449595e-38 -2.6144104e-38 -2.61341e-40 -3.6108838e-38
-5.590201e-38 1.122552e-39 2.909145e-38 6.182939e-38 1.6254894e-38 -7.55984e-40 -6.9593106e-38 -4.6719134e-38
5.053e-40 1.505049e-39 6.198481e-38 4.2620257e-38 5.195037e-38 6.60802e-40 -2.9740105e-38 5.1516574e-38
6.80606e-40 2.28347e-40 4.6973385e-38 3.9416777e-38 -8.52665e-40 5.127259e-38 4.365733e-38 -5.594805e-38
00000000: 44c4 0600 9012 6d81 6867 fa00 4069 7e01
00000010: e07e 9781 d074 8901 38ff 0280 3823 1381
00000020: 6950 0600 f8d3 8581 e149 0e00 e897 8701
00000030: 406d 5f00 f8d9 fd80 9fc4 0d00 b0d6 7180
00000040: 504f 3e01 4316 0480 c097 8301 70e2 4f01
00000050: 843f 0001 f82b ed00 75de 1000 2cfa be81
00000060: a894 0480 88af a801 12cb 1000 1872 af01
00000070: d09f e900 521a 9981 b8bd a381 73ad 0f80
00000080: 700c 2b01 28a1 2b81 08be 6401 e82e 9881
00000090: 2867 1f01 3866 8001 d4c8 0c00 3cff 3e81
000000a0: 5b89 0d00 ea8d 9881 c0ab 6501 5006 5181
000000b0: 500a 6901 fc2f 0280 9e0d 9881 78ba ae01
000000c0: 30b8 5181 ac0c 1100 a8c1 4e01 806b 6601
000000d0: 5a79 9801 c0c5 1481 dbac 0980 00b1 7e01
000000e0: 381c ef00 f8d0 5681 80d4 7e01 20ac 1000
000000f0: e075 2301 d850 7480 a050 3181 70a2 3e01
00000100: 031b 0380 0099 7c01 9858 e780 e00d 0380
00000110: 34eb 9681 b913 0f80 9334 0d00 0720 0c00
00000120: 7c98 b981 e3bc bc81 bae4 be81 0075 ac01
00000130: 50fb 8881 471c 0980 a072 d800 4064 9f01
00000140: 2ccf 0f80 40a6 5d81 a738 0200 4098 9801
00000150: 41fe 1080 1255 0780 d869 4d81 6036 5281
00000160: 9ce9 b981 0b7e 0800 4003 0600 5344 0f00
00000170: 9e15 0600 f303 1000 66b7 a201 54ae 0001
00000180: 70a6 7f01 c075 7d81 0859 9301 343f 0880
00000190: 77c5 bd01 0855 6c81 dde0 0000 4a79 0500
000001a0: a527 0b00 64bd 0800 0cc4 0980 99ed 0d00
000001b0: f034 ff80 58a1 7881 2898 0e80 d005 5681
000001c0: 93b3 0e00 4081 4f81 d2e1 0680 2eeb 0800
000001d0: a0b6 d480 58af ae01 3db7 0880 5452 1481
000001e0: 6386 0800 3ea7 0e80 66b2 ad81 ea9b be81
000001f0: 75c8 0700 9852 3081 d069 1e81 c86d 1080
00000200: c9f8 0500 285e 7780 8680 9801 845e a201
00000210: 8865 0280 021d aa81 100e 0601 79d3 0d00
00000220: 9cf5 9f81 d409 b281 9873 0800 0e42 b081
00000230: 38a4 be81 5852 ae80 bc99 1981 e042 6681
00000240: 929b 0f80 5832 da80 3022 0200 5051 0781
00000250: 442e a481 3440 be01 6169 0a00 078d 0000
00000260: fac6 9881 0818 4381 f5a6 0600 5058 2380
00000270: 8c39 0d80 28cc a301 9cef 3f81 de31 0000
00000280: b4c8 1d81 d407 4081 b7f9 0280 b4a1 b781
00000290: d8ab 7f00 199a 0000 6cdc bd81 e4ad 0e80
000002a0: f94b 1080 78d3 ad01 a126 0d80 199c 0380
000002b0: 3c01 1180 e81a 1401 8853 af81 b841 cf80
000002c0: 9a58 a881 803a 4281 1045 2b01 e132 0280
000002d0: b0e3 1881 d07b d080 3816 6100 1096 5901
000002e0: 79d5 bd81 8aa3 ab81 ebb5 0600 aaaf ab01
000002f0: 6dd5 0380 10d4 ff00 087e d180 b8b6 7c81
00000300: 60f7 3001 e0dd 8200 185e 3e81 1496 0200
00000310: c8a1 8c81 f80b bf81 0058 9301 c677 a301
00000320: 5842 2701 b0aa be81 00fb 6481 eef0 0900
00000330: e8f6 f680 b660 9001 7068 1781 9c28 0a00
00000340: 084d 1781 d0af 5981 2859 8d81 bbab 0f00
00000350: 58b0 5981 a8b5 2f81 0835 1c01 70b9 6301
00000360: bc61 b881 ee30 0f00 f0b7 1f01 20d1 9a81
00000370: f2c7 0d80 f8fc 1701 ecbb 0280 48ab 0680
00000380: 328e 0600 fa32 0000 62c9 be81 8853 e800
00000390: d072 af01 9057 0e81 83d8 0280 6098 4481
000003a0: 042e 9881 3839 0c00 9063 1e01 cc50 a801
000003b0: 0800 b100 603b 0880 5173 bd81 f85c 7e81
000003c0: 9280 0500 7763 1000 1cbd a801 f80b 6801
000003d0: 206c 8d01 0c32 0700 a8eb 2181 d03d 8c01
000003e0: 4169 0700 8a7c 0200 58bf 7f01 f89a 5601
000003f0: e248 0980 c893 8b01 70b1 6d01 1a4e 9881

fc3.bias f4 [84]
-4.2605e-40 -5.301555e-38 6.9992286e-38 -5.728987e-38 4.907706e-39 3.869947e-38 3.204727e-38 3.8145003e-38
3.2662496e-38 5.963e-42 1.561117e-39 -5.7531407e-38 -3.4588127e-38 3.4721945e-38 3.829177e-38 1.1006258e-38
8.572113e-39 4.2362082e-38 5.9874344e-38 -5.7058407e-38 6.9531595e-38 -2.2527924e-38 4.73603e-39 7.0092837e-38
-9.20896e-40 -6.2295665e-38 4.328481e-38 -2.7801986e-38 -4.8169736e-38 -2.743536e-38 2.0044857e-38 1.486123e-38
-4.6397822e-38 -2.7191087e-38 3.4487794e-38 6.5036044e-38 -1.251425e-39 6.099434e-38 2.51086e-40 -5.183123e-38
-5.293783e-38 2.05115e-38 -6.332756e-38 5.302428e-38 -8.56067e-40 1.8631664e-38 -5.055634e-38 -1.6015182e-38
-5.973204e-38 -3.8197715e-38 1.31885e-39 -6.441631e-38 2.1712357e-38 6.4216744e-38 -1.419842e-39 6.988184e-38
-5.2267603e-38 -6.63673e-40 -4.3288217e-38 9.14419e-40 6.468834e-38 -1.5123026e-38 -3.5840417e-38 1.8371539e-38
3.033253e-38 -6.9516276e-38 4.88804e-40 8.98738e-40 4.329696e-38 1.377245e-39 -1.41464e-40 8.82918e-40
-4.3072372e-38 1.9098e-41 -1.7468093e-38 -1.02279e-39 5.9644363e-38 6.2105425e-38 1.8696685e-38 -7.00503e-38
-4.3126317e-38 -5.039123e-38 6.008223e-38 5.619689e-38
00000000: a7a3 0480 7252 9081 8189 be01 36f5 9b81
00000010: b070 3500 30b3 5201 607b 2e01 60ae 4f01
00000020: e0d4 3101 9f10 0000 c2ff 1000 8a9d 9c81
00000030: d050 3c81 540b 3d01 f07a 5001 f8d8 7700
00000040: 9057 5d00 20a4 6601 54fe a201 e853 9b81
00000050: 7348 bd01 b04e f580 2092 3300 94cf be01
00000060: 1507 0a80 be95 a981 38aa 6b01 505e 1781
00000070: 6821 8381 505f 1581 e844 da00 10d3 a100
00000080: 209d 7c81 d80a 1481 f8c4 3b01 820b b101
00000090: 77a0 0d80 da0a a601 edbb 0200 1819 8d81
000000a0: 481c 9081 b859 df00 de64 ac81 8858 9001
000000b0: 5e52 0980 80e1 ca00 a0a0 8981 d063 ae80
000000c0: 289b a281 d8f7 4f81 6b5c 0e00 9e5b af81
000000d0: 386d ec00 8ad0 ae01 f175 0f80 893c be01
000000e0: 3449 8e81 0d3a 0780 f8ae 6b81 07f5 0900
000000f0: 3219 b001 d8ac a480 4022 4381 600c c800
00000100: 6025 2501 c63d bd81 9652 0500 51c9 0900
00000110: 28bb 6b01 33ff 0e00 588a 0180 379d 0900
00000120: 2082 6a81 3d35 0000 f035 be80 1f23 0b80
00000130: 0e5e a201 2a11 a901 c096 cb00 efb1 be81
00000140: 50cd 6a81 902d 8981 348f a301 84fb 9801

fc4.weight f4 [42, 84]
1.550572e-39 -4.664418e-38 -6.7644e-40 -1.253142e-39 6.213427e-38 3.0727493e-38 6.204285e-38 6.7866073e-38
-6.8777365e-38 2.8412526e-38 6.4431446e-38 -3.9322587e-38 -9.5503e-41 5.2207e-41 3.5749e-40 -3.0095272e-38
-1.141728e-39 -6.306e-40 -3.6050096e-38 -4.232343e-38 1.168572e-39 -6.1943e-41 -3.1867724e-38 -1.266856e-39
2.946415e-39 -9.76146e-40 1.055591e-39 6.94285e-40 -1.486277e-39 5.1958174e-38 -4.673243e-38 1.16697e-39
1.293773e-39 3.5265044e-38 -4.7539667e-38 -1.055838e-39 -5.0017746e-38 -1.213014e-39 4.2559295e-38 -5.985978e-38
2.68103e-40 -1.64482e-40 -3.58762e-40 3.9485048e-38 -1.27405e-39 -7.1724e-41 -6.1560073e-38 5.305463e-38
2.731671e-38 -1.4904177e-38 3.94196e-40 -1.535721e-39 -6.999576e-38 1.096757e-39 -1.7502812e-38 -2.1804e-41
3.8311993e-38 2.900448e-38 -1.043307e-39 1.8889044e-38 5.5643567e-38 1.285204e-39 1.284226e-39 5.7730055e-38
4.1799478e-38 -6.657939e-38 -5.8526766e-38 -2.1739128e-38 -5.6193806e-38 3.2008303e-38 8.88538e-40 5.59454e-40
-8.26866e-40 -4.6485756e-38 -1.67584e-40 5.58933e-38 6.3972324e-38 1.2542e-39 4.030695e-38 5.480042e-38
2.99635e-40 -4.14535e-40 2.91717e-40 -7.10559e-40 -1.6580006e-38 4.275384e-39 5.5602424e-38 -7.69491e-40
-4.429022e-39 4.0981545e-38 5.1541775e-38 -1.274208e-39 -4.70056e-40 -3.28945e-40 -1.313384e-39 -1.571175e-39
1.515263e-39 -3.3901816e-38 -3.453139e-38 -1.414392e-39 -1.123701e-39 3.0207e-40 2.7043446e-38 5.17256e-40
9.1586e-41 -9.42288e-40 8.92856e-40 -4.7017218e-38 8.90557e-40 1.244098e-39 5.5843504e-38 -3.5100027e-38
-1.104341e-39 4.1131002e-38 3.509756e-38 -6.089262e-38 -8.24167e-40 4.677588e-38 4.0105745e-38 -3.985979e-38
1.079378e-39 -3.269902e-38 9.6959e-41 4.3019527e-38 5.0576696e-38 4.6366657e-38 8.87985e-40 4.8091846e-38
2.30893e-40 1.376388e-39 6.151912e-38 5.9807463e-38 2.7871333e-38 -7.97441e-40 8.13783e-40 5.758219e-38
-8.487351e-39 2.93295e-40 -1.293829e-38 -1.168061e-39 -1.258267e-39 1.529025e-39 -1.19316e-40 -3.4908407e-38
-5.717387e-39 7.61117e-40 -5.0508626e-38 -4.6092496e-38 -6.937e-40 5.1626526e-38 7.0509e-40 -4.2897288e-38
-9.784045e-39 -2.25154e-40 1.251676e-39 -3.67013e-40 -5.07555e-40 5.219e-40 -8.42835e-40 -6.5483193e-38
-9.40416e-40 -6.336722e-38 6.5533763e-38 1.334172e-39 4.62287e-40 -8.274443e-39 -5.459424e-38 -5.974325e-38
6.44624e-40 4.6725972e-38 9.50564e-40 -1.162732e-39 2.578174e-38 6.0109516e-38 5.9740885e-38 -1.196943e-39
-1.00374e-39 3.75254e-40 5.1631503e-38 4.0161797e-38 -2.06099e-40 -6.69033e-40 7.10894e-40 -5.858786e-38
3.5046676e-38 5.144754e-38 3.3051743e-38 4.672947e-38 3.4616915e-38 -4.022036e-38 1.5257057e-38 -2.95451e-40
2.0532655e-38 -1.101677e-39 -2.07479e-40 -1.8126659e-38 -6.0322356e-38 6.9888786e-38 -4.08809e-40 -3.656463e-38
2.69055e-40 3.1878935e-38 2.37821e-40 -5.103502e-38 -4.006355e-38 -9.725e-41 -5.606418e-38 1.006675e-39
6.971962e-38 -3.4665927e-38 2.4188967e-38 -5.14122e-40 -1.034164e-39 -3.2431158e-38 -4.1852884e-38 -5.9901104e-38
4.748e-41 -7.010178e-38 9.40432e-40 6.961e-40 4.5816944e-38 1.480416e-39 7.93928e-40 -2.337395e-38
6.980387e-38 -6.1424595e-38 -5.62453e-40 1.231465e-39 -3.32643e-40 5.28379e-40 3.81635e-40 -6.5326774e-38
-1.26264e-39 -8.3921e-41 6.8954e-41 2.801097e-38 6.457143e-38 4.1504308e-38 1.138642e-39 -4.10306e-40
1.516873e-39 9.85267e-40 -4.1893757e-38 -4.671353e-38 -4.86775e-40 2.1147275e-38 -1.135031e-39 -1.8685766e-38
-1.9948089e-38 1.26428e-40 6.771083e-38 -1.469112e-39 8.05382e-40 4.681088e-38 5.6161004e-38 5.496507e-38
00000000: 5de2 1000 80f4 7d81 a45d 0780 40a5 0d80
00000010: 4425 a901 e04b 2701 8ee5 a801 c0bf b801
00000020: d43a bb81 48b1 1a01 2a66 af01 b017 5681
00000030: 390a 0180 8891 0000 89e4 0300 b0da 2381
00000040: ac6e 0c80 dbdd 0680 8046 4481 406e 6681
00000050: 81b9 0c00 acac 0080 2081 2d81 7bcb 0d80
00000060: 6815 2000 19a1 0a80 8f7e 0b00 628f 0700
00000070: 232f 1080 9071 8d01 806f 7e81 0ab5 0c00
00000080: 8316 0e00 4c00 4001 506a 8181 3f7f 0b80
00000090: 4829 8881 6435 0d80 00b7 6701 2ef4 a281
000000a0: 5deb 0200 82ca 0180 15e8 0380 20fa 5601
000000b0: 88df 0d80 f0c7 0080 1c95 a781 ae6d 9001
000000c0: f0b9 1401 c84a a280 dc4a 0400 f7b8 1080
000000d0: ed8b be81 50f1 0b00 b896 be80 c83c 0080
000000e0: 2097 5001 58ea 1d01 515c 0b80 f8ae cd00
000000f0: e879 9701 a0fe 0d00 e6fb 0d00 fa27 9d01
00000100: f893 6301 103f b581 3453 9f81 d8b7 ec80
00000110: 5ef9 9881 1045 2e01 e2ac 0900 8817 0600
00000120: f700 0980 b017 7d81 28d3 0180 f227 9801
00000130: 3426 ae01 33a8 0d00 b073 5b01 522e 9501
00000140: 4343 0300 8e83 0480 302d 0300 c0bc 0780
00000150: 508a b480 088e 2e00 3c5d 9701 0761 0880
00000160: 503a 3080 f01f 5f01 604f 8c01 f9df 0d80
00000170: 531e 0580 f794 0380 2e4d 0e80 cc1b 1180
00000180: f07f 1000 3c94 3881 bc01 3c81 c066 0f80
00000190: 6c3c 0c80 0c4a 0300 103d 1301 e6a1 0500
000001a0: 4eff 0000 b742 0a80 ebb8 0900 70fc 7f81
000001b0: 83b2 0900 0a8c 0d00 3e05 9801 4c1a 3f81
000001c0: 7406 0c80 40f0 5f01 dc16 3f01 f6c3 a581
000001d0: 71f9 0880 10ac 7e01 405b 5a01 7004 5981
000001e0: dec0 0b00 c807 3281 480e 0100 7838 6a01
000001f0: d0ae 8901 b071 7c01 57ab 0900 20eb 8201
00000200: a383 0200 cffc 0e00 9278 a701 b8cf a201
00000210: f8be 1701 f1ae 0880 7fdc 0800 eec0 9c01
00000220: 486b 5c80 9631 0300 b0e2 8c80 14b8 0c80
00000230: 89b3 0d80 4da6 1000 9b4c 0180 380f 3e81
00000240: c041 3e80 af49 0800 607f 8981 90f3 7a81
00000250: c18d 0780 708a 8c01 81ad 0700 188e 6981
00000260: f089 6a80 a373 0280 2aa1 0d00 15ff 0380
00000270: db86 0580 d8ae 0500 7b2d 0980 2043 b281
00000280: 7f3d 0a80 8280 ac81 5e66 b201 2187 0e00
00000290: ab08 0500 c819 5a80 a29e 9481 f8a2 a281
000002a0: f304 0700 8066 7e01 c959 0a00 39a9 0c80
000002b0: 805e 0c01 38a2 a301 52a1 a201 9708 0d80
000002c0: 05ee 0a80 0e16 0400 e88d 8c01 60a9 5a01
000002d0: 853e 0280 fe48 0780 afbd 0700 c87d 9f81
000002e0: f0cf 3e01 b40d 8c01 68f3 3301 606b 7e01
000002f0: f078 3c01 00fb 5a81 7822 a600 9937 0380
00000300: b094 df00 07ff 0b80 5e42 0280 c061 c580
00000310: 8c36 a481 6041 be01 9873 0480 a813 4781
00000320: 04ee 0200 c090 2d01 f396 0200 38ee 8a81
00000330: 7020 5a81 180f 0180 089f 9881 33f6 0a00
00000340: 7ccb bd01 40bd 3c81 80b2 0301 2a99 0580
00000350: d442 0b80 7092 3081 68de 6381 fa10 a381
00000360: 5b84 0000 cfd5 be81 8b3d 0a00 7294 0700
00000370: 8073 7901 cc1e 1000 26a5 0800 1085 fe80
00000380: 3306 be01 b236 a781 e41f 0680 d368 0d00
00000390: 469f 0380 e8c0 0500 d827 0400 1ed6 b181
000003a0: babf 0d80 f0e9 0080 37c0 0000 9881 1801
000003b0: b8c7 af01 90f8 6101 1266 0c00 c477 0480
000003c0: 6d84 1000 86ba 0a00 6017 6481 2855 7e81
000003d0: ee4c 0580 0046 e600 015c 0c80 5078 cb80
000003e0: 2837 d980 6e60 0100 9053 b801 49ff 0f80
000003f0: 14c5 0800 d8dc 7e01 82e2 9801 10a1 9501

fc4.bias f4 [42]
-6.92017e-40 3.484194e-38 -5.584818e-38 -1.434822e-39 -1.93515e-40 6.074e-38 -1.244234e-39 -5.15081e-38
5.8577863e-38 4.6780477e-38 -1.022298e-39 -4.6834466e-38 5.064786e-38 -4.5352834e-38 4.2182e-41 -1.510234e-39
4.1877412e-38 1.354389e-39 2.14437e-40 -7.8763e-41 3.993436e-38 1.543104e-39 1.274751e-39 -1.81272e-40
-4.353386e-38 -7.29464e-40 -5.9339396e-38 3.00085e-40 6.8603e-41 5.5954083e-38 -1.054062e-39 -1.4834e-40
-4.6836574e-38 6.611036e-38 7.0007e-38 5.0770927e-38 -6.337881e-38 -1.171048e-39 1.165886e-39 -3.41516e-40
6.39306e-40 8.85734e-40
00000000: 1089 0780 94b2 3d01 8008 9881 b39f 0f80
00000010: 711b 0280 9a59 a501 6b8c 0d80 e837 8c81
00000020: d076 9f01 78b2 7e01 c021 0b80 b8fd 7e81
00000030: 68e0 8901 a0ec 7681 9675 0000 eb71 1080
00000040: 9800 6401 7cbf 0e00 c355 0200 8fdb 0080
00000050: 606c 5901 8ccd 1000 7de1 0d00 50f9 0180
00000060: 5805 6d81 73f1 0780 8689 a181 8444 0300
00000070: 3dbf 0000 4e52 9801 4c7a 0b80 839d 0180
00000080: a800 7f81 32f8 b301 c293 be01 2c36 8a01
00000090: 9688 ac81 68c0 0c80 04b2 0c00 02b8 0380
000000a0: 20f6 0600 11a5 0900

fc5.weight f4 [42, 42]
7.84916e-40 3.81726e-40 1.240962e-39 5.3924577e-38 -1.098207e-39 -3.4762684e-38 1.087864e-39 -1.242551e-39
-5.884033e-38 -9.55641e-40 6.49967e-40 -2.05142e-40 -3.33454e-40 5.990818e-38 -1.385436e-39 4.30463e-40
1.74421e-40 -1.7572e-40 3.20466e-40 -2.0457354e-38 -9.1723e-40 -9.46852e-40 5.11288e-40 -2.641293e-38
5.3865e-40 -2.8234326e-38 -1.132326e-39 -3.967522e-38 -4.4001018e-38 -5.158581e-38 -4.6707834e-38 -1.350224e-39
-5.75666e-40 -6.87663e-40 8.53915e-40 5.8892954e-38 1.377175e-39 -4.08026e-40 -4.1565876e-38 2.7048625e-38
4.7058226e-38 -3.5225796e-38 1.18416e-39 -2.3351226e-38 5.43052e-40 1.005027e-39 -1.157352e-39 1.02815e-39
-1.378679e-39 7.0805e-40 -5.42461e-40 -4.2194464e-38 1.1804247e-38 -8.72708e-40 2.59865e-40 -6.255781e-38
-3.6668e-40 1.31341e-39 -1.185336e-39 1.388613e-39 1.128813e-39 -7.15084e-40 -8.77842e-40 -4.6723013e-38
-2.24515e-40 6.1535466e-38 -1.54415e-40 9.01448e-40 4.6844354e-38 1.3123e-39 1.565417e-39 -3.1337742e-38
5.104919e-38 -3.700345e-38 8.72336e-40 -1.484365e-39 -5.012e-41 1.0318e-40 -5.2468e-40 8.7228e-41
6.3573414e-38 -1.032531e-39 3.502143e-38 5.3767e-40 -1.2749484e-38 -8.4725e-41 -6.62661e-40 1.268608e-39
5.5722e-40 1.05745e-40 2.7185257e-38 2.41085e-40 -5.22369e-40 5.6339194e-38 3.54635e-40 9.20827e-40
2.0020654e-38 -9.07847e-40 2.2166e-40 1.451232e-39 1.08837e-40 5.048e-41 -9.95185e-40 -5.42843e-40
1.01659e-39 4.6459456e-38 -5.6681e-40 -4.69802e-38 1.118963e-39 8.4962e-41 -3.51043e-40 -2.8240783e-38
-2.30629e-40 1.464724e-39 -5.2089e-41 -9.46777e-40 -4.07014e-40 4.935e-40 6.389928e-38 -4.67574e-40
-1.30592e-39 9.87133e-40 -6.042704e-38 -2.08534e-40 -3.489852e-38 -6.621511e-38 4.7358507e-38 3.12313e-40
-5.75686e-40 -5.55014e-40 9.98832e-40 6.54797e-40 1.0783765e-38 -6.9749833e-38 -6.317001e-38 -7.83581e-40
4.73427e-40 -4.7716e-41 -4.41998e-40 2.8599493e-38 4.0534e-41 6.002156e-38 9.36426e-40 6.180809e-38
-6.989736e-38 -8.9083e-40 -1.195188e-39 -9.48633e-40 3.6108e-40 5.455369e-38 7.002308e-38 4.11278e-40
-5.38236e-40 1.358863e-39 -9.44837e-40 5.732267e-38 -1.085205e-39 -1.554985e-38 1.403329e-39 4.2505575e-38
-1.8086e-40 -5.6698117e-38 -1.307818e-39 -4.865472e-38 5.553096e-38 -3.2543442e-38 -4.754877e-38 -2.7930098e-38
-2.61449e-40 -2.7254403e-38 9.26319e-40 -5.9614006e-38 -1.226835e-39 5.528683e-38 -6.82079e-38 2.55506e-40
-2.0309579e-38 -3.858351e-38 -1.216896e-39 5.20172e-40 4.6778594e-38 -4.10858e-40 2.21174e-40 1.409647e-39
7.61163e-40 9.08383e-40 -1.184069e-39 -1.042652e-39 -7.46123e-40 6.793692e-38 -8.42116e-40 -1.33905e-39
5.4016715e-38 -1.148416e-39 -1.516091e-39 -4.6735994e-38 -4.6792338e-38 -2.7039152e-38 3.69976e-40 4.6858143e-38
2.31377e-40 8.19261e-40 -1.207483e-39 6.449131e-38 -2.2636e-40 -5.567038e-38 4.7011703e-38 -1.037635e-39
1.15681e-40 -1.540618e-39 -1.534479e-39 5.38966e-40 2.02895e-40 -8.47664e-40 4.368186e-38 8.73261e-40
-6.2134325e-38 2.2069e-40 1.547232e-39 -2.8256993e-38 8.04043e-40 1.16431e-40 -1.213785e-39 -4.0651467e-38
-1.071563e-39 -5.3473336e-38 -3.8178388e-38 1.80546e-40 -4.06262e-40 9.71569e-40 3.1852702e-38 2.8198643e-38
6.2449886e-38 7.77325e-40 -8.4314e-40 1.070746e-39 1.156167e-39 -6.4432454e-38 5.595414e-38 3.39141e-40
1.512257e-39 -8.53546e-40 5.518914e-38 -9.72183e-40 9.93504e-40 -1.077845e-39 2.372e-41 2.835439e-38
2.0032369e-38 3.6062e-40 6.992442e-38 -5.583709e-38 -7.76e-43 1.63131e-40 4.97745e-40 -1.9539728e-38
00000000: 078c 0800 1928 0400 4c83 0d00 f2cb 9201
00000010: 5bf5 0b80 1c44 3d81 86d8 0b00 ba87 0d80
00000020: ba2d a081 f067 0a80 d813 0700 da3b 0280
00000030: 89a1 0380 e815 a301 0816 0f80 f5af 0400
00000040: 37e6 0100 d6e9 0180 547d 0300 c8c2 de80
00000050: ddfc 0980 704f 0a80 4391 0500 40ce 0f81
00000060: 89dd 0500 e8b8 1981 7754 0c80 3003 5881
00000070: 7890 6f81 106e 8c81 384d 7e81 e0b3 0e80
00000080: b944 0680 ed7c 0780 5e4c 0900 6652 a001
00000090: 01ff 0e00 6971 0480 604e 6281 4844 1301
000000a0: cc1a 8001 98c9 3f81 f5e4 0c00 b845 fe80
000000b0: cfe9 0500 9bf1 0a00 3a9a 0c80 1032 0b00
000000c0: 3203 0f80 c1b5 0700 29e8 0580 80ba 6581
000000d0: 7089 8000 c180 0980 66d4 0200 6e4c aa81
000000e0: 28fe 0380 414d 0e00 3ce8 0c80 e31e 0f00
000000f0: ac4a 0c00 5dc9 0780 118f 0980 6062 7e81
00000100: db71 0280 f683 a701 72ae 0180 dfd0 0900
00000110: 800b 7f01 294a 0e00 bf0b 1100 709e 2a81
00000120: 18f8 8a01 4877 4981 b87f 0900 ce29 1080
00000130: b78b 0080 a01f 0100 98b6 0580 28f3 0000
00000140: 3410 ad01 473e 0b80 c0ac 3e01 ceda 0500
00000150: 60d4 8a80 2eec 0080 3b37 0780 5dd0 0d00
00000160: 4d11 0600 c626 0100 b802 1401 0ca0 0200
00000170: 27b0 0580 b05e 9901 94dc 0300 e406 0a00
00000180: 7001 da00 b5e2 0980 e669 0200 72cd 0f00
00000190: 652f 0100 b88c 0000 2cd6 0a80 3ae9 0580
000001a0: d711 0b00 08f3 7c01 092c 0680 d8c8 7f81
000001b0: 372f 0c00 d7ec 0000 91d2 0380 e8c1 1981
000001c0: e682 0280 0ef3 0f00 3491 0080 3b4f 0a80
000001d0: 976e 0480 ad5f 0500 4cf3 ad01 6817 0580
000001e0: 6038 0e80 babf 0a00 807f a481 4f45 0280
000001f0: 7001 3e81 3241 b481 10ec 8001 9a66 0300
00000200: c744 0680 270b 0680 56e0 0a00 4f21 0700
00000210: c06c 7500 8ae0 bd81 12f7 ab81 4e88 0880
00000220: b927 0500 0385 0080 1cd0 0480 e0b5 1b01
00000230: fe70 0000 ec64 a301 6032 0a00 f441 a801
00000240: 5a47 be81 46b3 0980 b303 0d80 6754 0a80
00000250: 8bee 0300 6082 9401 f79e be01 7a7a 0400
00000260: 62dc 0580 f5cb 0e00 d249 0a80 120c 9c01
00000270: 1cd1 0b80 a852 a980 e947 0f00 206c 6701
00000280: 2af8 0180 d258 9a81 aa3d 0e80 6473 8481
00000290: 6e2b 9701 f02e 3181 a870 8181 e010 1881
000002a0: d0d8 0280 1863 1481 3316 0a00 e648 a281
000002b0: eb5b 0d80 4c81 9601 f8ad b981 3fc8 0200
000002c0: d826 dd80 9011 5281 3640 0d80 07aa 0500
000002d0: d8af 7e01 4e79 0480 8b68 0200 8659 0f00
000002e0: d049 0800 34e4 0900 b4e4 0c80 7d5a 0b80
000002f0: e31f 0880 20f1 b801 7a2b 0980 ba94 0e80
00000300: 280c 9301 5181 0c80 3f82 1080 7874 7e81
00000310: 00c3 7e81 1437 1381 5807 0400 b81e 7f01
00000320: fc84 0200 c4eb 0800 f925 0d80 e28f af01
00000330: 0077 0280 988c 9781 c0f4 7f01 814c 0b80
00000340: 7942 0100 9ec6 1080 81b5 1080 6bde 0500
00000350: 9735 0200 f13a 0980 a0d3 6d01 4c82 0900
00000360: 4e25 a981 3267 0200 0ed9 1000 80d8 1981
00000370: 58c1 0800 9044 0100 8a37 0d80 e053 5d81
00000380: 15ab 0b80 7a91 9181 e8dc 4f81 4af7 0100
00000390: 7e6c 0480 5794 0a00 306c 2d01 2c87 1901
000003a0: 3801 aa01 de76 0800 552e 0980 cea8 0b00
000003b0: ec96 0c00 de66 af81 5852 9801 63b1 0300
000003c0: 8f77 1000 574b 0980 383d 9601 0d96 0a80
000003d0: 7cd1 0a00 98bc 0b80 1f42 0000 4060 1a01
000003e0: 1822 da00 43ed 0300 355a be01 c600 9881
000003f0: 2a02 0080 bec6 0100 836b 0500 d0c4 d480

fc5.bias f4 [42]
6.5043555e-38 -1.081095e-39 1.214207e-39 2.7066853e-38 1.481834e-39 6.89044e-40 1.435818e-39 1.8444787e-38
-6.1900656e-38 9.59315e-40 -1.015997e-39 5.5313e-40 -6.51029e-40 -9.18146e-40 1.48112e-40 -1.390399e-39
-6.8063e-40 5.0333654e-38 -5.937721e-38 8.64893e-40 5.9696155e-38 -3.9871986e-38 1.23205e-40 5.144088e-38
7.002658e-38 8.941e-41 -9.60467e-40 -2.61304e-40 5.7496e-40 -4.0449904e-38 -1.558471e-39 -3.60235e-40
-7.6546e-41 -1.425734e-39 -5.90057e-40 4.72889e-40 -3.8205e-41 3.247638e-38 -6.80052e-40 -3.7948553e-38
1.13738e-40 3.7577e-41
00000000: be10 b101 a7c5 0b80 b738 0d00 b05d 1301
00000010: c022 1000 c680 0700 7aa2 0f00 90d8 c800
00000020: 7682 a881 2e72 0a00 3010 0b80 e705 0600
00000030: ce16 0780 6bff 0980 e09c 0100 de23 0f80
00000040: 5269 0780 7005 8901 e0a3 a181 f86a 0900
00000050: 2682 a201 7015 5981 7257 0100 1009 8c01
00000060: 67a1 be01 3df9 0000 6475 0a80 69d8 0280
00000070: c142 0600 f03a 5c81 62f8 1080 30ec 0380
00000080: 61d5 0080 5e86 0f80 d76c 0680 3926 0500
00000090: 806a 0080 78d1 3001 b567 0780 909c 4e81
000000a0: 0e3d 0100 c068 0000
