models/PPO/ppo_critic_weights.pth (torch, 359122 bytes, 9 tensors)

fc1.weight f4 [336, 42]
000000 6e cb 07 00 55 8a 09 80 a3 f0 10 00 dd 8e 05 80
       7.15825e-40 -8.76144e-40 1.555692e-39 -5.10427e-40
000010 d6 10 03 00 11 e2 04 80 15 8c 0b 00 82 97 0d 00
       2.81546e-40 -4.4844e-40 1.060442e-39 1.248212e-39
000020 03 1c 01 80 20 af 0d 00 dc 50 08 00 bf 34 0a 00
       -1.01884e-40 1.256684e-39 7.63691e-40 9.37277e-40
000030 81 11 06 80 97 b0 05 80 e0 1e 08 80 92 83 00 80
       -5.57292e-40 -5.22526e-40 -7.4576e-40 -4.7199e-41
000040 fc a0 05 00 9e 40 0a 80 b7 4c 01 00 74 83 01 80
       5.16928e-40 -9.41535e-40 1.19356e-40 -1.38992e-40
000050 9e 3a 0a 00 af de 0a 00 87 4c 07 00 4a 32 00 00
       9.39383e-40 9.98239e-40 6.70301e-40 1.804e-41
000060 f4 ef 0b 00 80 53 63 01 52 4a 0d 80 b4 47 0c 00
       1.09627e-39 4.1753224e-38 -1.220523e-39 1.127748e-39
000070 a0 3a 0f 80 e6 71 06 00 34 ff 0e 00 f0 90 65 01
       -1.398563e-39 5.91872e-40 1.377247e-39 4.2164645e-38
000080 3e ae 0b 80 05 ff 0d 80 4e d6 05 00 5f 4a 10 00
       -1.072697e-39 -1.285345e-39 5.36056e-40 1.496047e-39
000090 5d 45 0d 80 62 f2 05 00 52 e5 02 00 47 b6 04 80
       -1.218744e-39 5.46128e-40 2.65936e-40 -4.32731e-40
0000a0 b7 74 05 80 95 f7 10 00 0f 48 07 00 db 8f 05 00
       -5.01047e-40 1.558184e-39 6.68698e-40 5.10783e-40
0000b0 a0 70 99 01 b3 0d 0a 80 b8 03 0e 00 89 d0 0d 00
       5.636493e-38 -9.2327e-40 1.287031e-39 1.26867e-39
0000c0 fc 6f 09 00 4b e4 06 80 fd 7a 0a 00 aa 31 00 00
       8.66692e-40 -6.32909e-40 9.62475e-40 1.7816e-41
0000d0 e6 1e 0b 00 ea 68 03 00 b8 38 08 00 00 c8 06 80
       1.021275e-39 3.13143e-40 7.55031e-40 -6.2276e-40
0000e0 e3 cd 00 80 06 c8 00 00 a6 74 05 00 2b 8a 06 00
       -7.3858e-41 7.1755e-41 5.01023e-40 6.00578e-40
0000f0 c5 0c 05 00 39 94 0b 00 a1 a5 0a 80 7e 12 09 80
       4.63758e-40 1.063363e-39 -9.77771e-40 -8.33153e-40
000100 4d d7 06 80 a7 f6 10 80 68 5e 7e 01 ac 81 03 80
       -6.28248e-40 -1.55785e-39 4.6720165e-38 -3.22024e-40
000110 64 1d 88 01 a6 6f ad 01 59 f5 0a 00 ac 38 0f 00
       5.0000683e-38 6.371037e-38 1.006369e-39 1.397862e-39
000120 10 5e 0f 00 88 de b2 81 0e 90 06 80 10 38 0e 80
       1.411276e-39 -6.570619e-38 -6.0269e-40 -1.305808e-39
000130 94 99 94 01 a4 a7 0a 00 40 00 b4 01 5a ff 09 00
       5.458699e-38 9.78493e-40 6.6121916e-38 9.18122e-40
000140 f3 08 00 80 60 07 06 00 90 2e 69 81 32 35 08 80
       -3.21e-42 5.53659e-40 -4.2828748e-38 -7.53767e-40
000150 8a e5 08 00 6a ea 0b 80 d2 8b 10 00 72 7d 03 00
       8.17027e-40 -1.094282e-39 1.519526e-39 3.20508e-40
000160 d4 c0 0a 00 09 74 03 00 d2 61 ad 81 cf dd 00 00
       9.87529e-40 3.17132e-40 -6.369053e-38 7.957e-41
000170 3e d8 bd 81 95 f2 09 00 86 80 0f 80 fa a1 08 80
       -6.973793e-38 9.13542e-40 -1.423638e-39 -7.9279e-40
000180 df 9b 0d 00 69 ea 0d 80 63 9c 0b 80 7b a7 be 01
       1.249777e-39 -1.277952e-39 -1.066291e-39 7.00353e-38
000190 52 df 00 80 cc a4 07 00 c0 15 01 00 9d d6 0f 80
       -8.0112e-41 7.01966e-40 9.9638e-41 -1.454521e-39
0001a0 dd 9c 05 80 9e ad 02 80 eb 6a 04 80 5e 51 a9 81
       -5.1545e-40 -2.45953e-40 -4.05697e-40 -6.219755e-38
0001b0 a5 28 06 00 a5 0b 07 00 38 c5 c5 80 f4 16 10 00
       5.65593e-40 6.47026e-40 -1.8162341e-38 1.477602e-39
0001c0 54 e3 01 80 38 ad 5e 81 17 e7 07 00 9e de 03 00
       -1.73385e-40 -4.089924e-38 7.25748e-40 3.55366e-40
0001d0 24 3b 00 80 58 11 16 81 3c 59 08 00 68 c4 0d 80
       -2.1216e-41 -2.7563092e-38 7.66695e-40 -1.264319e-39
0001e0 92 a6 be 01 cf 8a 03 00 68 82 0f 81 d9 7e bd 81
       7.0033994e-38 3.25302e-40 -2.6358514e-38 -6.960965e-38
0001f0 28 da 02 80 93 5a 07 80 9b 0b 06 00 5c 40 10 00
       -2.61931e-40 -6.7534e-40 5.55176e-40 1.492456e-39
000200 76 a2 07 80 db ad 04 80 fb 67 05 00 f6 68 05 00
       -7.01128e-40 -4.2971e-40 4.96479e-40 4.9683e-40
000210 4a 71 0b 80 2d 1d 06 00 cc 83 ba 81 d3 1a 08 00
       -1.050831e-39 5.61479e-40 -6.851473e-38 7.44307e-40
000220 29 7c 0b 00 33 f6 0a 80 4b a5 03 00 3a 32 02 00
       1.054731e-39 -1.006675e-39 3.34802e-40 2.01689e-40
000230 9a 47 0d 80 a7 8c 0c 00 e6 f9 02 80 86 63 0b 80
       -1.219547e-39 1.152483e-39 -2.73318e-40 -1.045893e-39
000240 e8 b8 0d 00 95 1b 05 00 38 ce 04 80 64 1e 07 00
       1.260193e-39 4.69072e-40 -4.4132e-40 6.5375e-40
000250 e8 66 8b 00 6a 7c 04 80 0d 0d 0e 00 f0 17 02 00
       1.280205e-38 -4.11973e-40 1.290379e-39 1.92258e-40
000260 58 8b 58 00 e5 54 0a 80 58 a1 02 00 08 5f 05 80
       8.131511e-39 -9.4881e-40 2.4155e-40 -4.93268e-40
000270 79 7e 02 80 40 78 fe 00 bd 9a be 01 f0 6e 0a 00
       -2.29041e-40 2.3369354e-38 7.0017016e-38 9.58152e-40
000280 5d b7 0d 80 b7 9b 00 00 58 97 0f 00 5c 03 09 00
       -1.25964e-39 5.586e-41 1.431824e-39 8.27725e-40
000290 40 7c 04 80 02 1b 00 00 74 e8 08 80 45 61 00 00
       -4.11914e-40 9.689e-42 -8.18072e-40 3.4894e-41
0002a0 3d 01 10 00 13 fb 00 80 66 6b 0f 00 58 22 8c 81
       1.469812e-39 -9.0068e-41 1.41606e-39 -5.147716e-38
0002b0 fb eb 04 00 c6 b2 06 80 7a 01 08 00 8b 35 01 80
       4.51996e-40 -6.15145e-40 7.35214e-40 -1.11043e-40
0002c0 a0 26 5b 01 a4 c0 0b 00 5d 11 09 80 b2 a3 0a 00
       4.025166e-38 1.079297e-39 -8.32748e-40 9.77078e-40
0002d0 ce 50 04 00 f8 01 99 01 74 7d 8c 01 c0 2a 7d 81
       3.96329e-40 5.620615e-38 5.1607894e-38 -4.6499433e-38
0002e0 59 45 0a 00 b0 dd a0 00 66 1e 10 00 c4 d1 10 80
       9.43232e-40 1.4773206e-38 1.480273e-39 -1.544618e-39
0002f0 28 25 98 81 18 28 7e 81 32 fa 07 00 a5 73 01 80
       -5.58893e-38 -4.6681198e-38 7.32602e-40 -1.33321e-40
000300 40 bb 9f 01 50 f7 8b 81 16 31 a9 81 82 5e 0a 00
       5.8676066e-38 -5.141541e-38 -6.215123e-38 9.52258e-40
000310 f2 1e 01 00 ac fe 3f 01 ba a6 0b 80 0b a1 0c 80
       1.02937e-40 3.5263878e-38 -1.07e-39 -1.159797e-39
000320 54 fa b9 81 a8 cd 03 00 83 14 04 80 ee e3 07 00
       -6.831747e-38 3.49282e-40 -3.747e-40 7.24614e-40
000330 a2 65 0d 80 cd 0b 06 00 46 b5 06 80 b0 e1 a4 81
       -1.23032e-39 5.55246e-40 -6.16042e-40 -6.056793e-38
000340 c3 6b 09 80 2c a1 06 00 d7 72 02 80 f4 d9 06 00
       -8.65177e-40 6.0883e-40 -2.24868e-40 6.292e-40
000350 c4 84 3e 81 8a 9a 10 80 e5 39 00 00 55 da 08 00
       -3.4992743e-38 -1.524806e-39 2.0769e-41 8.13007e-40
000360 ef e8 00 80 2b ae 0e 80 14 d4 0f 80 66 01 05 00
       -8.3561e-41 -1.348177e-39 -1.453612e-39 4.59679e-40
000370 5a 04 0e 00 96 55 0b 80 13 5f 07 00 80 b7 03 80
       1.287258e-39 -1.040893e-39 6.76955e-40 -3.41334e-40
000380 32 ff 03 80 e0 97 88 01 7b 61 04 80 2d c6 05 80
       -3.67053e-40 5.017644e-38 -4.02311e-40 -5.3027e-40
000390 99 9f 06 80 a6 9f 0c 80 e3 7f 06 80 a2 b3 9a 81
       -6.08266e-40 -1.159297e-39 -5.9689e-40 -5.6828426e-38
0003a0 80 d8 bf 00 fc 87 03 80 c7 64 09 80 2f 01 0c 00
       1.7618245e-38 -3.24288e-40 -8.62672e-40 1.10245e-39
0003b0 7b b2 03 00 1e 77 0d 00 f8 26 02 80 0a b5 08 00
       3.39533e-40 1.236593e-39 -1.9765e-40 7.99629e-40
0003c0 fa 7c 0a 80 81 84 0f 00 2e 42 08 80 8b b9 10 00
       -9.63188e-40 1.425066e-39 -7.58425e-40 1.535928e-39
0003d0 89 89 09 80 1d 25 0b 00 dc 84 98 81 86 f1 07 80
       -8.75858e-40 1.023504e-39 -5.6026626e-38 -7.29491e-40
0003e0 be 45 05 00 eb de 02 00 80 2c d3 00 15 03 0e 00
       4.84196e-40 2.63639e-40 1.9393253e-38 1.286803e-39
0003f0 47 d2 0f 00 19 d3 03 80 80 8f 9d 80 6a 35 0c 80
       1.452966e-39 -3.51234e-40 -1.4469651e-38 -1.121187e-39

fc1.bias f4 [336]
000000 01 d8 08 00 08 77 10 80 9c d9 00 80 6c 2a 02 00
       8.12172e-40 -1.512068e-39 -7.8064e-41 1.98889e-40
000010 0d 25 0b 00 11 f0 0f 80 09 21 01 00 63 3a 00 80
       1.023482e-39 -1.463652e-39 1.03686e-40 -2.0945e-41
000020 c2 42 00 00 6c 64 0e 00 87 5d 08 80 d0 32 0b 00
       2.3948e-41 1.321722e-39 -7.68235e-40 1.028419e-39
000030 0e 30 0b 00 77 93 0d 80 a8 0c 0b 00 db 8b 05 80
       1.027429e-39 -1.246762e-39 1.01473e-39 -5.09348e-40
000040 53 54 03 00 9d 81 0c 00 d2 1e 0a 80 58 61 0b 80
       3.05756e-40 1.148522e-39 -9.29411e-40 -1.045111e-39
000050 59 50 0d 00 a0 27 01 00 e7 75 0d 00 7d 25 05 80
       1.222685e-39 1.0605e-40 1.236157e-39 -4.72626e-40
000060 84 17 0a 80 5c ac 10 80 c9 1b 05 00 49 0a 01 00
       -9.26791e-40 -1.531199e-39 4.69145e-40 9.5525e-41
000070 5a 52 00 80 5d a5 0c 80 07 69 0c 00 2f 57 02 00
       -2.9542e-41 -1.161347e-39 1.139703e-39 2.14947e-40
000080 6b 36 10 80 2f 84 06 80 fd 80 03 00 e5 77 04 80
       -1.48889e-39 -5.98432e-40 3.21779e-40 -4.10352e-40
000090 8b c0 0a 80 56 27 03 00 a2 67 0a 00 fe 66 01 80
       -9.87426e-40 2.89618e-40 9.55531e-40 -1.28782e-40
0000a0 23 31 01 00 ae 0d 05 00 d3 04 00 00 3d 1b 09 00
       1.09462e-40 4.64085e-40 1.73e-42 8.36291e-40
0000b0 58 2c 03 00 90 9d 05 00 9a ef 03 00 67 15 0c 80
       2.91414e-40 5.157e-40 3.6146e-40 -1.109704e-39
0000c0 18 74 0c 00 70 6e 10 00 f2 c0 0d 80 aa 10 02 80
       1.143673e-39 1.508985e-39 -1.263077e-39 -1.89649e-40
0000d0 dd b3 0e 00 38 27 0f 00 54 d7 09 00 69 19 0a 00
       1.35022e-39 1.391601e-39 9.03765e-40 9.2747e-40
0000e0 2a f9 10 00 cb 42 06 80 d1 27 03 00 32 63 08 00
       1.558751e-39 -5.74974e-40 2.8979e-40 7.70269e-40
0000f0 21 27 04 80 d3 55 04 00 7a f6 01 80 21 be 0b 80
       -3.81379e-40 3.9813e-40 -1.80255e-40 -1.078396e-39
000100 8f 61 0e 80 a2 59 06 80 04 62 02 00 fc cb 0c 80
       -1.320694e-39 -5.83167e-40 2.18832e-40 -1.175202e-39
000110 1c 10 04 00 f0 4c 01 80 49 da 02 00 4b ca 01 80
       3.73121e-40 -1.19435e-40 2.61977e-40 -1.64405e-40
000120 44 ab 0d 00 4a 88 10 00 ca d6 01 80 c1 1e 10 00
       1.2553e-39 1.518259e-39 -1.68887e-40 1.4804e-39
000130 99 21 02 80 c3 54 10 80 22 24 00 80 86 5f 0e 00
       -1.95724e-40 -1.499775e-39 -1.2962e-41 1.319964e-39
000140 c0 b9 0d 80 b3 f7 08 00 81 7e 04 80 5a 4a 03 00
       -1.260496e-39 8.23542e-40 -4.12723e-40 3.02179e-40
000150 af 97 0e 80 6b 53 05 80 5a b1 07 80 de 59 09 80
       -1.340111e-39 -4.89102e-40 -7.0647e-40 -8.58758e-40
000160 2a f3 01 00 96 08 0d 80 85 44 07 80 44 21 00 00
       1.79066e-40 -1.196942e-39 -6.67429e-40 1.1933e-41
000170 f5 12 0c 00 f2 48 0d 80 d1 40 00 80 f4 3b 11 00
       1.108826e-39 -1.220029e-39 -2.3252e-41 1.58271e-39
000180 9d 3b 08 00 b5 8f 06 00 00 ed 0f 80 c0 17 0f 00
       7.56069e-40 6.02565e-40 -1.462552e-39 1.386052e-39
000190 e2 d8 03 80 88 c0 0d 80 54 d9 09 00 58 87 0c 80
       -3.5331e-40 -1.262929e-39 9.04482e-40 -1.150578e-39
0001a0 38 27 03 00 74 0f 09 00 19 24 05 80 8d 97 01 00
       2.89576e-40 8.32063e-40 -4.72127e-40 1.46202e-40
0001b0 37 8b 01 00 6b ae 0e 80 e2 e8 08 80 1b 86 00 80
       1.41776e-40 -1.348266e-39 -8.18227e-40 -4.8108e-41
0001c0 ee 1c 0e 00 07 f8 09 80 e2 01 0c 00 d5 12 05 80
       1.296075e-39 -9.15495e-40 1.102701e-39 -4.65933e-40
0001d0 47 d8 08 80 64 5a 08 80 df 70 0c 00 52 9e 05 00
       -8.1227e-40 -7.6711e-40 1.142516e-39 5.15972e-40
0001e0 cc ae 03 00 1b cc 10 80 ed 29 02 00 1f c5 03 00
       3.38212e-40 -1.542587e-39 1.98711e-40 3.4622e-40
0001f0 e9 b5 0c 00 f9 a9 01 80 b2 d0 0f 80 ea 2d 0d 80
       1.167283e-39 -1.5281e-40 -1.452398e-39 -1.210332e-39
000200 51 01 11 80 08 90 02 80 3c 2d 0b 80 4a de 04 80
       -1.561676e-39 -2.3534e-40 -1.026417e-39 -4.47084e-40
000210 02 e2 0e 80 6c e4 08 80 47 ef 03 80 c4 e7 0a 00
       -1.366773e-39 -8.16626e-40 -3.61343e-40 1.001497e-39
000220 ee e0 08 80 f5 66 06 80 3f 33 09 80 c7 9c 06 00
       -8.15374e-40 -5.87947e-40 -8.44903e-40 6.07254e-40
000230 a8 84 01 00 88 e5 0c 80 6d 19 0e 00 c3 3b 0a 00
       1.39424e-40 -1.184366e-39 1.294818e-39 9.39793e-40
000240 e1 54 02 80 d7 68 0d 80 1e f0 09 00 1d cb 0b 80
       -2.1412e-40 -1.231471e-39 9.12657e-40 -1.083054e-39
000250 49 5c 09 00 0b 21 05 00 ba 36 04 80 ec 84 0c 80
       8.59625e-40 4.71031e-40 -3.86974e-40 -1.14971e-39
000260 9c 03 0c 00 9e bd 07 80 31 41 02 00 18 f8 0b 80
       1.103321e-39 -7.1087e-40 2.07057e-40 -1.09919e-39
000270 06 4c 09 80 92 d2 04 00 44 24 09 80 b1 77 09 80
       -8.53792e-40 4.4288e-40 -8.39529e-40 -8.69457e-40
000280 ba 7f 08 00 b3 d0 02 80 1a 61 00 80 b3 ce 04 00
       7.80504e-40 -2.58538e-40 -3.4833e-41 4.41492e-40
000290 af 0c 05 00 6a b8 0d 80 eb 1b 09 80 f5 11 0b 80
       4.63727e-40 -1.260017e-39 -8.36535e-40 -1.016632e-39
0002a0 3f 7b 0c 80 35 25 0e 00 4b 52 08 00 34 45 02 80
       -1.146238e-39 1.299044e-39 7.64205e-40 -2.08496e-40
0002b0 60 bc 04 00 4d 46 0d 00 2d bd 0f 00 0c 69 01 80
       4.34918e-40 1.21908e-39 1.445396e-39 -1.29519e-40
0002c0 5b e9 02 00 8c 20 0a 00 8b f7 03 80 86 d1 0d 00
       2.67383e-40 9.3003e-40 -3.64308e-40 1.269024e-39
0002d0 64 9a 0a 80 27 9d 10 80 8d c2 02 00 25 c5 03 80
       -9.7374e-40 -1.525744e-39 2.53463e-40 -3.46229e-40
0002e0 22 d3 02 80 23 9c 0d 00 ab f6 08 80 39 db 06 00
       -2.59411e-40 1.249873e-39 -8.23172e-40 6.29655e-40
0002f0 ba a8 04 00 6b 8d 04 80 7c ae 07 00 68 b0 0e 80
       4.2787e-40 -4.18073e-40 7.05442e-40 -1.34898e-39
000300 de 7f 0e 00 0d 57 00 00 9b ba 10 00 bd bc 0c 00
       1.331567e-39 3.1228e-41 1.53631e-39 1.169732e-39
000310 75 53 00 00 1a 7b 0d 00 d0 aa 08 00 8b 1a 0d 80
       2.9939e-41 1.238022e-39 7.9596e-40 -1.203383e-39
000320 e7 16 11 00 af c1 01 00 e1 54 08 00 87 50 06 00
       1.569419e-39 1.61316e-40 7.65133e-40 5.79901e-40
000330 98 c6 05 00 95 ee 08 80 07 cf 0e 00 59 11 02 00
       5.3042e-40 -8.20271e-40 1.359964e-39 1.89894e-40
000340 16 0c 09 00 fc 9b 0c 00 d2 e7 05 00 04 1d 0c 00
       8.30855e-40 1.157983e-39 5.42339e-40 1.112435e-39
000350 88 35 09 00 88 d8 0a 00 99 34 0d 00 29 f9 0a 00
       8.45723e-40 9.96032e-40 1.21273e-39 1.007737e-39
000360 2f 96 0d 00 42 b5 02 00 aa e8 0c 80 32 c3 0e 00
       1.247737e-39 2.48694e-40 -1.18549e-39 1.35572e-39
000370 70 fc 01 00 3c 27 03 00 97 ef 0b 00 b9 b9 03 00
       1.82393e-40 2.89581e-40 1.096139e-39 3.42131e-40
000380 5e 13 0e 00 29 8e 00 80 a1 fd 01 80 70 53 09 80
       1.292645e-39 -5.0997e-41 -1.8282e-40 -8.56451e-40
000390 1c ee 10 00 93 86 05 80 8c a5 09 80 e7 be 03 80
       1.554785e-39 -5.07454e-40 -8.85906e-40 -3.4399e-40
0003a0 86 b8 09 80 54 74 0a 00 bb 8a 07 80 f3 e8 05 00
       -8.92714e-40 9.60086e-40 -6.92616e-40 5.42744e-40
0003b0 83 b8 04 80 53 60 05 00 e4 07 03 80 f2 05 05 80
       -4.33532e-40 4.93732e-40 -2.78337e-40 -4.6131e-40
0003c0 75 01 02 00 23 f7 00 80 5c f5 06 80 54 7a 97 81
       1.84194e-40 -8.8656e-41 -6.39031e-40 -5.564417e-38
0003d0 d4 c0 09 00 88 9b 05 80 0c a5 03 80 de 13 03 00
       8.95693e-40 -5.14972e-40 -3.34714e-40 2.82633e-40
0003e0 37 08 05 80 50 45 09 00 71 3a 0b 00 55 00 0c 00
       -4.62124e-40 8.51384e-40 1.031155e-39 1.102145e-39
0003f0 88 85 03 00 ed 1b 06 80 b3 d7 06 00 80 a3 05 80
       3.23408e-40 -5.61031e-40 6.28391e-40 -5.1783e-40

fc2.weight f4 [168, 336]
000000 08 b0 10 00 56 c4 0a 80 25 74 10 80 74 ae 04 00
       1.532516e-39 -9.88787e-40 -1.511033e-39 4.29924e-40
000010 80 c0 7a 01 f0 e3 4e 01 85 51 11 00 ac ae 0f 00
       4.605586e-38 3.7999762e-38 1.590447e-39 1.440193e-39
000020 a8 83 d5 00 8d 25 0c 80 45 38 06 00 f1 dc 10 00
       1.960819e-38 -1.115497e-39 5.71199e-40 1.548627e-39
000030 b6 36 be 81 57 1e 05 00 d1 5d 08 80 38 35 41 81
       -6.9873483e-38 4.70061e-40 -7.68339e-40 -3.5486684e-38
000040 40 49 01 00 44 b1 3e 81 a0 d5 3f 81 fc 58 af 81
       1.18113e-40 -3.502467e-38 -3.5234428e-38 -6.4412534e-38
000050 78 1b f7 80 c0 0a 07 00 88 8e b9 81 22 c8 0f 00
       -2.2693221e-38 6.46705e-40 -6.816279e-38 1.449327e-39
000060 60 54 05 80 1a 5e 97 81 90 d7 7c 81 a0 b4 7c 01
       -4.89446e-40 -5.560367e-38 -4.6439749e-38 4.6414682e-38
000070 fa b2 9b 81 80 fd fd 00 10 e8 58 01 4c 0d a1 81
       -5.7194826e-38 2.3325319e-38 3.983943e-38 -5.916114e-38
000080 d6 77 a4 01 a0 6f a1 01 70 17 7f 81 94 40 86 81
       6.041604e-38 5.9302234e-38 -4.685292e-38 -4.931649e-38
000090 08 f6 e9 80 27 62 0c 00 48 51 a1 01 a0 6e 25 01
       -2.148593e-38 1.137236e-39 5.925869e-38 3.0385083e-38
0000a0 98 33 d6 00 84 3c b0 81 75 1b 00 00 58 b7 0b 00
       1.9671305e-38 -6.4739025e-38 9.85e-42 1.075962e-39
0000b0 50 14 20 01 68 1c a4 01 68 7c 2f 81 aa f6 96 81
       2.9401932e-38 6.0284846e-38 -3.223168e-38 -5.5455243e-38
0000c0 48 cd 4d 01 10 9d 7a 80 98 76 a9 81 a8 9d 7e 01
       3.7799835e-38 -1.1260274e-38 -6.225097e-38 4.6765545e-38
0000d0 18 76 a4 01 13 39 03 80 5b 30 0a 80 cb b5 04 80
       6.041354e-38 -2.95981e-40 -9.35702e-40 -4.32557e-40
0000e0 b8 db 3e 01 84 f0 01 80 20 41 5e 81 a4 d5 97 01
       3.505513e-38 -1.78116e-40 -4.0821685e-38 5.57752e-38
0000f0 c6 f3 07 80 80 88 18 81 f5 09 05 80 f8 19 15 01
       -7.30298e-40 -2.8015925e-38 -4.6275e-40 2.738561e-38
000100 c3 29 0c 00 60 4b 32 81 11 69 08 80 08 f8 a3 80
       1.117007e-39 -3.2747516e-38 -7.72375e-40 -1.5058163e-38
000110 48 37 ad 01 48 ad 8b 81 82 84 10 80 b8 69 84 81
       6.362949e-38 -5.130918e-38 -1.516903e-39 -4.864084e-38
000120 40 77 2f 01 71 9c 09 80 4e 06 0d 80 f3 ee 08 00
       3.222798e-38 -8.8264e-40 -1.196123e-39 8.20403e-40
000130 20 50 0d 01 9e 8a be 81 38 9c 02 80 ea 9b bd 01
       2.5955097e-38 -6.9993883e-38 -2.39712e-40 6.965136e-38
000140 e8 04 fe 00 9a 6f a6 81 e0 77 53 81 91 4d 0b 00
       2.3327976e-38 -6.113891e-38 -3.8840585e-38 1.038016e-39
000150 18 1e 18 01 22 b4 a8 81 90 5d 16 01 28 dd b0 81
       2.7939582e-38 -6.197193e-38 2.7617777e-38 -6.4969533e-38
000160 20 60 67 01 f0 55 a9 81 81 9e 06 80 06 f5 07 80
       4.2496966e-38 -6.220411e-38 -6.07873e-40 -7.30746e-40
000170 70 e4 ac 80 e0 2a 77 80 90 52 86 81 a6 be 0b 80
       -1.5877653e-38 -1.0943805e-38 -4.93423e-38 -1.078582e-39
000180 de 0b 80 81 af 8a be 01 53 07 11 00 e6 3e 0f 00
       -4.70368e-38 6.999398e-38 1.563831e-39 1.400096e-39
000190 d0 d1 17 01 44 ed 91 01 02 bd 08 00 e8 23 30 81
       2.7884853e-38 5.360505e-38 8.02487e-40 -3.2351856e-38
0001a0 00 d4 2d 81 d1 6d be 81 4b e3 03 80 0d 6d 00 00
       -3.1927184e-38 -6.9952556e-38 -3.57044e-40 3.912e-41
0001b0 36 50 98 01 68 05 99 81 0e dd a7 81 70 62 d6 00
       5.595108e-38 -5.621108e-38 -6.166331e-38 1.9688109e-38
0001c0 20 42 2b 81 18 b6 13 01 aa c3 04 80 d8 b4 3d 81
       -3.1455182e-38 2.7130282e-38 -4.37533e-40 -3.4843567e-38
0001d0 e0 72 0e 80 d1 df 08 00 b8 f0 33 81 d8 13 50 01
       -1.326906e-39 8.14974e-40 -3.3049815e-38 3.8217804e-38
0001e0 50 7a da 80 30 cb 5b 81 34 e4 b0 01 4b a2 0f 00
       -2.0064016e-38 -4.0369727e-38 6.4979645e-38 1.435752e-39
0001f0 f0 52 5b 81 e1 ec 02 80 e0 06 60 81 90 a7 7e 81
       -4.0283452e-38 -2.68647e-40 -4.1147235e-38 -4.6772652e-38
000200 20 94 7d 01 b8 9b 9b 80 d6 25 98 01 58 7d b3 81
       4.6575036e-38 -1.4290363e-38 5.5890274e-38 -6.5934075e-38
000210 82 7d 04 00 a4 62 a8 01 8c 50 89 81 63 f5 09 80
       4.12366e-40 6.1854996e-38 -5.044143e-38 -9.14548e-40
000220 18 bb 40 01 70 4d fe 80 40 f6 0e 80 be d8 97 01
       3.5399064e-38 -2.3353995e-38 -1.374035e-39 5.577965e-38
000230 f3 b5 0f 00 c8 b2 db 80 3c 2d 1e 81 1f 99 be 01
       1.442804e-39 -2.0176108e-38 -2.905247e-38 7.0014695e-38
000240 5d 72 06 80 be 5a 07 80 78 49 80 81 40 c9 fd 00
       -5.92039e-40 -6.754e-40 -4.7125197e-38 2.3306575e-38
000250 30 7a 4f 81 01 79 07 80 e0 8c 10 00 00 5d 98 01
       -3.810756e-38 -6.86256e-40 1.519904e-39 5.596943e-38
000260 70 c6 40 81 22 bb a9 81 00 50 89 01 d1 7f 09 00
       -3.5407202e-38 -6.234932e-38 5.0440646e-38 8.72371e-40
000270 42 e7 99 81 b6 af 03 00 84 80 0c 80 e0 d3 12 81
       -5.653516e-38 3.3854e-40 -1.148129e-39 -2.6967978e-38
000280 db c3 08 80 54 79 99 81 50 bf 56 01 b8 45 7d 01
       -8.04944e-40 -5.637742e-38 3.9442852e-38 4.6518782e-38
000290 ed fe 06 00 08 cc 56 01 4c 7e 0d 80 91 fa 0a 80
       6.42463e-40 3.9451978e-38 -1.239168e-39 -1.008241e-39
0002a0 e9 72 04 80 10 59 69 01 f4 45 18 81 18 e2 ba 01
       -4.08564e-40 4.285924e-38 -2.796818e-38 6.865004e-38
0002b0 90 7d 32 01 c0 7f 7f 01 bf 7e 0e 00 80 99 00 80
       3.2783523e-38 4.692776e-38 1.331165e-39 -5.5065e-41
0002c0 a2 8a 0d 00 12 4f 00 00 15 78 06 00 88 7f 0b 00
       1.243594e-39 2.8365e-41 5.9409e-40 1.05594e-39
0002d0 4a 97 be 01 48 52 7e 01 42 7e a4 01 d8 40 dd 00
       7.0012066e-38 4.6711466e-38 6.0425257e-38 2.0318906e-38
0002e0 b0 3b 93 81 80 80 2d 01 90 d3 22 01 bf ba 04 00
       -5.408492e-38 3.1867276e-38 2.990649e-38 4.34334e-40
0002f0 0f 98 0d 80 a8 b8 62 01 32 86 07 80 08 84 4f 01
       -1.24841e-39 4.164213e-38 -6.90989e-40 3.8114623e-38
000300 ee 87 a4 81 a8 17 ea 80 ec 4b 0e 80 70 29 58 01
       -6.0439135e-38 -2.1497992e-38 -1.312933e-39 3.9702664e-38
000310 cc 4d 40 81 14 2d 98 81 b8 0d 89 81 9c c5 b1 81
       -3.5320647e-38 -5.5900666e-38 -5.034554e-38 -6.5303087e-38
000320 00 55 8c 81 18 ee c2 80 08 13 53 01 1a e9 98 01
       -5.1549847e-38 -1.7901498e-38 3.8768234e-38 5.6170466e-38
000330 50 60 28 01 f8 25 05 00 02 35 0a 00 a2 12 0d 80
       3.0925828e-38 4.72798e-40 9.3737e-40 -1.200546e-39
000340 76 bd bb 81 28 2f 89 81 f6 08 01 80 90 53 a8 80
       -6.8964814e-38 -5.039352e-38 -9.505e-41 -1.545834e-38
000350 d8 24 6a 01 88 da 07 00 1e 31 0a 80 ca 54 ad 01
       4.3005446e-38 7.21243e-40 -9.35975e-40 6.367183e-38
000360 f2 4c 05 00 91 93 10 80 39 2d 05 80 78 78 0d 00
       4.8678e-40 -1.522305e-39 -4.754e-40 1.237077e-39
000370 6e 11 0c 80 63 73 be 01 c4 2e 00 00 e1 de 10 80
       -1.108279e-39 6.996055e-38 1.6776e-41 -1.549322e-39
000380 d8 c1 70 80 e8 af 3e 01 48 84 a5 01 10 a8 66 81
       -1.0355114e-38 3.5023695e-38 6.080124e-38 -4.2364907e-38
000390 78 76 d4 80 24 d0 08 80 40 c3 0c 01 f0 93 97 81
       -1.9511624e-38 -8.09351e-40 2.5854024e-38 -5.568092e-38
0003a0 80 ed 64 81 b6 18 0f 00 68 61 d1 00 ea d4 9a 01
       -4.2047384e-38 1.386397e-39 1.9228561e-38 5.687618e-38
0003b0 7c 73 92 01 70 ee 88 81 9a bb 90 01 d0 73 66 81
       5.379764e-38 -5.030065e-38 5.316644e-38 -4.232742e-38
0003c0 17 95 0a 80 22 50 a4 01 2f 7e 04 80 7c 69 bb 81
       -9.71838e-40 6.035907e-38 -4.12608e-40 -6.8844314e-38
0003d0 dc 22 92 01 9e 42 02 00 7c 13 b4 01 d4 0a 80 81
       5.368195e-38 2.07569e-40 6.6149516e-38 -4.703531e-38
0003e0 c8 0a 08 80 80 a8 89 81 f4 73 03 80 14 89 08 80
       -7.38552e-40 -5.056764e-38 -3.17103e-40 -7.83858e-40
0003f0 7a e9 ab 01 7a 87 0c 00 82 e1 01 00 13 db 0e 80
       6.31505e-38 1.150626e-39 1.72732e-40 -1.364286e-39

fc2.bias f4 [168]
000000 ae 12 07 80 e8 55 01 80 51 3d 07 80 2a e8 0a 80
       -6.4955e-40 -1.22653e-40 -6.64845e-40 -1.00164e-39
000010 28 f1 0f 80 23 9a 08 80 ec f9 0e 80 5c f8 10 80
       -1.464043e-39 -7.89978e-40 -1.375352e-39 -1.558462e-39
000020 25 43 0f 80 bf a0 08 80 ef 14 02 80 84 ad 08 80
       -1.40162e-39 -7.92349e-40 -1.9118e-40 -7.9693e-40
000030 dc 86 05 80 26 8b 03 80 d0 0e 07 80 82 f2 03 80
       -5.07556e-40 -3.25424e-40 -6.48162e-40 -3.62502e-40
000040 42 4d 01 80 f0 2b 11 80 c4 c0 06 80 67 79 05 80
       -1.1955e-40 -1.576965e-39 -6.20164e-40 -5.02728e-40
000050 58 bf 01 80 0c 35 0d 80 c7 a7 09 80 bc 56 0a 80
       -1.60477e-40 -1.212891e-39 -8.86707e-40 -9.4947e-40
000060 3b d5 03 80 57 7f 03 80 ed c0 04 80 8e c2 01 80
       -3.51999e-40 -3.21187e-40 -4.36551e-40 -1.61629e-40
000070 08 a3 00 80 e0 c2 0e 80 02 8a 0f 80 83 e8 02 80
       -5.8485e-41 -1.355605e-39 -1.42704e-39 -2.6708e-40
000080 a6 5a 04 80 d3 bc 05 80 1c 1c 0e 80 ec a5 0c 80
       -3.9986e-40 -5.26915e-40 -1.29578e-39 -1.161548e-39
000090 b5 52 03 80 90 57 09 80 3f b2 06 80 56 bc 08 80
       -3.05176e-40 -8.57931e-40 -6.14956e-40 -8.02246e-40
0000a0 ac 58 01 80 dd 9f 07 80 4c 57 04 80 d5 37 0c 80
       -1.23645e-40 -7.00197e-40 -3.98658e-40 -1.122055e-39
0000b0 e3 04 02 80 50 98 01 80 19 90 06 80 45 ed 0a 80
       -1.85424e-40 -1.46475e-40 -6.02705e-40 -1.003471e-39
0000c0 27 b1 0e 80 13 14 06 80 8d 33 0b 80 e3 3e 07 80
       -1.349247e-39 -5.58214e-40 -1.028683e-39 -6.65408e-40
0000d0 a0 1e 03 80 9b da 08 80 ab 03 09 80 6e bb 02 80
       -2.86493e-40 -8.13105e-40 -8.27835e-40 -2.50908e-40
0000e0 97 00 05 80 c3 83 05 80 8e 81 05 80 0d 18 0b 80
       -4.59389e-40 -5.06445e-40 -5.05653e-40 -1.018818e-39
0000f0 77 ad 01 80 6f 4f 05 80 1d 05 00 80 58 47 04 80
       -1.54063e-40 -4.87673e-40 -1.834e-42 -3.92935e-40
000100 ce 15 0b 80 b6 21 00 80 91 64 0b 80 aa 0a 09 80
       -1.018013e-39 -1.2093e-41 -1.046267e-39 -8.30345e-40
000110 71 d9 10 80 20 17 0b 80 4e aa 07 80 c8 07 06 80
       -1.547371e-39 -1.018486e-39 -7.03942e-40 -5.53804e-40
000120 fc 46 00 80 21 cc 05 80 16 60 06 80 13 11 01 80
       -2.5464e-41 -5.32405e-40 -5.85482e-40 -9.796e-41
000130 b2 18 05 80 f5 54 03 80 e5 db 08 80 8c b0 03 80
       -4.68036e-40 -3.05983e-40 -8.13567e-40 -3.3884e-40
000140 58 1c 01 80 d9 e7 01 80 a8 1c 06 80 94 4d 0b 80
       -1.02003e-40 -1.75007e-40 -5.61293e-40 -1.03802e-39
000150 6b 66 08 80 d6 d0 07 80 b7 f5 10 80 78 4b 01 80
       -7.71425e-40 -7.17765e-40 -1.557514e-39 -1.18909e-40
000160 22 3a 06 80 6a 20 07 80 f8 ce 0a 80 1e 89 03 80
       -5.71867e-40 -6.54476e-40 -9.92601e-40 -3.24695e-40
000170 bb 86 10 80 6a 52 04 80 c4 f8 05 80 3c 27 03 80
       -1.5177e-39 -3.96907e-40 -5.48418e-40 -2.89581e-40
000180 4d 2b 01 80 33 2a 11 80 15 7f 06 80 5b 7c 0b 80
       -1.07369e-40 -1.576342e-39 -5.96601e-40 -1.054801e-39
000190 d6 15 0f 80 dc d2 0b 80 24 0b 02 80 82 88 05 80
       -1.385366e-39 -1.085833e-39 -1.87667e-40 -5.08147e-40
0001a0 18 ec 0e 80 03 6b 02 80 c0 b9 01 80 ed d2 02 80
       -1.370391e-39 -2.2206e-40 -1.5847e-40 -2.59337e-40
0001b0 96 46 02 80 6f 87 0c 80 27 73 0c 80 41 10 0a 80
       -2.08992e-40 -1.15061e-39 -1.143335e-39 -9.24186e-40
0001c0 6e 47 03 80 65 08 02 80 a9 07 05 80 d3 95 00 80
       -3.0113e-40 -1.86682e-40 -4.61925e-40 -5.3747e-41
0001d0 8a 1a 04 80 f5 b2 06 80 62 eb 05 80 18 5b 05 80
       -3.76862e-40 -6.1521e-40 -5.43617e-40 -4.91856e-40
0001e0 08 0f 0c 80 d9 9e 06 80 a3 26 04 80 a0 d0 00 80
       -1.107418e-39 -6.07997e-40 -3.81202e-40 -7.484e-41
0001f0 cc 2f 01 80 ab c8 05 80 cc 6f 04 80 9d c1 02 80
       -1.08982e-40 -5.31164e-40 -4.07447e-40 -2.53126e-40
000200 79 52 0b 80 e0 d0 08 80 8f 48 07 80 db 28 01 80
       -1.039776e-39 -8.09614e-40 -6.68878e-40 -1.06492e-40
000210 40 cb 02 80 e8 b5 00 80 86 4e 0f 80 b3 52 04 80
       -2.56583e-40 -6.5256e-41 -1.405701e-39 -3.97009e-40
000220 32 54 10 80 72 7a 08 80 6a c4 0f 80 9a 55 0f 80
       -1.499572e-39 -7.78609e-40 -1.447993e-39 -1.40824e-39
000230 5d 09 02 80 9a 4f 0a 80 3f 02 02 80 6a a1 06 80
       -1.8703e-40 -9.4691e-40 -1.84477e-40 -6.08917e-40
000240 fc b3 01 80 5c 67 05 80 5f 08 0e 80 6c 31 0d 80
       -1.56402e-40 -4.96256e-40 -1.2887e-39 -1.21159e-39
000250 f4 cd 04 80 23 46 11 80 6c 59 0b 80 da 7f 06 80
       -4.41224e-40 -1.586364e-39 -1.042269e-39 -5.96877e-40
000260 ac 9b 10 80 6f 2e 00 80 70 6f 11 80 42 78 00 80
       -1.525212e-39 -1.6657e-41 -1.60118e-39 -4.314e-41
000270 42 e7 01 80 f1 9d 06 80 d1 dc 0c 80 58 50 0f 80
       -1.74795e-40 -6.07672e-40 -1.18124e-39 -1.406354e-39
000280 d4 09 0b 80 dc 21 04 80 20 c2 0a 80 fa 94 05 80
       -1.013716e-39 -3.79488e-40 -9.87994e-40 -5.1262e-40
000290 50 39 0a 80 ae bc 0c 80 f9 60 0b 80 c0 15 09 80
       -9.38915e-40 -1.169711e-39 -1.044978e-39 -8.34322e-40

fc3.weight f4 [84, 168]
000000 9a 77 bd 01 c6 15 11 00 a1 c7 00 00 c4 d9 0d 00
       6.9599255e-38 1.569014e-39 7.1613e-41 1.271981e-39
000010 3b 74 0f 80 ce 05 08 00 bd ed 0b 80 fb 4d 02 80
       -1.419228e-39 7.36766e-40 -1.095475e-39 -2.11645e-40
000020 f4 d5 0f 80 92 46 a8 81 ac 8d 07 80 28 72 e9 00
       -1.454284e-39 -6.1814717e-38 -6.93671e-40 2.1438622e-38
000030 fd ea 09 80 d4 95 08 00 45 31 0b 80 6c 33 8c 81
       -9.10817e-40 7.88432e-40 -1.027865e-39 -5.1501665e-38
000040 ec 9c 05 80 34 b5 a3 01 5d 57 09 00 c6 fe ab 81
       -5.1547e-40 6.013676e-38 8.5786e-40 -6.318106e-38
000050 08 2e a4 01 80 b9 4e 81 b6 b6 96 01 12 39 0c 80
       6.0310137e-38 -3.7969314e-38 5.5363475e-38 -1.122499e-39
000060 76 5a b1 01 ed 61 0b 80 60 b1 3f 01 f9 21 11 80
       6.5149336e-38 -1.04532e-39 3.520842e-38 -1.57339e-39
000070 24 50 0f 00 4b ad be 01 38 bb b8 01 c3 f8 01 80
       1.406281e-39 7.004364e-38 6.785957e-38 -1.81074e-40
000080 ee 55 99 01 d8 60 65 81 e2 68 9c 81 b0 24 13 01
       5.6326627e-38 -4.213014e-38 -5.745585e-38 2.7025958e-38
000090 21 f7 01 00 d2 53 02 00 b5 0a 04 00 97 75 06 00
       1.80489e-40 2.1374e-40 3.71183e-40 5.93196e-40
0000a0 a0 3d 7a 01 c9 d9 08 00 db 36 0d 00 22 15 0f 00
       4.5961962e-38 8.1281e-40 1.21354e-39 1.385113e-39
0000b0 bc c8 3a 01 e0 c7 29 01 d1 a1 07 80 97 cf 04 00
       3.4306824e-38 3.11838e-38 -7.00897e-40 4.41811e-40
0000c0 28 bb a9 81 81 bb 0e 00 e8 1f 59 81 ef 7a 07 80
       -6.234935e-38 1.35296e-39 -3.9879497e-38 -6.86949e-40
0000d0 90 a7 3c 01 20 ac 0b 80 31 f5 04 80 e0 a6 09 00
       3.4650367e-38 -1.071937e-39 -4.553e-40 8.86383e-40
0000e0 0a b6 97 01 9c fd 0a 80 7b 5e 0e 00 a8 f8 0d 80
       5.5729853e-38 -1.009333e-39 1.31959e-39 -1.283063e-39
0000f0 9b 9f 01 80 60 65 a7 00 01 f0 06 00 a8 e7 6c 00
       -1.49091e-40 1.5372894e-38 6.3711e-40 1.0001336e-38
000100 fc 36 01 80 92 66 04 00 90 e6 7d 01 f9 42 03 80
       -1.1156e-40 4.04137e-40 4.6634182e-38 -2.99532e-40
000110 ab 04 08 80 3a 1b 9b 01 e0 60 b2 81 2f a1 0e 80
       -7.36359e-40 5.6977076e-38 -6.552588e-38 -1.343519e-39
000120 f9 34 06 00 38 ed c2 00 60 01 56 01 28 6a 64 81
       5.70016e-40 1.7901184e-38 3.930658e-38 -4.195315e-38
000130 da 27 b2 81 f0 6c 5d 01 78 c2 4f 01 30 64 57 80
       -6.544406e-38 4.0669448e-38 3.815942e-38 -8.025629e-39
000140 a4 72 0b 00 f4 bb 04 80 fd 93 be 81 3f 7b 04 00
       1.051316e-39 -4.34767e-40 -7.000733e-38 4.11554e-40
000150 34 37 b6 81 34 86 09 80 54 76 0b 80 44 7d a9 01
       -6.6935454e-38 -8.74662e-40 -1.052639e-39 6.226054e-38
000160 a9 94 09 00 19 2b 00 00 18 ec e7 80 60 f9 96 00
       8.79849e-40 1.546e-41 -2.1298694e-38 1.3864783e-38
000170 d6 94 05 80 1a 43 05 00 68 5a 09 00 40 74 0f 00
       -5.1257e-40 4.83249e-40 8.58951e-40 1.419235e-39
000180 c3 04 01 80 82 4d bb 01 a0 78 5b 81 58 4d 98 81
       -9.3544e-41 6.880417e-38 -4.0310492e-38 -5.5946965e-38
000190 88 4a bd 01 fe d8 03 00 90 a5 a9 00 e2 a2 0e 80
       6.953458e-38 3.53349e-40 1.5579591e-38 -1.344128e-39
0001a0 30 93 58 01 00 41 65 81 2f c5 08 80 92 de 05 00
       3.9778536e-38 -4.2107292e-38 -8.0542e-40 5.3902e-40
0001b0 49 2f 08 00 16 63 06 80 d5 92 08 00 10 cb 65 81
       7.51647e-40 -5.86558e-40 7.87357e-40 -4.2206347e-38
0001c0 6c 84 8c 01 36 d1 b2 81 00 75 8b 80 f6 d3 ab 81
       5.1617894e-38 -6.5687076e-38 -1.2807106e-38 -6.311963e-38
0001d0 a5 c3 03 00 b6 94 09 80 0f ec 0f 80 e0 06 1a 81
       3.4569e-40 -8.79867e-40 -1.462214e-39 -2.8290265e-38
0001e0 34 b2 0b 80 f8 6d 10 80 42 2a 02 00 78 de 18 81
       -1.074118e-39 -1.508817e-39 1.9883e-40 -2.8077604e-38
0001f0 b1 1b 0e 00 30 ce d9 80 b4 8a 0b 00 49 35 01 00
       1.295631e-39 -2.0002269e-38 1.059948e-39 1.1095e-40
000200 ae 89 98 81 ee 04 0b 00 17 00 05 80 0c ef 0c 80
       -5.603354e-38 1.011959e-39 -4.5921e-40 -1.18778e-39
000210 d4 78 ae 01 e4 41 90 81 e5 ed 10 80 5c a4 a8 01
       6.4090885e-38 -5.2991794e-38 -1.554708e-39 6.19493e-38
000220 20 de 62 01 c9 68 0c 00 82 4c 0d 80 1e 43 0e 00
       4.166901e-38 1.139616e-39 -1.221307e-39 1.309774e-39
000230 a5 92 be 81 d0 d2 b4 81 f8 8c 8c 81 40 b6 09 80
       -7.00054e-38 -6.642406e-38 -5.163016e-38 -8.91898e-40
000240 48 87 b4 80 88 a1 0e 00 10 f1 63 81 dd 78 be 81
       -1.6578919e-38 1.343643e-39 -4.186627e-38 -6.996841e-38
000250 17 23 0b 00 08 e6 ff 00 a8 34 89 81 01 42 0c 00
       1.022778e-39 2.3500571e-38 -5.040141e-38 1.125704e-39
000260 2a b3 0b 80 97 32 0a 80 50 0a 89 01 d8 4a db 00
       -1.074462e-39 -9.36503e-40 5.034065e-38 2.0138823e-38
000270 b0 fe 0a 00 47 de 0f 80 db 61 03 80 df 26 01 80
       1.00972e-39 -1.45727e-39 -3.1061e-40 -1.0578e-40
000280 c0 b2 09 80 78 d5 00 80 67 3b 02 80 20 61 18 81
       -8.90643e-40 -7.6578e-41 -2.0498e-40 -2.7987675e-38
000290 b8 d7 fb 80 f9 9e 0f 00 94 5a be 01 70 af 92 01
       -2.3128095e-38 1.434561e-39 6.992495e-38 5.388367e-38
0002a0 70 dd 0f 00 e4 62 02 80 6c be 0b 80 c5 20 0a 00
       1.456969e-39 -2.19146e-40 -1.078501e-39 9.3011e-40
0002b0 c8 2b 4b 01 e0 f6 7e 01 78 f5 03 80 fd bf 0d 00
       3.7316623e-38 4.6829556e-38 -3.63564e-40 1.262734e-39
0002c0 a8 1e 02 80 a0 e7 63 01 06 f5 be 01 48 24 89 01
       -1.94668e-40 4.1859498e-38 7.014657e-38 5.0377913e-38
0002d0 ea 50 0e 00 54 af 09 80 4d 16 10 00 9b d3 08 00
       1.314723e-39 -8.89415e-40 1.477368e-39 8.10594e-40
0002e0 10 1b fe 00 5c 63 0e 00 34 4d 00 00 73 12 0c 80
       2.3335924e-38 1.32134e-39 2.7695e-41 -1.108644e-39
0002f0 b8 ab a8 00 ff 5b 04 00 50 f1 8c 01 94 e2 0b 00
       1.5489964e-38 4.00344e-40 5.1774144e-38 1.091471e-39
000300 a4 97 0f 00 2d 00 0a 80 98 f4 05 00 a0 4e 24 01
       1.431931e-39 -9.18418e-40 5.46921e-40 3.0178453e-38
000310 40 87 76 01 bc 3a ae 81 25 c6 0f 80 49 31 08 00
       4.52801e-38 -6.4001785e-38 -1.448613e-39 7.52364e-40
000320 c7 c1 03 80 25 0d 11 00 12 9f a3 81 c4 6c 0c 00
       -3.45021e-40 1.565919e-39 -6.0105e-38 1.141044e-39
000330 0f 60 07 80 c0 95 28 01 68 b0 e9 80 30 15 50 01
       -6.77308e-40 3.0964167e-38 -2.1460953e-38 3.8218768e-38
000340 cc b2 bd 01 48 ac 07 80 61 a5 04 80 98 3b 3d 01
       6.9684196e-38 -7.04651e-40 -4.26669e-40 3.4756574e-38
000350 e0 ce dd 00 c8 70 7e 81 c9 d0 09 80 ce 14 10 00
       2.0369857e-38 -4.673335e-38 -9.01417e-40 1.476831e-39
000360 c3 53 0a 00 42 9f 00 80 9c 2a 83 01 a3 9f be 81
       9.48403e-40 -5.7131e-41 4.818294e-38 -7.0024045e-38
000370 78 e5 55 00 f1 99 06 00 4f a0 0c 00 70 bc 05 81
       7.888335e-39 6.06237e-40 1.159534e-39 -2.456344e-38
000380 5c 24 06 80 9d dc 08 00 83 44 09 00 8c ee a3 01
       -5.64056e-40 8.13825e-40 8.51097e-40 6.021904e-38
000390 a3 8b 04 80 3b a2 0b 80 31 1c 0b 80 68 c1 0a 80
       -4.17434e-40 -1.068388e-39 -1.020304e-39 -9.87736e-40
0003a0 88 9a 10 80 bf 90 08 00 71 b0 00 80 17 84 0b 00
       -1.524803e-39 7.86609e-40 -6.3295e-41 1.057575e-39
0003b0 1c c5 06 00 02 c8 a1 81 e1 44 0e 80 16 cd 00 00
       6.21722e-40 -5.9429057e-38 -1.310406e-39 7.3571e-41
0003c0 c0 2f 0b 80 39 2a 05 00 83 39 03 80 db 57 09 00
       -1.02732e-39 4.74324e-40 -2.96138e-40 8.58036e-40
0003d0 40 50 ad 01 49 f8 03 80 5c 89 b5 81 70 0a e7 00
       6.3665316e-38 -3.64574e-40 -6.6686e-38 2.1217744e-38
0003e0 35 43 00 80 b5 5f 01 80 aa cf b2 01 3b d5 0a 00
       -2.411e-41 -1.26169e-40 6.5684857e-38 9.94848e-40
0003f0 84 2f 09 80 91 ff 0c 00 99 89 0d 80 e9 fd 10 00
       -8.43565e-40 1.193706e-39 -1.243222e-39 1.560454e-39

fc3.bias f4 [84]
000000 6e 66 08 80 bd d3 08 80 25 cb 09 80 85 20 0a 80
       -7.71429e-40 -8.10641e-40 -8.99394e-40 -9.30021e-40
000010 4c 6d 00 80 87 69 07 80 b5 43 06 80 b2 72 00 80
       -3.9208e-41 -6.80705e-40 -5.75302e-40 -4.1145e-41
000020 34 70 04 80 47 2b 06 80 c0 f2 07 80 2c 5a 01 80
       -4.07593e-40 -5.66538e-40 -7.29931e-40 -1.24183e-40
000030 b3 2d 06 80 81 75 0c 80 ba 8c 03 80 5d 84 03 80
       -5.67407e-40 -1.144178e-39 -3.2599e-40 -3.2299e-40
000040 6f 0f 08 80 fb a1 00 80 d0 16 06 80 8f 0e 05 80
       -7.4022e-40 -5.8108e-41 -5.59197e-40 -4.644e-40
000050 4c e1 07 80 f2 ec 01 80 a4 3d 01 80 bc 90 05 80
       -7.2367e-40 -1.76835e-40 -1.13948e-40 -5.11098e-40
000060 54 c3 0a 80 96 09 01 80 fa ae 03 80 9c a0 08 80
       -9.88425e-40 -9.5274e-41 -3.38276e-40 -7.923e-40
000070 8f 99 18 80 10 dc 01 80 4e 8c 0c 80 d5 de 0b 80
       -2.259138e-39 -1.70779e-40 -1.152358e-39 -1.090128e-39
000080 01 e9 07 80 f2 32 00 80 00 86 05 80 26 04 08 80
       -7.26435e-40 -1.8276e-41 -5.07248e-40 -7.36172e-40
000090 0e b0 04 80 09 26 0b 80 4e 33 04 80 3b b7 00 80
       -4.30499e-40 -1.023835e-39 -3.85747e-40 -6.5731e-41
0000a0 58 1c 09 80 06 a5 03 80 7a b3 0b 80 e5 70 0a 80
       -8.36687e-40 -3.34706e-40 -1.074575e-39 -9.58854e-40
0000b0 d9 21 05 80 34 d9 06 80 31 86 13 80 15 85 03 80
       -4.7132e-40 -6.28931e-40 -1.793013e-39 -3.23247e-40
0000c0 7b 70 0f 80 0d fa 08 80 87 77 02 80 5e f3 06 80
       -1.417883e-39 -8.24385e-40 -2.2655e-40 -6.38317e-40
0000d0 32 58 03 80 75 91 01 80 bf ae 00 80 09 1d 0b 80
       -3.07145e-40 -1.44016e-40 -6.2687e-41 -1.020606e-39
0000e0 6d 1d 02 80 4b 90 08 80 2d a6 08 80 e0 20 3b 80
       -1.94227e-40 -7.86447e-40 -7.94297e-40 -5.430088e-39
0000f0 26 19 0a 80 66 f1 01 80 d8 eb 0f 80 09 9d 08 80
       -9.27377e-40 -1.78433e-40 -1.462137e-39 -7.91018e-40
000100 e8 ff 00 80 5c e7 04 80 25 b6 0d 80 08 8c 01 80
       -9.1802e-41 -4.50338e-40 -1.259203e-39 -1.42069e-40
000110 89 f1 07 80 d0 f5 1d 80 0a ac 00 80 97 ab 0e 80
       -7.29495e-40 -2.75141e-39 -6.1716e-41 -1.347252e-39
000120 8b 39 0d 80 54 a7 03 80 9e fd 01 80 6e 9d 0a 80
       -1.214504e-39 -3.35533e-40 -1.82816e-40 -9.7483e-40
000130 71 a8 08 80 00 5d 08 80 62 ad 13 80 0d 48 0a 80
       -7.9511e-40 -7.68046e-40 -1.807072e-39 -9.44202e-40
000140 01 9d 03 80 94 6e 0c 80 f2 08 02 80 7e 12 09 80
       -3.31829e-40 -1.141694e-39 -1.8688e-40 -8.33153e-40

fc4.weight f4 [42, 84]
000000 69 c0 0e 80 ac a6 b4 01 6a 10 9c 81 3e 89 07 00
       -1.354721e-39 6.636072e-38 -5.73289e-38 6.92082e-40
000010 85 3f 01 00 eb ca 0f 00 2b 0b 04 00 8f 80 01 80
       1.14622e-40 1.450326e-39 3.71348e-40 -1.37954e-40
000020 37 12 00 80 1e 18 06 00 5d eb 0c 00 fa b8 0b 00
       -6.534e-42 5.59665e-40 1.186458e-39 1.076548e-39
000030 82 ea 04 00 a8 d4 08 80 c6 86 09 00 64 cf 0f 00
       4.51468e-40 -8.1097e-40 8.74867e-40 1.45193e-39
000040 b2 23 11 00 44 db 01 80 5c 1b 08 80 9a 9d 0a 80
       1.574009e-39 -1.70493e-40 -7.44499e-40 -9.74892e-40
000050 c6 50 02 00 74 e1 04 80 29 9f 0c 80 00 e6 10 00
       2.12647e-40 -4.4822e-40 -1.159122e-39 1.551876e-39
000060 a5 12 05 00 ec b7 0a 00 f0 a1 07 00 24 a8 03 00
       4.65866e-40 9.84334e-40 7.00941e-40 3.35824e-40
000070 60 b9 7b 01 ad 65 09 80 7d 5d 0e 80 20 63 10 00
       4.623442e-38 -8.62994e-40 -1.319234e-39 1.504927e-39
000080 7f e2 0c 80 64 a6 a3 81 c6 30 0d 80 b6 6e 09 80
       -1.183277e-39 -6.01155e-38 -1.211358e-39 -8.66235e-40
000090 2e 04 09 00 6f 28 01 00 69 24 02 00 82 e5 00 80
       8.28019e-40 1.0634e-40 1.96732e-40 -8.2332e-41
0000a0 24 39 0a 00 77 13 0f 80 14 f5 af 81 2d 5f 00 80
       9.38853e-40 -1.384515e-39 -6.4636517e-38 -3.4143e-41
0000b0 5b c0 00 00 a7 f0 10 80 86 25 9a 01 48 b0 03 00
       6.9004e-41 -1.555698e-39 5.662451e-38 3.38744e-40
0000c0 38 f3 12 81 7c 2b 14 81 f0 05 03 00 e5 2d 0d 80
       -2.6990466e-38 -2.7214505e-38 2.77636e-40 -1.210325e-39
0000d0 c8 0e 07 80 90 2e a9 81 f4 84 0b 00 15 ff 04 80
       -6.48151e-40 -6.214761e-38 1.057885e-39 -4.58848e-40
0000e0 c7 1a 08 00 86 89 00 80 08 4a 0c 80 b3 3c 01 00
       7.4429e-40 -4.9334e-41 -1.128583e-39 1.1361e-40
0000f0 8d e3 0d 80 bb ad 07 00 68 57 0c 80 9f 21 0a 80
       -1.275491e-39 7.05171e-40 -1.133381e-39 -9.30416e-40
000100 13 df 10 00 16 7a 06 00 71 7e 07 00 3a 5f a7 01
       1.549392e-39 5.94809e-40 6.88207e-40 6.1482755e-38
000110 02 9b 02 80 79 2f 0d 80 39 de 06 00 04 2b 10 80
       -2.39277e-40 -1.210891e-39 6.30731e-40 -1.484799e-39
000120 31 26 0e 00 37 35 0c 80 9e b6 07 80 80 1b 8c 01
       1.299397e-39 -1.121116e-39 -7.08359e-40 5.146734e-38
000130 1e 76 07 80 57 20 09 00 1f e7 0e 80 b3 71 02 80
       -6.85221e-40 8.38121e-40 -1.368608e-39 -2.24459e-40
000140 ca 0c be 01 82 d8 be 01 86 85 01 80 8d 45 05 80
       6.981333e-38 7.010565e-38 -1.39735e-40 -4.84128e-40
000150 d5 8b 06 80 25 7e 0b 80 ee 0b 02 80 4d d3 0b 80
       -6.01175e-40 -1.055443e-39 -1.8795e-40 -1.085991e-39
000160 d5 b1 06 80 2b 56 09 00 04 53 02 00 2f be 08 00
       -6.14807e-40 8.57431e-40 2.13451e-40 8.02909e-40
000170 96 5c 0d 80 3b 20 0a 00 48 a3 02 80 ed 3a 0e 80
       -1.227075e-39 9.29917e-40 -2.42245e-40 -1.306836e-39
000180 72 28 08 00 fe 36 06 00 30 af 2f 81 72 14 06 80
       7.49193e-40 5.7074e-40 -3.2268115e-38 -5.58347e-40
000190 7b 65 0f 80 ac 30 02 00 b4 7a 08 80 8f 9c 05 80
       -1.413937e-39 2.01131e-40 -7.78702e-40 -5.1534e-40
0001a0 ca 49 05 80 07 d0 04 80 ec 84 06 80 b1 02 01 80
       -4.85648e-40 -4.41968e-40 -5.98696e-40 -9.2801e-41
0001b0 f6 f8 06 00 e1 80 04 80 0b d6 06 00 dd cb 0e 00
       6.40323e-40 -4.13575e-40 6.27797e-40 1.35883e-39
0001c0 72 20 01 00 62 77 09 80 fe c4 12 80 16 b5 08 00
       1.03475e-40 -8.69346e-40 -1.723706e-39 7.99645e-40
0001d0 bf 86 08 80 ee 2a b2 81 aa 7d 08 80 ba 39 0c 80
       -7.83022e-40 -6.5448474e-38 -7.79764e-40 -1.122734e-39
0001e0 3c 86 02 80 00 44 98 01 5e 97 0a 80 8e 82 01 80
       -2.31825e-40 5.5933557e-38 -9.72655e-40 -1.3867e-40
0001f0 9d 1d 0c 80 97 84 02 00 1e e6 af 81 4f 3a 0c 80
       -1.112649e-39 2.31235e-40 -6.461505e-38 -1.122943e-39
000200 71 c1 0e 00 4a dd 08 00 d4 3c 04 80 f0 ac 09 80
       1.35509e-39 8.14068e-40 -3.89163e-40 -8.88558e-40
000210 b8 58 0b 80 e6 6f 07 80 18 39 31 01 46 e8 08 80
       -1.042017e-39 -6.8299e-40 3.2550728e-38 -8.18008e-40
000220 d8 21 0e 80 84 b2 10 00 be b4 07 00 9b dd 07 00
       -1.297838e-39 1.533407e-39 7.07687e-40 7.22346e-40
000230 9e 77 06 00 0e 82 01 80 04 12 05 80 c6 a5 88 81
       5.93924e-40 -1.3849e-40 -4.6564e-40 -5.0196383e-38
000240 e4 0f 07 80 f8 8c d4 00 b3 73 04 00 16 bf 06 00
       -6.48549e-40 1.9519695e-38 4.08847e-40 6.19562e-40
000250 06 7e 04 00 48 09 10 00 f2 92 02 80 d1 00 04 80
       4.1255e-40 1.472697e-39 -2.36385e-40 -3.67635e-40
000260 c0 0b 0e 00 96 7d 03 80 c3 e7 05 00 cb 29 00 00
       1.289912e-39 -3.20558e-40 5.42318e-40 1.4992e-41
000270 b6 2b 07 00 b1 5d 0c 80 45 18 08 80 c8 d0 8a 01
       6.58529e-40 -1.135636e-39 -7.4339e-40 5.099278e-38
000280 88 cf 0c 80 55 90 0a 80 6d 2d 08 80 5e 09 08 00
       -1.176474e-39 -9.70132e-40 -7.5098e-40 7.38044e-40
000290 40 f5 06 80 5d 39 08 00 f2 7a 0c 00 a9 2c 05 00
       -6.38992e-40 7.55262e-40 1.14613e-39 4.75199e-40
0002a0 fb 7b 00 00 6b 14 0e 80 4c 1f 3c 81 a3 1e 11 80
       4.4476e-41 -1.293022e-39 -3.45526e-38 -1.572194e-39
0002b0 58 9a 07 80 e8 a0 09 00 55 22 01 00 e4 37 07 80
       -6.98217e-40 8.84242e-40 1.04152e-40 -6.62898e-40
0002c0 1f 03 0d 00 32 d6 07 80 00 df 05 00 8b e1 05 00
       1.194981e-39 -7.19687e-40 5.39175e-40 5.40087e-40
0002d0 f6 bd 04 80 53 e4 11 00 c3 cd 09 80 aa 79 00 00
       -4.35487e-40 1.643111e-39 -9.00333e-40 4.3645e-41
0002e0 e5 d4 05 80 88 ab 06 00 5e c6 10 00 34 41 01 00
       -5.3555e-40 6.12547e-40 1.540529e-39 1.15226e-40
0002f0 cc ad 04 80 d6 8d 00 80 8d 7c 10 80 45 38 04 00
       -4.29689e-40 -5.0881e-41 -1.514048e-39 3.87528e-40
000300 89 52 02 80 d1 d5 02 00 ae c8 09 80 43 87 02 80
       -2.13279e-40 2.60374e-40 -8.9851e-40 -2.32194e-40
000310 94 27 90 81 de c6 01 00 d0 c1 62 80 e8 3d 0b 00
       -5.295404e-38 1.63176e-40 -9.069405e-39 1.032398e-39
000320 d8 cf 0b 00 38 7c 0c 80 f0 d6 8d 80 0b b8 06 00
       1.084751e-39 -1.146587e-39 -1.302591e-38 6.17035e-40
000330 e4 fd 09 00 e1 ae 07 80 32 50 01 80 3e 6b 04 80
       9.17598e-40 -7.05583e-40 -1.20604e-40 -4.05813e-40
000340 b2 ce 04 00 d4 aa 03 80 c8 0b 0a 80 b5 25 0b 00
       4.4149e-40 -3.36788e-40 -9.22581e-40 1.023717e-39
000350 ff 43 0b 80 39 08 0d 80 d0 a3 0d 80 63 2d 05 80
       -1.034583e-39 -1.196811e-39 -1.252626e-39 -4.75459e-40
000360 0f 0d 04 00 4f a3 0b 00 7d 1b 0d 00 ca 96 0c 80
       3.72027e-40 1.068775e-39 1.203722e-39 -1.156119e-39
000370 d8 fa 00 00 72 08 10 80 19 ce 08 00 ea 69 03 00
       8.9986e-41 -1.472398e-39 8.08618e-40 3.13501e-40
000380 d6 5a 10 80 08 de 01 00 ee e7 05 80 c0 03 a7 00
       -1.501954e-39 1.71485e-40 -5.42378e-40 1.5337873e-38
000390 43 c7 08 80 1b 5e 04 80 ba 5f 0e 00 2f 71 03 80
       -8.06166e-40 -4.011e-40 1.320037e-39 -3.16109e-40
0003a0 8d 8b 0e 00 a5 93 03 00 3b da 09 80 a8 23 41 81
       1.335758e-39 3.28471e-40 -9.04806e-40 -3.5474084e-38
0003b0 25 58 03 80 05 62 09 00 48 ef 7d 01 c7 a5 0f 80
       -3.07127e-40 8.61682e-40 4.6640437e-38 -1.437002e-39
0003c0 0f 58 0f 80 8b 3a 05 00 01 fb 00 80 b8 34 98 01
       -1.409122e-39 4.80179e-40 -9.0043e-41 5.591163e-38
0003d0 db 25 0e 00 73 eb 02 80 12 ce 01 00 fb 8b 05 00
       1.299277e-39 -2.68134e-40 1.6576e-40 5.09393e-40
0003e0 62 cb 10 00 8c 9c af 01 03 54 06 80 d3 5f 06 80
       1.542328e-39 6.450948e-38 -5.81151e-40 -5.85388e-40
0003f0 b8 ca 7d 81 b8 3a 63 00 a0 4e 58 01 c3 74 0c 00
       -4.6614205e-38 9.112778e-39 3.9729345e-38 1.143912e-39

fc4.bias f4 [42]
000000 5a 62 11 80 3e dc 52 80 2f ad 1d 80 83 98 1a 80
       -1.596485e-39 -7.609519e-39 -2.725356e-39 -2.442434e-39
000010 41 b7 0d 80 63 6c 1e 80 f0 0c 57 80 9b 3e 1b 80
       -1.2596e-39 -2.793947e-39 -7.994329e-39 -2.502017e-39
000020 4a ad 1c 80 68 db 13 80 dc d2 16 80 0c 0c 02 80
       -2.633558e-39 -1.823583e-39 -2.096023e-39 -1.87993e-40
000030 1e 57 73 80 52 00 53 80 bd 4b 11 3d 76 0e 2d 80
       -1.0592334e-38 -7.622461e-39 0.03547262 -4.137785e-39
000040 25 d2 0b 80 27 bf 3c 80 8f f7 14 80 96 2c 0b 80
       -1.085576e-39 -5.578702e-39 -1.925517e-39 -1.026185e-39
000050 c1 47 16 80 e7 a0 18 80 3e c8 3e 80 22 0b 08 80
       -2.046121e-39 -2.261773e-39 -5.765634e-39 -7.38678e-40
000060 47 19 1b 80 5e a5 03 80 46 4e 10 80 23 6e 4a 80
       -2.488626e-39 -3.34829e-40 -1.497447e-39 -6.835336e-39
000070 84 a5 22 80 bb 30 05 80 2c 37 05 80 86 21 14 80
       -3.181783e-39 -4.76659e-40 -4.7897e-40 -1.848736e-39
000080 70 69 42 80 05 bc 34 80 52 70 09 80 7d 5e 0b 80
       -6.098967e-39 -4.842894e-39 -8.66812e-40 -1.044086e-39
000090 e4 fc 0f 80 6c 36 02 80 a4 1a 0e 80 2e c5 1a 80
       -1.468253e-39 -2.03194e-40 -1.295254e-39 -2.458458e-39
0000a0 ea 44 61 80 3c dd 55 80
       -8.932765e-39 -7.885381e-39

fc5.weight f4 [1, 42]
000000 2b bf 14 00 ea 66 45 80 c4 03 1f 00 2e b0 16 80
       1.905288e-39 -6.373568e-39 2.848251e-39 -2.083582e-39
000010 d1 74 10 80 7b 80 1d 00 aa a0 56 80 0b 4c 1c 80
       -1.511274e-39 2.70932e-39 -7.955488e-39 -2.598673e-39
000020 c3 ad 1b 80 98 71 14 00 92 10 14 00 ec f3 14 00
       -2.541892e-39 1.87746e-39 1.842654e-39 1.924213e-39
000030 e3 57 7f 00 00 9d 2f 80 b2 4b 11 bd fc ad 13 80
       1.1694636e-38 -4.37259e-39 -0.03547258 -1.807288e-39
000040 b7 c8 21 80 f6 ab 43 00 e2 7b 47 80 e8 aa 0e 80
       -3.102574e-39 6.214666e-39 -6.564761e-39 -1.347007e-39
000050 ee c8 08 80 a3 57 09 80 2a 45 39 00 d7 18 0a 80
       -8.06764e-40 -8.57958e-40 5.259435e-39 -9.27266e-40
000060 f8 98 1d 80 f6 6f 03 80 a9 4b 12 00 01 5c 4d 00
       -2.718104e-39 -3.1567e-40 1.68018e-39 7.104338e-39
000070 9a 9e 20 00 59 5a 06 80 33 2e 00 80 82 6b 14 80
       2.995631e-39 -5.83424e-40 -1.6573e-41 -1.875276e-39
000080 8b 71 41 00 91 b0 32 00 9a 4c 01 00 11 3e 12 80
       6.010039e-39 4.655115e-39 1.19315e-40 -1.675304e-39
000090 1b 44 04 00 16 80 01 00 45 1c 0a 00 5f 08 1b 00
       3.91774e-40 1.37784e-40 9.28496e-40 2.482561e-39
0000a0 31 d0 38 00 ce d0 53 00
       5.217473e-39 7.697251e-39
