models/DQN/7/dqn_agent_target_weights.pth (torch, 366310 bytes, 10 tensors)

fc1.weight f4 [336, 42]
00000000: 24b7 5b3d 4d63 eb3d 4ecc 02be 4190 87bc
00000010: 5135 5bbd 814f 293b 4bf3 d8bc dfd3 cb3d
00000020: d856 113e 1122 0cbd 48e5 933d 9f4a 093e
00000030: 0600 10be 7b24 103e d574 9c3d 5151 cd3c
00000040: 440a 003e 1915 aabd c163 c73d a819 05be
00000050: 35d3 b8bd 509e 07bd 3c2e 32bb 00be c83d
00000060: 74dd 0ebe fa24 b93d f320 03be 0e06 f1bd
00000070: 4a47 c2bc d4b8 4a3d 9740 13be a4c1 0bbe
00000080: 8b8a 6a3d 2a37 d4bd 190a e73d 7cf3 e4bd
00000090: 2165 a73b b83d 10bb b2b1 d93d 537f fcbd
000000a0: 9272 3b3c 832f 1abd 7054 ecbd 0eb0 943d
000000b0: fbef 4dbc 9990 00bb 67ae 32bd e8f5 e4bd
000000c0: 6228 fd3d a236 f73d a47a 0fbe efd3 fcbc
000000d0: 3f85 813d 01c8 1d3e 618c e5bd 6f74 31bd
000000e0: 567a afbb 69e7 b7bd a5f3 bb3d 278e e6bc
000000f0: 4109 343c 5670 0ebe b0dc 58bd bbe6 e8bd
00000100: 7a5f 0ebd f659 1a3e a1eb c53c 1267 6cbd
00000110: 9c59 a9bc 404f 90bd 3a1b 143e 3a5f 1bbe
00000120: 784e e93c 62be 16bd 8cf8 1abe 8551 903d
00000130: 13c4 0e3e 2dd5 6bbd 5cc1 56bd 8496 cabd
00000140: 84b5 0ebe 7493 e1bc 8938 edbd 6f42 133e
00000150: 07d7 743c 70ab 113d 3a3e f5bd 98d4 f83b
00000160: acf8 1d3d d7dd 2abc 1865 15be c1c2 0e3e
00000170: addd 053e 3991 c0bc a2c7 0a3e 2161 80bd
00000180: 8c88 98bd db3e 6abd 2ec4 8cbd fd1d ad3d
00000190: 91ec bcbd 91c0 0f3e 0ef1 80bd 590c 07be
000001a0: 46dd 40bd 1aa9 eb3c 491d 9a3c 222c 023e
000001b0: 653b f33d daa1 1bbe eaf3 4dbb 178e 033e
000001c0: 469d 8dbd 0163 06be 67b7 4abd 89dd adbd
000001d0: 24f2 6fbd bb93 d03d 5459 1abe ac00 2b3d
000001e0: bb75 f43d 6325 a33d 45ba fabd 1aa2 1cbe
000001f0: 54b5 f6bd cb76 ab3c dfe2 18bd be5d febd
00000200: 52ec f3bd bfac b73c 2280 ad3d 50fa ee3c
00000210: 2090 acbb c079 9bbd fdc4 0a3e 5b5a 793d
00000220: 0376 d7bd 8272 73bd 6027 3a3d d3e9 4fbd
00000230: 11a2 b33d c246 333d 69fb 19be 32b7 093e
00000240: cf97 513d 6782 2b3b 55af 2c3d 31c0 12be
00000250: 8763 00be 151f 86bd 554c 0dbd 20c8 243d
00000260: 04d7 933d e189 19be f454 573d 3691 3aba
00000270: 0eac 72bd cab8 103e dd42 0dbe 00a9 c4bd
00000280: d571 613d 9a48 963d 1dc5 283d 09f7 eabc
00000290: cd10 a93d e3b3 e7bd 2a75 f03c 6e87 cbbd
000002a0: 5c0e 16bd 6748 1cbe 583d 453d 958e a33d
000002b0: e34b f13d 620e 383d 3c29 d8bc a6e1 ef3c
000002c0: a9da 84bc 6a0c 753d f815 183e bb80 ed3d
000002d0: c544 0f3d 6c74 443d 6543 ec3d 7ffe e53d
000002e0: c243 b3bd bcbc c3bd 2f92 a73c 576f a13d
000002f0: 1e28 e93d e889 113e 0d4d 09be 03a1 19be
00000300: edac 553c 1d4d 17bd 7840 b4bd 8f85 8fbc
00000310: c856 e1bd 08ce 6a3d f900 333d b9f1 e2bc
00000320: de5e c23d 8534 c43b 6785 08bc ead1 493d
00000330: 82b9 a43d 8486 c2bd e1d6 a83d bdf5 babd
00000340: 5572 e5bd c58f 2bbd c3a4 373d 8c02 f03d
00000350: be0f b7bc c6c5 613d 5b13 3a3d f1de 003e
00000360: 77fb fb3d 8762 9a3c 5ef7 143e fa03 5b3d
00000370: 1bb2 4bbd 7978 023e b78c a8bd a305 183e
00000380: 117c 603d 4ea7 a93b 7148 d13c e2c7 27bb
00000390: 65fc dcbc aacf 8f3d 4979 16be 2a2f 113d
000003a0: 5b77 d3bd 1261 dc3d b1de 483d fd8b aa3d
000003b0: 1076 ddbc 6de8 153e 4d1c b63d 22c8 cbbd
000003c0: 2a2c d13c 38b0 103e cf38 893d 09a7 16be
000003d0: 3cef 07be 6752 1c3d 2b94 aa3d a531 8fbd
000003e0: 98c7 b13d bc6d 013e c7ee ee3b 36db 0fbe
000003f0: a38d eb3d 8200 153e 7f71 8abd 7dc7 2f3c
0.053641453 0.114935495 -0.12773249 -0.016548278 -0.053517643 0.0025834742 -0.026483199 0.099525206
0.14193285 -0.034212176 0.07221466 0.13407372 -0.14062509 0.14076416 0.076394714 0.025063189
0.12503916 -0.08304805 0.097358234 -0.12998068 -0.090246595 -0.033109963 -0.0027188202 0.098018646
-0.13951665 0.09040256 -0.12805538 -0.11768733 -0.023715634 0.049492672 -0.14380108 -0.13648087
0.05726103 -0.10362084 0.11281223 -0.111792535 0.005108491 -0.0022009443 0.10629596 -0.12328973
0.01144089 -0.037642967 -0.11539543 0.07260142 -0.012569423 -0.0019617437 -0.043623354 -0.111797154
0.12361218 0.12070967 -0.14011627 -0.030862777 0.06324243 0.15408327 -0.11208416 -0.04332393
-0.0053551598 -0.08979685 0.09177331 -0.028143955 0.010988534 -0.1391004 -0.05294484 -0.11372133
-0.034759022 0.1507338 0.024160208 -0.057715483 -0.020672612 -0.07046366 0.14463511 -0.15173045
0.0284798 -0.036802657 -0.15133876 0.070467986 0.13941984 -0.057576347 -0.052430496 -0.0989199
-0.1393643 -0.027536131 -0.11583049 0.14380811 0.014943845 0.035563886 -0.119747594 0.0075937025
0.03856723 -0.010428867 -0.14589345 0.1394148 0.13072844 -0.023506748 0.13552716 -0.06268526
-0.07447919 -0.05718885 -0.06873356 0.084529854 -0.09224809 0.14038302 -0.062959775 -0.13188304
-0.047086023 0.028767157 0.018812792 0.12712148 0.11876563 -0.1519846 -0.0031425902 0.12847172
-0.06914763 -0.13123704 -0.049491312 -0.0848952 -0.058580533 0.10184427 -0.15073138 0.041748688
0.11936518 0.07966115 -0.12242559 -0.15296212 -0.12046304 0.020930668 -0.037325736 -0.12420224
-0.11910309 0.022421239 0.08471705 0.029172093 -0.0052662045 -0.07591581 0.13551708 0.060877185
-0.10520556 -0.059435375 0.045447707 -0.0507601 0.08771146 0.04376865 -0.15037312 0.1344879
0.051170167 0.0026170255 0.042159397 -0.14331128 -0.12537967 -0.06548897 -0.034496624 0.040229917
0.07218745 -0.14994003 0.052571252 -0.0007116975 -0.059246115 0.14132991 -0.13795038 -0.09602547
0.0550402 0.073380664 0.041203607 -0.028682249 0.082551576 -0.113136075 0.029352743 -0.099379405
-0.036634788 -0.15261994 0.048154205 0.0798618 0.11782052 0.04493559 -0.02638685 0.029282402
-0.016217547 0.059826292 0.1485213 0.11596819 0.034977693 0.04796259 0.11536292 0.11230182
-0.08753158 -0.095574826 0.020455448 0.078825645 0.11384605 0.14212763 -0.13408299 -0.15002827
0.013041717 -0.036938775 -0.08801359 -0.01751974 -0.1100288 0.057325393 0.0437021 -0.027703153
0.09490751 0.005987706 -0.008332587 0.049272455 0.08043195 -0.09498313 0.0824411 -0.09128902
-0.11203448 -0.041885156 0.044834863 0.11719236 -0.022346374 0.055120252 0.045428615 0.12585045
0.123038225 0.01884581 0.14547488 0.05347059 -0.0497304 0.12741269 -0.08229964 0.148459
0.05480582 0.005177415 0.025547238 -0.0025601317 -0.02697582 0.07022031 -0.14694704 0.03544537
-0.103254996 0.10760702 0.0490405 0.08327482 -0.027033836 0.14639445 0.08892117 -0.09950282
0.025533754 0.14129722 0.067002885 -0.14712156 -0.13274854 0.038164522 0.08329042 -0.06991891
0.086806476 0.12639517 0.007291648 -0.14048466 0.115016244 0.14550975 -0.06759929 0.010728714

fc1.bias f4 [336]
00000000: 0ec1 093e a099 34bd 2e02 1ebd e0f2 e6bd
00000010: 55c4 b3bd ea5f 7c3d cf3a 5d3d fa5c 193e
00000020: 25e7 463d 8477 de3d 2052 e1bd 6dc8 0b3e
00000030: 23dd babd 73a6 e3bd fbba 1cbe 92bc 7ebd
00000040: 41e0 7ebc f7c7 163e 44e7 e53d 82e7 ac3d
00000050: 52df 1cbd cb0d 4bbc 5701 0ebe 78b8 00be
00000060: f2bd 7abd 2f9b d13c d5b7 87bc 4783 47bd
00000070: c659 14be 5161 d5bc 3f67 003e dc51 95bd
00000080: ac42 2d3d ff99 83bd 5c93 bc3d b11e 7fbd
00000090: 21ae 073e fb26 e0bd 7b61 a2bb 455d 38bd
000000a0: 7145 e13d da1e 8dbd b83c f9bd 1446 e13d
000000b0: 3a31 bfbd 35a4 1c3e 1a04 d4bd bcd1 58bd
000000c0: 48d5 113e 63e5 1cbe 0e04 23bd 2505 363b
000000d0: db4a 0e3c 71cb 6e3c c097 15be 144f 7c3d
000000e0: 5879 e4bc d876 08be c22e 7f3d f948 88bd
000000f0: f537 403d 67a3 ad3c f7cd 57bd 0983 963d
00000100: 367c 243d 642d fd3c 099d b93d a5aa c83d
00000110: 6c8e 0b3e 8e7d 063d b248 f13d c129 7e3d
00000120: 35cc 913d ccaf 18be afcb c9bc 1e8d b3bb
00000130: be0e d0bb 758e bfbc 5e66 00be 1e79 3c3d
00000140: c780 4a3d e95f f03c 570e a0bd 63ff 8b3c
00000150: ed3e 5e3d 39a6 5439 83c3 c53c 8bfb c4bd
00000160: 3c5e cabc 9149 303d 3496 083d 0a78 f0bd
00000170: 35d1 673d 9072 af3d 7448 0d3e c1c9 a6bd
00000180: 1fa3 9c3c c222 783c 0ffd cb3d b31d 22bd
00000190: a73a df3d 751a cabd 174d adbd 3fcf 3dbd
000001a0: 5b8d ecbd e315 be3d e44c 28bd 6175 0fbe
000001b0: 779d 0bbe e86e 0d3e 5bb3 f3bd ebc0 c33d
000001c0: 733d c43d f801 16be b962 aabd d0cc 0c3e
000001d0: 8264 08be 0606 05be 2f9b 943d 73ff 02be
000001e0: 3bdd a93d d8db 42bd 1d37 02be f788 8ebd
000001f0: f5b5 d83c 1c8e 9c3d 89ae f23d fcba 7bbd
00000200: 6576 e9bd cb34 0ebc c0da 72bd 8ecc 23bb
00000210: 09a7 6d3b 579b 143c db4d 333c db56 103e
00000220: 1518 533d 7f79 edbd 4809 933d a4a3 edbd
00000230: d988 e8bc 805b 043e 3f51 013e 4d88 5a3d
00000240: f4aa aebc e5fe dabd d7b5 8dbd 8f44 12be
00000250: 6f24 b2bc 63c2 813c cef1 c13c 7615 a73d
00000260: 06ce 183e fe83 06be fcc2 423d bf38 85bb
00000270: 0bcf 2a3d ed15 d13d c9b6 f7bd bba2 f23d
00000280: 79fb d73d 4b1e d3bb 33ca ca3d 9620 b3bd
00000290: b8db 01be df8a 073e 3eaa 15be 96db 413d
000002a0: aec9 913d 08f7 853d 4ecb b23d 669d 06be
000002b0: fb14 e43d ded5 e33d 6f4e 55bd 6270 04be
000002c0: eb6f 3abd bb91 d53c 722a 653d 2d73 b3bd
000002d0: f878 823b 17a9 1c3e 45da 723d 4aa3 58bd
000002e0: 31ff 033e 9764 b93d 6077 f6bd 11fa e13c
000002f0: 0d61 a6bd e81e 04be a669 cd3d 4a72 1abd
00000300: 06b1 df3c b3ef 3c3c fe64 b0bc 583b 80bc
00000310: e8b8 e5bc 2f85 f9bd 7515 16be 12e0 dcbd
00000320: cc77 f83d ae14 cabd 31bb 663d d34b 393d
00000330: 4b7f 02bb 8449 673c 3334 2c3d e113 383d
00000340: 7bc5 65bd b215 f33d a4a6 c03d 931e b9bd
00000350: 59e0 e73b a339 a33d 0d91 a3bd 42d1 ec3d
00000360: fd3c 42bd 7b56 053e 72be 89bd d5b7 d5bd
00000370: d14e 62bc d1a6 ec3c 3b96 fcbd d94b fabd
00000380: 2360 a53d 0074 db3d 2bca e43d fa8d fabc
00000390: 2892 8dbb 2d30 9b3a 539c 6a3d be87 f5bc
000003a0: 78d3 92bd bf3c c33c f540 093c 21f5 993c
000003b0: d3d8 d73d f925 b53d 5123 0cbe cd82 f93a
000003c0: 9982 71bd 175d 62bd a3bc 663c ea51 c5bd
000003d0: ffb1 723d b082 1d3e 70df fbbc 1a9e 1d3e
000003e0: 5d80 02be 4a35 e23d ce80 66bd 164d e63d
000003f0: f483 d1bd 5987 8a3c 4695 763c 3bde 1bbe
0.13452551 -0.04409182 -0.038576297 -0.112767935 -0.08777682 0.06161491 0.054011162 0.14976874
0.04856028 0.108626395 -0.11001992 0.13650675 -0.0912421 -0.11115732 -0.15305702 -0.062191553
-0.015556396 0.14724718 0.11225751 0.08442594 -0.038298912 -0.012393425 -0.13867699 -0.12570369
-0.061216302 0.025586693 -0.01656715 -0.04870918 -0.14487371 -0.02604738 0.12539385 -0.07291004
0.04229991 -0.06425857 0.09207794 -0.06228513 0.13250019 -0.10944935 -0.0049554682 -0.045010824
0.10999573 -0.0689065 -0.12169784 0.109996945 -0.09335561 0.15297015 -0.10352345 -0.052934393
0.14241517 -0.15321879 -0.03979879 0.0027774062 0.008684839 0.014574871 -0.1460867 0.061598852
-0.027889892 -0.13326585 0.06230045 -0.066545434 0.046928365 0.02119608 -0.052686658 0.07349212
0.04015752 0.030905433 0.09063155 0.09798173 0.13628548 0.032834582 0.11781444 0.06205154
0.071190275 -0.14910811 -0.024633257 -0.005479469 -0.0063494137 -0.023383358 -0.1253905 0.046013944
0.049439218 0.029342609 -0.07815235 0.017089551 0.05425923 0.00020279818 0.024141079 -0.096182905
-0.024703138 0.04303891 0.03334637 -0.11741646 0.056596 0.08566773 0.1379717 -0.0814395
0.019120751 0.015145006 0.099603765 -0.039579105 0.10899859 -0.098683275 -0.08461969 -0.046340223
-0.11550399 0.09281518 -0.041088954 -0.1400962 -0.13634287 0.13811839 -0.11899444 0.095582806
0.09582033 -0.14649189 -0.08319611 0.13750005 -0.1331959 -0.12990579 0.072561614 -0.12792759
0.082941495 -0.04757294 -0.12716337 -0.06959718 0.026453951 0.07644293 0.11849696 -0.06145762
-0.11399535 -0.008679579 -0.059290648 -0.002499375 0.003626289 0.009070239 0.010943855 0.14095633
0.05153664 -0.11595439 0.07179505 -0.116034776 -0.028385567 0.1292553 0.12628649 0.053352643
-0.021321751 -0.106931485 -0.06919449 -0.14283966 -0.021745889 0.015839761 0.023674872 0.0815839
0.14922342 -0.13136289 0.047549233 -0.0040656026 0.041701358 0.1020926 -0.120954104 0.118474446
0.105460115 -0.00644282 0.09901848 -0.0874645 -0.12681472 0.13236569 -0.14615723 0.047328554
0.071185455 0.06541258 0.087301835 -0.1314598 0.11136814 0.11124776 -0.052076753 -0.12933496
-0.04551689 0.026070466 0.055948682 -0.087622024 0.0039817058 0.15298878 0.05929019 -0.0528901
0.12890317 0.09052389 -0.12034488 0.027585061 -0.0812398 -0.12902415 0.100299165 -0.03770665
0.027306091 0.011531758 -0.021532532 -0.015653297 -0.028042272 -0.12183606 -0.14656623 -0.107849255
0.121322244 -0.098672256 0.056330863 0.045238327 -0.0019912298 0.014116649 0.04204197 0.044940833
-0.056096535 0.118693724 0.09406784 -0.09039035 0.007076305 0.07969978 -0.079866506 0.1156335
-0.047421444 0.13021271 -0.06725778 -0.10435454 -0.013812737 0.028888138 -0.12333342 -0.12221498
0.08074977 0.107154846 0.11171373 -0.030585278 -0.0043204017 0.0011839919 0.05727799 -0.029971953
-0.07169241 0.023832677 0.008377303 0.018793644 0.10539403 0.08845133 -0.13685347 0.0019036174
-0.05896244 -0.05526456 0.01408306 -0.096347645 0.05925178 0.15381885 -0.030746192 0.15392342
-0.12744279 0.1104532 -0.05627518 0.11245172 -0.10230246 0.016910242 0.015050238 -0.15221493

fc2.weight f4 [168, 336]
00000000: 274f 213d 5780 b23c 9ae4 eabc dcc4 5c3d
00000010: 7dcb e23a f58a 003d 9cff 57bd 0c95 e63c
00000020: 4b4d 3abd bedd 92bc 8ffc c43c 0172 2a3d
00000030: a8dd f8bc 40a3 2fbb 5fff a13c b888 ff3c
00000040: 19b5 583b 9521 8fbc f091 133c 66e6 3b3d
00000050: 5086 373a bd42 bebc 1c06 17bd 4d02 1a3c
00000060: e93d 2fbd f28b 1bbd 511e 43bd 4cf5 0e3d
00000070: 4b20 31bd 9759 c93c 53cb 6b3c 26e1 eabc
00000080: 19f0 4b3d a83a 41bd 9a61 1b3d a6ba 3abd
00000090: 4e4a 093d 2e03 21ba 747c a93c e177 91bc
000000a0: 18cc 473b 9a6a 47bc 6982 dbbc d489 32bd
000000b0: 29f8 b9bb 57fd 11bd ed57 903c 5a81 54bd
000000c0: 52cb cabc 7683 103c d8f2 cf3c 3560 4d3d
000000d0: 3365 3f3d 867d c23c fb27 5f3d f490 6b3b
000000e0: 95e5 4c3b 727e f8bc f9d9 7cbb 519b 32bd
000000f0: fd67 e43c f5ef 28bd 9961 99bc a9a7 4dbd
00000100: 5d61 793c c291 cc3c ece2 86bc a63b 4bbc
00000110: f887 31bc 6949 273d ba21 88bc 2dcb 8fbb
00000120: 2246 c3bc 9aeb c13c f489 b73c 4407 b4bc
00000130: 5c43 cdbb bfea f4bb ed65 243d f9c5 76bb
00000140: 4b1f e13c aa2b 85bc a462 acbb 458d 1fbd
00000150: 80a2 32bd 6202 0c3d 046e 9bbb 5e56 293d
00000160: 80c3 ff3c 458f 79bc a320 5cbd 06b0 6a3c
00000170: f619 51bd 9255 d03c 4525 db3c e47d 5ebd
00000180: e3a6 5dbd 43ce 0e3d 29ad 3ebb 544b 983c
00000190: c8a8 19bd 67f8 f8bc 8202 05bd 7650 3f3d
000001a0: 9189 35bd e74e 5f3d f167 98bc bb1c 7a3c
000001b0: 54f6 25bd 56e1 ae3c 5293 30bc 6717 83bb
000001c0: 10e8 e63b 5b4b 00bd 237f d63c 3d8d a63c
000001d0: 4b66 173d 94b2 dc3b bac1 0abb 3a8f 533d
000001e0: 022e 65bc 704a 403d bdd2 02bd 99a1 4fbc
000001f0: 73ec 1abb 3ec9 5dbd 8387 e3bc d3e1 6dbc
00000200: bc6c 02bd f2e4 92bc 1852 8f3c b249 b13c
00000210: 8f23 66bc 4727 443d 9e58 bd3c 0a47 d2bc
00000220: ba1a 51bd e3b0 ac3c 41af 6cb9 ce6d 9dbc
00000230: aa59 ea3b de65 103d c9b6 583d e358 f7bc
00000240: 876d 04bd b781 c4bb ceec 313d 384f dcbc
00000250: d5c2 053c aef5 053c 21be 013d d179 323d
00000260: 7ccc b7bc 85c3 d7bc 88be a5bc f576 1c3d
00000270: d7b0 f3bc 1aa9 493d 1a68 19bd 79e8 e63c
00000280: be16 65bc 2d32 233d cffb 56bc e50f 03bd
00000290: 1722 1fbc 138a a73b f9bc 04bd a633 35bd
000002a0: 719a 053d c1a3 073d 99ce 23bd 731a 063c
000002b0: 28ac b8bc b338 8ebc 04f0 383d 5e28 31bd
000002c0: 074a 013d b94d 2dbd 9889 d33c b343 47bd
000002d0: a4fc 173d 9666 0d3d 25c5 143d 1c90 273d
000002e0: 3ccb b53c 698e 273c f725 d73c b359 19bd
000002f0: 3ad6 97bc 4e1f 473d 91f4 873c 1705 86ba
00000300: af4e 503d 68f5 0dbd 8a68 bbbc 9567 b83c
00000310: 026f 27bd 8c19 21bc c19c 083d bf15 a33c
00000320: 53eb 7c3c 1ee0 3fbd 897f 823c 20c9 db3c
00000330: 7706 5a3c 6399 273d 043c acba 31dc 083b
00000340: 62cb 283d 20b1 1a3d a9f2 863c fb11 a8bc
00000350: a9b8 27bc 669e aabc 240f 943a ec4c bf3c
00000360: 9bb4 433d 75ce 8dbc 2cb9 23bd 8e0c e9ba
00000370: b707 383b dadd 09bc 2e00 433c 911a 943c
00000380: aeff 45bd 1232 6e3c 6efa 20bd 5986 443d
00000390: 3b41 8c3c 32f0 533d 4c47 16bc dfaa 813a
000003a0: 5efa 183d 229f 11bd 24ea c2bb ccdd 46bb
000003b0: 939c bfbc 7ecc d3bc f7fc ed3c 3bb9 20bd
000003c0: 7de3 a7bb 854a 2b3d 82da ddbc 1da3 093d
000003d0: 6d39 7a3a f743 493d 19ba 40bd be89 ac3c
000003e0: 0b57 13bd f331 adba 7062 413c 7821 44bd
000003f0: ea4e 293d e9a1 97bc 5fae 2bbd fc87 febc
0.039382126 0.021789713 -0.028673459 0.053898677 0.0017303076 0.03138252 -0.052734002 0.028147243
-0.04548387 -0.017928 0.02404621 0.04161263 -0.030379131 -0.0026800185 0.01977509 0.031193122
0.0033066927 -0.017472068 0.009006962 0.045874022 0.000700091 -0.023225183 -0.03687106 0.009399963
-0.04278365 -0.03797526 -0.047636334 0.034901902 -0.043243688 0.024578853 0.014391738 -0.028671812
0.04978952 -0.04717508 0.037934877 -0.045588158 0.033518128 -0.00061421364 0.020689227 -0.017757358
0.003048664 -0.012171412 -0.026795583 -0.043588474 -0.005675335 -0.035641994 0.017620051 -0.05188117
-0.024755154 0.008820405 0.025384352 0.05014058 0.04672737 0.023741495 0.054481488 0.0035944553
0.0031264771 -0.030333731 -0.003858207 -0.043605153 0.027881617 -0.041244466 -0.018723296 -0.05020872
0.015220967 0.024971846 -0.016465627 -0.012404358 -0.01083564 0.040841494 -0.016617645 -0.004388234
-0.023837153 0.023671914 0.022404648 -0.02197612 -0.0062641334 -0.007474273 0.040136266 -0.0037654622
0.027480742 -0.016256172 -0.0052607823 -0.038953084 -0.043612003 0.03418196 -0.0047433395 0.04134213
0.031221151 -0.015231912 -0.053742062 0.014324194 -0.05105015 0.025431428 0.02675117 -0.054319277
-0.054114234 0.034864675 -0.002909491 0.018590607 -0.037514478 -0.030391885 -0.032473095 0.046707593
-0.044320647 0.054518607 -0.01860425 0.015265639 -0.04051812 0.021347683 -0.010777311 -0.0040005925
0.007046707 -0.031321865 0.02618367 0.02033102 0.03696279 0.0067351554 -0.00211726 0.051650263
-0.01398802 0.04694599 -0.031939257 -0.012672805 -0.002363947 -0.054146998 -0.027774578 -0.014519173
-0.03184198 -0.017931435 0.0174952 0.021641586 -0.014046564 0.04788902 0.023113545 -0.02566864
-0.05105088 0.02108044 -0.00022572001 -0.019217398 0.007151802 0.035253398 0.052908693 -0.030193752
-0.032331016 -0.0059969085 0.043438725 -0.026893243 0.008164127 0.00817625 0.03167546 0.043573204
-0.022436373 -0.026338348 -0.020232454 0.038199384 -0.02974741 0.049233533 -0.037452795 0.028187023
-0.013982473 0.039842773 -0.013121559 -0.03199758 -0.0097127175 0.0051128953 -0.03240678 -0.04423871
0.03261799 0.033115152 -0.03999195 0.008185017 -0.022543028 -0.01736102 0.04515077 -0.043251388
0.03156474 -0.04231045 0.025822446 -0.048648547 0.03710617 0.03452166 0.036320824 0.040908918
0.022191636 0.010226824 0.02626322 -0.03743906 -0.018534768 0.04861384 0.01659611 -0.0010224906
0.05085629 -0.034657866 -0.022876997 0.02251033 -0.04087735 -0.009832751 0.033352617 0.01990783
0.015436965 -0.046844594 0.015929954 0.026829302 0.013307205 0.040917765 -0.0013140445 0.0020883197
0.041209586 0.037766576 0.016473131 -0.020516386 -0.0102368975 -0.020827483 0.0011296016 0.023352109
0.04777966 -0.01731036 -0.039971516 -0.0017780231 0.002808077 -0.00841471 0.011901898 0.018079074
-0.04833954 0.014538305 -0.03930133 0.047979686 0.017120948 0.05174274 -0.009172272 0.0009892842
0.037348144 -0.03555215 -0.005948322 -0.0030344604 -0.02339009 -0.025854345 0.029051287 -0.03923915
-0.0051235543 0.041819114 -0.027081732 0.033602823 0.00095453 0.049137082 -0.047052477 0.021061774
-0.035971683 -0.0013213739 0.0118032545 -0.04788348 0.041335024 -0.018509822 -0.04191434 -0.031070702

fc2.bias f4 [168]
00000000: ca52 a43b 5e0c 113d f6f0 643a 8e6e 58bd
00000010: afca 0e3d f663 19bd e9f1 fcbc f685 b63b
00000020: fd0b 9dbc d07f 24bd 95aa 26bd db87 a13b
00000030: 2f94 703c f531 10bb 3684 f9bc 435d 5a3d
00000040: 3ff5 02bd 63a7 193d 7789 bb3a 3c9c ffbb
00000050: d118 f63c 7e59 6dbc a13a 0dbd 3208 1fbd
00000060: 40a6 8d3c 0d4f 6bbb 0351 40bd 6b45 dabb
00000070: bb1f 423d a24a 11bd 2b68 bc3c efc7 4d3d
00000080: b323 103d 3ff9 5ebc e44c c13c 33bd f2bb
00000090: 6401 5cbd f744 30bd fe34 23bd 3dca 353b
000000a0: 45bd 89bc 39d9 bfbc 3739 213c ffbb 2e3d
000000b0: fb57 263d ad4a 5b3d 40d2 9ebc 0c73 2c3d
000000c0: 5e97 0a3d fcf6 363d 9ee6 fc3c d362 373c
000000d0: 8c90 9f3c b029 e93b 08c3 2e3a ae7c 38bb
000000e0: b26c 293d c2e5 07bd 6d96 533d edd1 74b9
000000f0: d18f 0abd 417a 413d e131 98bc b1db 593d
00000100: 7a4c 4b3c 8fe2 b43c b267 42bd 7227 d938
00000110: 5c90 fa3c 8cad f1bc 92c5 2c3d 463e 2ebc
00000120: 62c0 ab3c 183b fd3c 3a8d 353d 90e5 47bd
00000130: 0496 423b 28ee 51bb aae2 863c e24d eebc
00000140: 827e 043d eb72 873c 805d 103d e448 493d
00000150: 5a84 f83c aa14 44ba f245 2a3d 8977 f2bc
00000160: 71d0 473d b8ee 2ebd 76c9 31bd 9f47 313d
00000170: 3748 333d 5b45 49bd 4590 48bd 9a0b 113d
00000180: 9e4c b83b 9815 113d afc2 a8bc 5c92 1e3d
00000190: 0299 f13b bca9 fcbc 6c70 21bc 2625 333d
000001a0: e91e b13c 35fb 11bd fdfb ae3a 6c7b 39bc
000001b0: b005 213b a057 f13c d673 31bc ba4c a2bc
000001c0: 7d58 c4bc 964f cbbb 0221 5b3d 7f0c 61bc
000001d0: 9b93 c13c f426 48bc 1329 27bd 8900 ea3c
000001e0: 1c11 4bbd d57d 46bd 9cb5 52bb f484 9b3c
000001f0: b1e4 28bd 2dd2 693c b02a fdbc 38ff 4d3c
00000200: 5e6a 35bd 2132 d83c aba6 e5bc c9b0 d0bc
00000210: f3be 50bd f352 1dbb d1a5 aa3c a02b 413d
00000220: 61e9 02bd 41a0 a63b 46b8 4e3d 7d43 583c
00000230: 54e6 bcbc 82aa 40bc 2724 473d a95b 8d3c
00000240: fcce fbbb f961 eebc b65e 3a3d 218d 1ebc
00000250: e8a1 273d b7d3 0fbc dba9 263b ee43 483d
00000260: 3480 cdbc edcd 993b 2335 8bbc aa9e 65ba
00000270: cb0f 31bd 0f02 3e3d a14f 42bd 47bf 50bd
00000280: f611 563d 90d3 c43c 4d7a 41bd 0f06 a9bc
00000290: 2e5a 3bbd dc14 b53c 2cca 563d af1e 7ebc
0.005014752 0.035412185 0.0008733416 -0.05283981 0.034861263 -0.037448846 -0.03087707 0.0055701686
-0.019170756 -0.040160954 -0.040690023 0.0049295253 0.014683767 -0.0022002433 -0.03045855 0.053311598
-0.031972166 0.037513148 0.0014307935 -0.007800607 0.03004113 -0.014486669 -0.03447974 -0.038826175
0.017291188 -0.0035905272 -0.04695226 -0.0066611073 0.04739354 -0.035471566 0.02299889 0.0502395
0.035190295 -0.01360923 0.023596235 -0.007407808 -0.053712264 -0.04303452 -0.03984546 0.0027738952
-0.016813884 -0.02341901 0.009840301 0.042659756 0.04061125 0.053538013 -0.019387364 0.042101905
0.03383576 0.044669136 0.030871686 0.011192995 0.019478105 0.0071155652 0.0006666635 -0.0028150487
0.041363426 -0.0331781 0.05165713 -0.00023347857 -0.03382856 0.04723573 -0.018578472 0.05318803
0.01240837 0.022080688 -0.047462173 0.000103547136 0.030586414 -0.029501699 0.042180605 -0.010634964
0.020965759 0.030911967 0.044324137 -0.048802912 0.0029691467 -0.0032032821 0.016465504 -0.029089872
0.03234721 0.01653429 0.03524542 0.04914178 0.030336548 -0.0007479886 0.04157061 -0.029598014
0.04878277 -0.04270813 -0.04340502 0.043281194 0.04377004 -0.04913841 -0.04896571 0.035411455
0.005624368 0.035420984 -0.020600645 0.038713798 0.0073729763 -0.030842654 -0.009853464 0.0437366
0.021621184 -0.03563996 0.0013350245 -0.01132093 0.002457004 0.029460728 -0.01083084 -0.019811977
-0.023967976 -0.0062045557 0.053498276 -0.013735889 0.023629954 -0.012216318 -0.040810656 0.028564708
-0.049576864 -0.048459847 -0.0032151705 0.018984295 -0.041233722 0.014271301 -0.030904144 0.012573056
-0.044290893 0.02639109 -0.028033575 -0.025474923 -0.050963353 -0.002400574 0.02083102 0.047160745
-0.03196085 0.0050850217 0.050468706 0.013199684 -0.023059048 -0.011759402 0.048618462 0.017255621
-0.0076845866 -0.029099451 0.04550048 -0.009677202 0.04092589 -0.008778504 0.0025430832 0.048892908
-0.025085546 0.0046937377 -0.016993111 -0.00087592995 -0.043227952 0.046388682 -0.04743922 -0.050963666
0.052263223 0.024026662 -0.047235776 -0.020632772 -0.0457403 0.022104673 0.0524389 -0.015510245

fc3.weight f4 [84, 168]
00000000: af80 7cbc 86b4 7abd 0cd6 17bd d24c 83bd
00000010: 0bbd 983d cc78 b4bc 3a79 923d 2f8a 023d
00000020: 87de 8abc 4545 213d a3ac 65bd fbe0 92bd
00000030: 12ca 77bc 76f3 e73c c140 99bd 277c 613d
00000040: 3b1f 753d 5b75 8cbd 06c0 033d 673b 843d
00000050: 4c22 273d b5d3 813c e87c 723d a2e2 39bd
00000060: a63a 4a3d a132 fa3c fe0b 8dbd af1d df3c
00000070: 0a30 98bd 7e6b a7bc afed 993b 5ee1 aabc
00000080: d457 86bb 5c3f 823d 2726 99bd 22cf 06bd
00000090: 5431 28bd 53d2 5ebc 0c12 30bd 54e3 b03c
000000a0: 699a 79bc 5db8 213c 689f 773d 0d75 e5bc
000000b0: 2374 853d 7581 343d 8b64 923d fdbc 933c
000000c0: 591b 123d 1f9e cf3c e2ff 31bd c0ef 8ebc
000000d0: c64f c63c 7bd2 96bd 9385 753d 3f85 613d
000000e0: 8b09 dabc d28c 103d 2018 e1bb bdf0 47bb
000000f0: 35f1 283d 47b3 45bd 1bbd 333b 94db 1abd
00000100: 38a5 cdbc 5a49 d6bc 63a4 36bb bef6 ba3a
00000110: 1f0b 55bd f8c4 9b3d b9ae 393d 46b6 253c
00000120: e305 8b3d d4d7 093c dd63 9bbd 169d 35bd
00000130: 62c2 983d 5939 86bd d00a 423d 7d6c 92bd
00000140: e28a 28bd 6833 00bd 28a8 74bd 1cfa 7d3d
00000150: 3e4c 6bbd 4773 4b3d 9e06 4a3d 1460 403d
00000160: 0bf5 d73b 49d7 263d 6633 84bd 0450 e73c
00000170: 5e67 b93c 1f8c a63c 3ba6 4f3d adf8 f3bb
00000180: cf38 7b3d b65b 7dbd 9068 a53c f260 003d
00000190: f410 bbbc 5c2a 953c be21 233c 3b90 91bd
000001a0: 212c 46bc 7416 c23b 70e4 0dbc 6de0 55bc
000001b0: aedf 7b3d 499f 883d c484 b53b 3f3a 953d
000001c0: 3871 9bbd c1d2 52bd b257 863d 2335 85bc
000001d0: 9fc9 7ebd 1da9 953d a0f1 403d 9e7d 1d3a
000001e0: 1461 e43b e8e1 6bbd 2a2e 86bc 81aa 4ebd
000001f0: 78d2 43bd bfc5 5038 da9d 693d 9baa 2e3c
00000200: 90aa 193b 2abb 513d 2157 92bd 78d8 20bb
00000210: d1ab 6fbd 47d9 863d 2d04 e53c 92be 9b3d
00000220: 27ba 6bbc ff1b 2abc 9642 6dbd ecd7 91bd
00000230: e1a8 263c 447f 93bb a6e7 a7bc 05f1 7c3c
00000240: 3555 82bc 3e01 353d 6097 8e3d d849 55bd
00000250: a2a1 17bd f803 2d3d 27e1 6cbd f7f4 863d
00000260: d828 5e3d 2cca 99bc b030 0bbd ade4 90ba
00000270: 147b 65bd 5bbd cebc 96ce 8439 a430 3dbd
00000280: d0a9 553d 54a6 853d 76f8 ee3c b836 44bc
00000290: 147a 40bc f2f3 143d 3efd a8bc 224e 563c
000002a0: 5114 60bc ff00 d13c d4c3 83bd 3e54 4abc
000002b0: 9eef 8a3b f476 0abd e897 01bd 227f 3c3d
000002c0: e1a2 dc3c 835c 3cbd 849c b8bc a9fb e7bb
000002d0: 5154 8d3d 4995 82bd fe0b a43c a7d2 723d
000002e0: 070b 9bbd c67a 46bd 7666 7dbd 76b6 4d3c
000002f0: 98c6 61bd 2c90 1abd e001 aebc 5984 d33c
00000300: 1a74 91bc 4c65 013d dd4c 05bd d9b7 74bd
00000310: 690d 623d dea9 7abd 645e 923c a72c e63c
00000320: 89f3 813c ef46 d3bc c5b1 393d 9947 8a3d
00000330: e157 8cbd 3285 da3c e32c 003d 2cc4 3fbd
00000340: ae51 46bd 335d 79bd f871 9bbc 3005 3dbc
00000350: 4466 913d 632c ae3c 0eff 9a3d addc 40bd
00000360: 5613 04bd f8be 68bc f333 f2bc 987e 223d
00000370: ca3e 5fbd 73a7 8dbc 6db1 9b3c 7651 793d
00000380: 062e 143d a962 86bd 38b7 013d 9cd9 e43c
00000390: f127 73bd e802 143d 1487 1cbc 6428 b03c
000003a0: 179b 003d c38f ce3b f2b3 34bd dd54 2dbc
000003b0: 437e 88bd 85ca 193d 5b74 5e3c e762 82b8
000003c0: ab6f 303d 0b91 80bd 7ae2 61bd ca39 143d
000003d0: 7612 983d 4d66 dfbc e046 9abd af1e 45bd
000003e0: c2df fabb 901f 86bc 5627 833d 9310 3ebd
000003f0: c04a 84bd 2eeb 64bc 0ebe afbc 769f 8f3c
-0.01541154 -0.061207317 -0.037069365 -0.06411137 0.07457932 -0.022030257 0.071520284 0.031870063
-0.016951812 0.0393727 -0.056072842 -0.07171818 -0.015123861 0.028314333 -0.07483054 0.05505004
0.059844237 -0.06858321 0.03216555 0.064566426 0.040804192 0.01584802 0.05920115 -0.04538215
0.049372338 0.03054172 -0.06887053 0.027235834 -0.07431038 -0.020436998 0.0046975235 -0.020859417
-0.0040998254 0.06359741 -0.0747798 -0.03291238 -0.041062668 -0.01359995 -0.04298596 0.021592773
-0.015234568 0.009870616 0.060454756 -0.028009916 0.06516292 0.044068772 0.07148083 0.018034453
0.035670612 0.025343953 -0.04345692 -0.017448306 0.02420796 -0.07364365 0.05994184 0.055058714
-0.026615879 0.035290547 -0.006869331 -0.0030508481 0.041245658 -0.048266675 0.0027425948 -0.037807062
-0.025103197 -0.026158024 -0.0027868978 0.0014264209 -0.05201256 0.07605928 0.045332644 0.010114258
0.06788232 0.008413274 -0.07587407 -0.044339262 0.074589506 -0.06553907 0.047373593 -0.07149599
-0.041148074 -0.031299025 -0.05973068 0.0620061 -0.057445757 0.049670484 0.049322717 0.046966627
0.0065904907 0.040732656 -0.06455116 0.028236397 0.022632297 0.020330487 0.05069564 -0.007445416
0.061333474 -0.06185504 0.02019146 0.031342454 -0.022835232 0.018208675 0.009956775 -0.07107588
-0.012095482 0.005923087 -0.008660421 -0.013053996 0.061492614 0.06671006 0.0055395085 0.072865
-0.07589954 -0.05147052 0.06559695 -0.01626069 -0.062204 0.073076464 0.04710543 0.0006007793
0.0069695804 -0.057588488 -0.016379435 -0.050455574 -0.04780814 4.977523e-05 0.057035305 0.010660793
0.002344761 0.051203884 -0.07145525 -0.0024543088 -0.058513466 0.06584411 0.027956093 0.07604708
-0.014387644 -0.010382651 -0.05792483 -0.07121262 0.0101721 -0.004501255 -0.0204962 0.015438323
-0.01590977 0.044190638 0.06962466 -0.052072376 -0.03701938 0.042240113 -0.05783191 0.06589692
0.05423817 -0.01877316 -0.03398198 -0.0011054479 -0.05602558 -0.025236776 0.0002533092 -0.046188965
0.0521639 0.06525865 0.02917121 -0.011975937 -0.011747856 0.036365457 -0.020628568 0.013080152
-0.013676719 0.02551317 -0.064338356 -0.012349186 0.0042399904 -0.03380485 -0.03163901 0.04601968
0.026933135 -0.045986664 -0.02253557 -0.007079561 0.06900848 -0.0637613 0.02002525 0.059282925
-0.07570463 -0.04845693 -0.061865292 0.012555709 -0.055121034 -0.03773515 -0.021241128 0.025819944
-0.017755557 0.031590745 -0.032544006 -0.059745643 0.05518857 -0.061197154 0.017867275 0.028097464
0.015863197 -0.02579066 0.04533555 0.067519374 -0.06852699 0.02667484 0.031292807 -0.046817943
-0.04841774 -0.060879897 -0.018975243 -0.011536881 0.07099584 0.0212614 0.07568179 -0.047085453
-0.032245003 -0.014205687 -0.029565787 0.03967151 -0.05450324 -0.01729176 0.019005502 0.060868703
0.036176704 -0.06561787 0.03166887 0.027935795 -0.059364263 0.036135584 -0.0095536895 0.021503635
0.031397905 0.006303759 -0.04411692 -0.010579315 -0.066647075 0.037546653 0.013577546 -6.217305e-05
0.043075245 -0.06277665 -0.055147626 0.036187924 0.07425396 -0.02727046 -0.075330496 -0.048124965
-0.0076560685 -0.016372472 0.06403987 -0.046402525 -0.0645957 -0.013972087 -0.02145293 0.017532092

fc3.bias f4 [84]
00000000: 3611 b53c eef3 523d 4079 813d 20d4 d13c
00000010: fb73 953b c924 2e3c adb7 34bd a345 333c
00000020: 4ca9 f238 b899 5c3c e1d7 3abc ccf3 a23c
00000030: 6704 9abc 8f52 b5bc 437a 82bc 2318 fb3c
00000040: 5e18 88bd 4b7a 5ebd 8319 863d 597b 673d
00000050: 69c4 f83c 7edb 1a3d 6ab8 c9bc 7a94 bb3c
00000060: 8a04 71bd d2ee 92bc cfe7 33bd 4caa 993d
00000070: 6d6e a73c 2db6 b2bb f5e6 b0bc e393 7b3d
00000080: a2c8 78bc 160c 8bbd c7ef 78bd c7f4 6dbd
00000090: f07e 76bc 717d 6c3d b20b 713d f7ef 813c
000000a0: 2fd1 0abc af3f 263c 5e47 96bd 5cab 803d
000000b0: b7e8 923d f8b1 803d 123f 4d3b 8fa0 003d
000000c0: b393 843d 5d04 1d3d 0c65 8dbd 84c3 eebc
000000d0: 0573 233c 2b34 123d bd26 91bc 5b2f 123d
000000e0: 087c 1e3d 9609 8ebb d497 14bc 5be7 d83c
000000f0: ffc8 fa3a e4f4 5b3d 6018 1a3d 7da2 713d
00000100: cd9b 14bc 41cd 0ebd 0e24 e2bc 7f67 f13c
00000110: ed52 1a3d 8fce 8a3c 756f 6ebd 5b25 9cbd
00000120: 20ef 82bd 7352 8d3c b902 523c 9397 de3c
00000130: 7e34 92bd c337 a03b 6fb2 9b3d 3490 57bc
00000140: 1440 4a3d 3c58 15bd a078 c63b 96e6 433d
0.022102933 0.05150216 0.06321955 0.025613844 0.004560945 0.010628887 -0.04412048 0.010941896
0.00011570993 0.013464384 -0.011404009 0.019891642 -0.018800927 -0.022134094 -0.01592744 0.030651158
-0.06645273 -0.054315846 0.06547835 0.056514118 0.030367093 0.03780698 -0.024624068 0.022897948
-0.05884222 -0.017936144 -0.04392224 0.07503185 0.020438397 -0.005453846 -0.021594504 0.061420333
-0.015184553 -0.067894146 -0.060775544 -0.058094766 -0.015044913 0.057736818 0.058849044 0.015861494
-0.008472725 0.010147019 -0.07337831 0.06282684 0.07173293 0.06283945 0.003131811 0.03140312
0.06473484 0.03833424 -0.06904039 -0.029145963 0.009976153 0.035694283 -0.017718667 0.035689693
0.038692504 -0.004334639 -0.009069402 0.026477506 0.0019133388 0.053700343 0.037620902 0.05899285
-0.009070349 -0.034863714 -0.027605083 0.029468296 0.03767674 0.016944198 -0.058211762 -0.076243125
-0.06393266 0.017251229 0.012818032 0.027171886 -0.07138918 0.00488946 0.07602393 -0.013156939
0.049377516 -0.0364611 0.00605686 0.047827326

fc4.weight f4 [42, 84]
00000000: c107 fa3c c7d3 b33d 10b9 553c 4005 5a3d
00000010: 5118 9fbd 96da 83bd 7e06 89bd f675 593d
00000020: 3a86 4abd 8c66 753d a797 65bd ec7b d1bb
00000030: c289 bb3d d724 803d dac1 dc3c 5b74 d8bd
00000040: d467 f03c 3b78 edbc 177f 9f3d 2076 b43d
00000050: f87f 91bc 2c32 09bb 00e6 51bd 0d06 5bbc
00000060: 4f40 823d 8bf4 173d b978 d93d 97be 28bd
00000070: c21d 373d f28b 99bc 8536 c2bc eee4 9bbd
00000080: e58c cd3d e46c b33d 8163 2bbd a3ac 2f3c
00000090: 7a65 923d 96e5 053d c369 92bd 52ff 92bd
000000a0: 29a3 6b3d 1e1a 81bd 60be d33d d00c a63d
000000b0: b1b3 dbbd d955 1f3d cd67 a63d 2029 dd3d
000000c0: 78a6 16bd ec29 84bc 8ab7 423d 785c 213d
000000d0: 30ff 46bd bc1c 8a3d a675 b0bd 26f8 debd
000000e0: 5341 e43c 5278 823d 1507 c3bc 912e ea3c
000000f0: 82a7 a6bd 8de6 c03d ca0a 94bd b6b0 dfbc
00000100: 2f3a 733d 9443 df3c bb57 233c 09a1 133d
00000110: e475 cb3d d3e1 db3d 8224 d6bd 14df 69bd
00000120: edf4 82bb 4bfb 25bd 5b26 543d 5a05 af3d
00000130: 0285 a6bd a93e adbd 2a67 3fbd 440f 883d
00000140: 2e8b 9d3d 137b 983d 872a c83d 1d3b d8bb
00000150: f41a bfbd 9837 a33d 954c cabd ca60 45bd
00000160: af4e a03d 4240 05bc c3b9 1bbd 3da0 d0bd
00000170: 1ae8 be3d 294e 68bc a7ff 80bd 75c0 2dbd
00000180: 55cd 3a3d 2ba1 a13b a74c 813c 04c6 adbd
00000190: 2cb3 f83c 9fcf 3bbc b1cd d33b a09b c43d
000001a0: 4b0c b8bd e890 a33d f51c bbbc 5d46 b9bd
000001b0: 2945 14bd e1fc a6bd 568d aabd 7ff4 113d
000001c0: 093e 9fbd 7eb3 2bbd 2cf0 75bd b55e f43c
000001d0: c050 9c3d 8777 fdbb 9303 d1bc 4192 0e3b
000001e0: 8289 84bd 3392 1b3d 7d63 acbd dbab 963d
000001f0: 8310 d9bd caf0 923d 53bc 50bb d181 0a3d
00000200: 152c 803d 370d 8e3d 0dea d83d eb48 d83c
00000210: e73a 903d a4a6 f3bc ed72 cfbd 4e7e 083c
00000220: 9af4 bd3c 6d3b d93d 65a1 273d e503 a5bd
00000230: e955 efbb c7e8 c63d cb5e b13d 8295 dbbd
00000240: d167 b73c 855a 8bbd 3074 c4bd 9f6d 09bd
00000250: 18a2 af3d 7b2e 743b 1186 d3bd b29a b0bd
00000260: 8c45 5d3c b6ea 6a3d e2ac 373c 03a3 cebd
00000270: 4bd8 cfbd d6cc ab3b 72b4 1b3d 14d4 e3bb
00000280: 5af2 71bd 783b ba3d 5119 7b3c 989a 8b3d
00000290: 5dfa f9bb d149 f23b a8ef 49bc 6c12 3dbc
000002a0: bc71 953d c8eb 93bd ba17 b63d f4a2 6bbd
000002b0: faff de3d 24ff c7bd b1c3 d03d 3fc4 a5bd
000002c0: 83d6 b23d 5bc1 d5bc 2e2f 243d 1a78 323d
000002d0: a226 a5bd ead0 db3d 5b92 1dbd d104 babd
000002e0: 299d a03d 9192 3ebd 5731 a73d 0206 da3d
000002f0: 9864 b8bd 3ad9 a4bd a4dd 6bbd 8172 ffbc
00000300: ff81 a13d 49cf e13c 5839 823d 2f91 a7bd
00000310: 2556 06bd bdb2 bc3d c0d7 73bd c1ef 943d
00000320: 68d0 b93d cd7b 6ebc 4191 8bbb 8989 a9bd
00000330: 14f2 dcbb 9fb4 76bd e807 643a 0471 a63d
00000340: 9cc7 c1bd 9111 c83c af88 043c dfeb a0bd
00000350: abf3 90bd aa90 2abd 42b6 bc3d ca56 c0bd
00000360: 8978 a63c a826 c73c a53f 573d 100f d13d
00000370: 9dd0 11bd 5775 e43c 7169 863c b8ed b83d
00000380: 9912 0dbd 3a49 9abd f363 be3c bbcc c13d
00000390: 5ced aabd 338e 823c d8d0 bc3d f84e 48bc
000003a0: 9e07 bdbd 83a2 053d 1633 273d 62d7 2e3c
000003b0: 8e88 bc3d 3cca c83c 2be3 ad3d e088 523d
000003c0: e60f 8d3d 8da1 02bd 9243 0abd 800f 5c3d
000003d0: 343a 533d 1b9f afbd ea20 993d a606 053c
000003e0: e338 1dbd 1d6f 98bd 7686 22bc e03c dcbd
000003f0: d117 593d d230 053c 7257 823d b388 aa3c
0.030521275 0.08780628 0.013044611 0.053227663 -0.0776831 -0.06438176 -0.066906914 0.053091012
-0.049444415 0.05991225 -0.05605283 -0.0063929465 0.091571346 0.06257027 0.026947904 -0.10569068
0.029346384 -0.028987994 0.07787912 0.08811593 -0.017761216 -0.0020934446 -0.051244736 -0.013368142
0.06359922 0.03709845 0.10618729 -0.041197386 0.044706114 -0.018743489 -0.023707638 -0.07612024
0.10036639 0.087610036 -0.04184294 0.010722312 0.07148261 0.032689653 -0.07149079 -0.07177605
0.05752865 -0.063038096 0.103390455 0.081079125 -0.10727633 0.03890023 0.08125267 0.107988596
-0.03677985 -0.016133271 0.047538318 0.039394826 -0.04858321 0.06743762 -0.0861619 -0.10887174
0.02786318 0.063706055 -0.023807088 0.028586658 -0.08137418 0.09418974 -0.0722862 -0.027305942
0.05938166 0.027253903 0.009969647 0.036042247 0.09934595 0.10736432 -0.10456182 -0.05709751
-0.0039964826 -0.040522855 0.05179439 0.085459426 -0.08130838 -0.08459217 -0.046729244 0.06643537
0.07692562 0.074453495 0.097737364 -0.0065988437 -0.09331313 0.07969588 -0.09877888 -0.04818801
0.07827508 -0.008132996 -0.038018953 -0.10186813 0.093216136 -0.014178791 -0.06298762 -0.04241987
0.045605976 0.004932543 0.015783621 -0.08485034 0.030358873 -0.011463075 0.0064637293 0.095999956
-0.0898672 0.07986623 -0.022840956 -0.09046624 -0.03619877 -0.081537016 -0.08327739 0.03563356
-0.07775504 -0.041919224 -0.0600435 0.029830316 0.07632589 -0.007735196 -0.0255144 0.0021754655
-0.0647154 0.037981223 -0.084174134 0.073569976 -0.105988525 0.07174833 -0.0031850531 0.03381521
0.06258408 0.06936114 0.10591517 0.026401957 0.07042485 -0.029742546 -0.10129342 0.008330895
0.023187924 0.10607038 0.040925402 -0.080573834 -0.0073039425 0.097123675 0.086606584 -0.10721876
0.02238837 -0.068043746 -0.095924735 -0.03355181 0.08575839 0.003725915 -0.103283055 -0.08623256
0.013505351 0.057352744 0.011210652 -0.10089686 -0.101486765 0.005242924 0.038013883 -0.006952772
-0.059069015 0.09093374 0.01532586 0.06816596 -0.0076287226 0.0073940535 -0.012325205 -0.011540037
0.07297084 -0.07222706 0.08891244 -0.05752845 0.108886674 -0.09765461 0.10193575 -0.080940716
0.08732321 -0.026093176 0.040084057 0.04357157 -0.08064009 0.107332066 -0.038469654 -0.0908295
0.07842476 -0.046526495 0.08163708 0.10645677 -0.09003562 -0.08049245 -0.05758442 -0.03118253
0.07886123 0.027564662 0.06358594 -0.081819884 -0.032796998 0.09213779 -0.059531927 0.07272292
0.090729535 -0.014555884 -0.004259259 -0.08278186 -0.006742725 -0.060230847 0.0008698688 0.08127025
-0.094619006 0.024422439 0.0080892285 -0.07857489 -0.07077726 -0.04164187 0.092144504 -0.09391554
0.020321148 0.024310425 0.05255093 0.10207951 -0.03559934 0.027887983 0.0164077 0.09029716
-0.034441564 -0.07533498 0.023241019 0.09462877 -0.08346054 0.015936946 0.09219521 -0.012225859
-0.092299685 0.032625686 0.040820204 0.010671468 0.09205733 0.024510495 0.084905945 0.051400065
0.06887798 -0.031892348 -0.033755846 0.05372572 0.05156918 -0.08575269 0.07476981 0.008119261
-0.03838433 -0.07443068 -0.009919753 -0.107537985 0.05300123 0.008129315 0.06364335 0.020817136

fc4.bias f4 [42]
00000000: 590f c93d f9fb 563c 2eb4 993a 234a 4dbd
00000010: 8089 9ebd 0d6f 9b3b 128d aebd 1d43 113d
00000020: 5f46 edbc d41e a8bd 7c87 6cbc c724 873d
00000030: 9ea8 a7bd a1f8 1ebd f990 76bd f3d5 5a3d
00000040: f79b b93d ab8e abbc 9674 ea3c 4f55 2f3d
00000050: 45ba cb3c 7e88 b4bd 4624 d73d 4e10 99bd
00000060: 1fed 6f3d b6d6 90bb 13bc cbbd 15c5 5d3d
00000070: 5f2b 94bd 2514 bdbd ef21 143d 9c57 dbbc
00000080: e938 ccbd fb99 aebc 284d a93d 2739 3dbd
00000090: 5d78 98bd af54 8d3d 139b b1bd 64f5 863d
000000a0: d4fc 953d c261 0d3d
0.098173805 0.013121598 0.0011726671 -0.05011953 -0.0774107 0.004743463 -0.08523001 0.035464395
-0.02896422 -0.08209005 -0.014436599 0.065988116 -0.08186458 -0.03881133 -0.06019685 0.053426694
0.09062951 -0.020942053 0.028620046 0.042805966 0.024869094 -0.08815096 0.105049655 -0.07473813
0.058575746 -0.004420127 -0.09947982 0.05414303 -0.07234835 -0.09232358 0.036165174 -0.026775174
-0.09971792 -0.021313658 0.082666695 -0.046197083 -0.074448325 0.06900918 -0.08672156 0.06589773
0.07323614 0.034517057

fc5.weight f4 [42, 42]
00000000: 7552 cc3d 72d1 c5bd 07c3 183c 8d4c 73bb
00000010: ec04 643d ddcc 153e c940 34bd 62e5 f63d
00000020: a101 0abe eb08 abbd e3ed 02be dffe 8c3d
00000030: 31fa 18ba fe10 d6bb e5e8 a83c 8359 083e
00000040: 1a15 8ebd 3b4f c83d 5916 843d 0bae e93d
00000050: 957d 8fbd 1744 6b3d 3167 05be e79f c7bd
00000060: 050b 133e b34d 8fbd a0e2 163d 0542 463d
00000070: 2462 103e c396 2abd d716 d4bd a8c6 16bd
00000080: 4a76 d9bd 624c a5bc dbb5 f83d 6360 913c
00000090: 3de1 ec3d f36a 68bd db79 cabd cc36 093e
000000a0: d63f ec3d 7528 00be 98ca cabb 1f6e aabd
000000b0: c438 003e 3e12 bdbd a2ed d9bd f48b 14be
000000c0: a9a8 213d 87db 05be f97a 38bd 5a7c 9d3d
000000d0: 1e23 fe3d 0103 c0bd 0d57 d13d f97e 0cbe
000000e0: f206 76bd 4334 533d 2db3 0cbe 737c 25bd
000000f0: abd4 4d3c c14f d5bd 69ad 8b3d 6b18 71bd
00000100: 3c0e 013e 0a2e f0bd c5c7 9cbc 5241 d4bd
00000110: 60ef b7bd c144 b13d 2cce 25bd 7f69 053e
00000120: d750 8a3c 6e6c 4a3d 082c e13b fb25 eebd
00000130: 8eb5 b4bd c99d 12be b102 c3bb 6764 fb3d
00000140: b372 00be 3ccf 00be 7a21 9e3d 55f7 f63c
00000150: 7130 0e3e b5a6 8c3d 511b 813d 6519 c2bd
00000160: db73 d4bd bbb4 11be 447d 843c df90 dfbd
00000170: 0bc9 923d 14ab 05be 06d8 053e c9ad 8cbd
00000180: 95cf 2c3d f0a0 b13d 340d ddbd a1f6 e43d
00000190: 43f6 823c c123 92bd 85ef 78bc 8213 1abd
000001a0: 9a3f b2bd bf62 1d3e 72d9 633d 4546 95bc
000001b0: cf1d f2ba b7d1 8fbd aa7d fd3c 878a 8dbd
000001c0: f139 033d 0490 ddbd 361b a5bd c80f edbc
000001d0: d6aa ffbd 9c99 083e 8abc e63d bd3e 2d3d
000001e0: bdcb ddbc 6a2f c9bc faf1 cb3d a909 d9bd
000001f0: 4ec0 db3c 1810 45bc fdc0 0d3e 5f55 8c3b
00000200: 050d 5fbd 1e28 bdbd 4183 cdbd d055 5d3c
00000210: 6e87 213d b5c0 d53d e5c2 053e fa2a e5bd
00000220: 2807 c43c 5d92 05be d7be 7bbd 32ad aa3d
00000230: 208d f33c 5750 72bd 3fb0 9dbd b637 06bd
00000240: a46d 983d c27c 94bd 18b3 083e 392d 28bd
00000250: a232 303d b053 143e 84df 7bbc 600b 923d
00000260: 6d45 003e 3324 e93d d9c8 ed3d 01d9 b53d
00000270: b5ab 1abc 2637 183e fbd3 e93d 0051 9e3d
00000280: 6fda ab3d 14a2 1e3d 0659 a8bd b222 093d
00000290: b3a4 e6bd 26e2 f33d 8cf3 3d3c 6e47 10be
000002a0: 93c0 f6bd 0203 903c dd43 45bc 3167 7f3d
000002b0: 36da 123e a0a0 043e 635f c33c 542e fa3d
000002c0: 1c81 913d a360 f33d f3e8 bc3d d999 79bd
000002d0: 89fe 04be 7278 dbbd 7be9 0a3e f102 8e3d
000002e0: 079c 15be d920 c2bd b919 02bd 1987 9cbd
000002f0: 400d e83d 7b24 b53c a6a9 313d 233a 37bd
00000300: 709a f9bd 6eae bc3d 0b78 af3d cd2c 7ebb
00000310: 86a0 debc 3114 cebd 6ed4 dc3c d0b3 01be
00000320: c8b7 bf3d a4eb dd3d 601b 013e 1f58 173e
00000330: c7b4 11be e87f f9bd 5a4c cc3c 611b 28bd
00000340: d72f e93d a95b c93c b396 1e3d a73d b3bb
00000350: 940b d03d e781 15be f682 483d f1c3 b7bd
00000360: 0286 b6bd 0c8c 243c 70ba 11be bd59 dc3d
00000370: a213 56bd e1b4 903d 8a4f 04be 0255 bebd
00000380: b33e 753d 987d dc3d 793d 83bc b594 b53d
00000390: ab7a 363d fb7b 103d 9fd9 0b3d 911f 1a3e
000003a0: 157f dabc 146f ce3d 40d2 1bbe 02d4 1c3e
000003b0: c06c 0a3d eea2 0dbe 40c8 163e 343d b93c
000003c0: 1cd5 aa3d 2c73 8b3d cba5 063e 49d2 72bd
000003d0: d2f9 52bd 0bdd b6bd f5c3 003e 40a2 8fbd
000003e0: 501d 0dbe 209d fbbc 2498 063e ef40 84bc
000003f0: fbbb 84bd 3d64 993d c274 1abd 6ea7 e5bb
0.09976665 -0.09659089 0.009323842 -0.0037124485 0.055668756 0.1462893 -0.044007096 0.1205547
-0.13477184 -0.0835131 -0.12786059 0.0688455 -0.0005835621 -0.0065327873 0.020618865 0.13315396
-0.069376186 0.09780737 0.06449575 0.11410149 -0.07006375 0.057437982 -0.13027646 -0.09747296
0.14359672 -0.06997242 0.03683722 0.048402805 0.14099938 -0.041647684 -0.10355919 -0.036810547
-0.10618265 -0.020178024 0.12144061 0.017746156 0.11566398 -0.05674262 -0.09886523 0.1339981
0.11535613 -0.12515433 -0.006188702 -0.08321785 0.12521654 -0.09231995 -0.10641028 -0.14506513
0.039467487 -0.13072024 -0.04503915 0.07689734 0.12409042 -0.09375573 0.10221682 -0.13720311
-0.060065217 0.051563513 -0.13740225 -0.040401887 0.012562911 -0.104156025 0.06820185 -0.058861177
0.12603086 -0.11727531 -0.019138226 -0.10364021 -0.08981204 0.08655692 -0.040479824 0.13028525
0.01688425 0.049419813 0.006871704 -0.11628338 -0.08823691 -0.14318003 -0.0059512486 0.122750096
-0.12543754 -0.12579054 0.07721229 0.030147234 0.13885666 0.06867734 0.06304038 -0.094775
-0.1037366 -0.142291 0.016173013 -0.10916304 0.07167252 -0.13053542 0.13070688 -0.068690844
0.042190153 0.086732745 -0.10793534 0.11179853 0.015986567 -0.07135726 -0.015193825 -0.03761626
-0.08703537 0.153697 0.055627294 -0.018221984 -0.0018472018 -0.07022422 0.03094371 -0.069111876
0.03203768 -0.108184844 -0.08061831 -0.02893819 -0.12483756 0.13339847 0.1126643 0.04229616
-0.027074689 -0.024558742 0.09958263 -0.10597546 0.026825096 -0.012027763 0.1384315 0.004282638
-0.054455776 -0.09236167 -0.100348 0.013509229 0.039435796 0.104371466 0.13062628 -0.11189838
0.023929194 -0.13044114 -0.061461296 0.08333816 0.02973038 -0.05915865 -0.07699632 -0.032767974
0.07442787 -0.07250358 0.13349569 -0.041058753 0.043017037 0.14485049 -0.0153731145 0.07131076
0.12526484 0.113838576 0.11610574 0.08879281 -0.009440352 0.14864787 0.11417385 0.07730293
0.08391272 0.03872879 -0.08220105 0.033480354 -0.11261883 0.11908369 0.011593711 -0.14089748
-0.12048449 0.01757956 -0.012040106 0.06235427 0.14341053 0.12951899 0.023849195 0.12215868
0.07104704 0.11883666 0.09224119 -0.060937736 -0.12987722 -0.107163325 0.13565628 0.06934155
-0.14610301 -0.094789214 -0.031762812 -0.07642955 0.11330652 0.022112122 0.04337468 -0.044733178
-0.1218766 0.09212957 0.08567818 -0.0038784028 -0.027176153 -0.10062445 0.026956763 -0.1266625
0.09361225 0.108359605 0.12608099 0.1477971 -0.14229117 -0.12182599 0.024938751 -0.041041736
0.11386078 0.02457984 0.038717937 -0.005469996 0.10158458 -0.14600335 0.04895302 -0.0897292
-0.08912279 0.010043155 -0.14231277 0.10759304 -0.052264817 0.0706575 -0.12920967 -0.09293558
0.059874248 0.107661426 -0.016020523 0.08866254 0.04455058 0.035274487 0.034143087 0.15051104
-0.026671926 0.1007978 -0.15216923 0.1531525 0.03379512 -0.13831684 0.14724827 0.022612192
0.08341429 0.06809077 0.13149182 -0.059282575 -0.05150778 -0.08928879 0.12574752 -0.070133686
-0.13780713 -0.030714571 0.13143975 -0.016144244 -0.06481167 0.07489822 -0.037709005 -0.0070084846

fc5.bias f4 [42]
00000000: 961e 633d 11a4 c93d efde bebd 3c90 d63d
00000010: 8cc5 f1bb 934c 5dbd 6529 da3d a7d2 2abc
00000020: 23b2 c0bd 9fee b1bc d347 fdbd 3309 e6bd
00000030: 31c0 bebc e0ca 3ebc 010b f03a bba6 acbc
00000040: b7b6 b2bc 7fca 43bd 38f1 1cbe f5f1 0fbc
00000050: dba0 36bd 11c5 debd 31c5 f6bd 522e babd
00000060: 34a5 aebd db82 573c 1206 c7bd a9a1 073e
00000070: be3d b9ba e6aa 723d 84a2 1b3e dc19 13be
00000080: d13f efbd c52b 0fbe 4c8b 0f3e 1c4c 103d
00000090: 4b97 fbbd eafe 94bd 58a2 803c 25d7 08be
000000a0: c740 1cbe bd87 79bc
0.05544909 0.09845746 -0.09319865 0.10476729 -0.0073782858 -0.054028105 0.10652427 -0.0104262
-0.09408977 -0.021720229 -0.12367215 -0.11232223 -0.023285003 -0.011645049 0.0018313826 -0.021075597
-0.02181564 -0.047800537 -0.15326393 -0.008785714 -0.044586997 -0.10877431 -0.1204933 -0.09090866
-0.08527604 0.013153757 -0.09717955 0.13245262 -0.001413278 0.059245013 0.15198714 -0.14365333
-0.11682094 -0.1398154 0.14017981 0.035228834 -0.12284716 -0.072751835 0.015702412 -0.13363321
-0.15259086 -0.015230116
