models/DQN/3/dqn_agent_target_weights.pth (torch, 49906 bytes, 6 tensors)

fc1.weight f4 [84, 42]
0.11289596 -0.020537432 -0.06976973 0.12239333 -0.00033832807 0.13446078 -0.13024727 -0.021275176
0.13963981 -0.08499621 -0.15245987 -0.056827288 0.070701614 0.08374112 -0.017301215 -0.1333047
0.028256696 -0.025654605 -0.091246955 -0.060686305 -0.038844693 0.08433704 0.052940242 -0.034280658
-0.03906375 -0.12411435 0.14295915 0.023257963 -0.117272556 -0.14660984 -0.06182753 -0.09542204
-0.057560343 -0.027622309 -0.08042259 -0.06833383 -0.081344076 0.013741054 -0.09791893 0.10706209
0.025899839 -0.014402645 -0.05549158 -0.07397688 -0.122562066 0.100799434 -0.10741928 0.070936106
0.012170944 -0.14175028 0.05453143 0.11833599 0.067567594 0.13538809 0.08584945 0.15008956
-0.0870504 -0.110937044 -0.11000557 0.10358648 -0.040879644 0.14403838 -0.08985553 0.032568175
0.066193976 0.071870334 0.151732 0.10832103 -0.10612307 -0.023061879 0.0023469774 -0.025354482
0.0048061423 0.006929205 0.14476608 -0.055746216 0.11529964 -0.049429413 0.05922393 0.029683253
-0.07183051 -0.12141091 -0.060159527 0.09411902 -0.09914102 0.06720438 0.07428293 0.1443601
0.1147448 -0.04613345 0.119863205 -0.08655855 0.13447443 0.12428862 0.022500979 0.020500477
0.00560891 0.14752355 0.018929265 -0.12765212 -0.08454716 0.07366739 -0.051128633 -0.106432974
-0.1289212 -0.121808946 0.09259077 0.049636923 0.015070159 -0.09757249 0.04430352 -0.021761598
0.10327972 0.1486283 -0.12980226 -0.019824209 0.06105609 -0.09186158 -0.041305456 0.14164948
0.046238743 -0.11743776 -0.08724994 0.0042412137 0.10303728 0.07543186 0.13764046 -0.1318742
0.089062124 -0.067906454 0.0070230165 0.14472531 -0.015035909 -0.14227307 0.14566328 -0.014044856
0.032766007 -0.092613235 0.15308644 0.09744448 -0.004428542 0.11991476 0.06903511 0.004297611
-0.14111671 -0.101902455 -0.04138437 0.12407125 -0.089943215 -0.043291885 -0.093764775 0.046872336
-0.12849855 0.14229515 -0.012230082 0.002496156 -0.020402582 0.03782088 -0.11808835 -0.08744445
0.1161892 0.023798702 0.02851302 0.014746712 0.073794186 0.052972283 0.14499421 -0.03265568
-0.007458191 0.05026746 -0.06834864 0.051072218 -0.042818725 -0.13616638 -0.09803873 0.013662638
-0.11105814 -0.14928277 0.038812317 0.11951415 -0.044677243 0.06153265 0.016735183 0.10993571
-0.12879325 0.08961583 0.047165286 0.0588389 0.030149184 0.09068655 -0.10390088 0.12838411
-0.050832853 0.09393561 -0.11781644 -0.10086077 0.003731836 0.12000395 0.013651767 -0.13157575
-0.15247153 0.15186308 0.13849704 0.05422829 -0.112770915 2.909993e-05 -0.137023 0.0059796125
-0.030903483 0.14685953 -0.11884739 0.15052196 -0.07433037 -0.092394374 -0.0054825596 0.016565641
0.050158035 -0.1313119 0.14798814 0.07978384 0.13101798 -0.1300409 -0.052878693 -0.07059779
0.14438929 0.12852636 -0.13764252 0.040128898 0.12459373 0.04550677 0.10043326 0.098251045
0.023086619 -0.08960733 -0.053003702 0.011624981 -0.12116159 -0.12263583 -0.0028438652 -0.06500342
0.10461593 -0.053201754 -0.10855392 -0.0011832194 -0.07900287 -0.12798737 0.09054548 -0.10384463
-0.14680797 -0.028224265 0.14625177 0.14872397 0.023364136 0.12354637 -0.12663904 0.0024052693
00000000: ff35 e73d 1e3e a8bc 6fe3 8ebd 5ba9 fa3d
00000010: a061 b1b9 16b0 093e 8a5f 05be 4749 aebc
00000020: bdfd 0e3e 7e12 aebd 711e 1cbe bbc3 68bd
00000030: 02cc 903d 7780 ab3d 47bb 8dbc 0781 08be
00000040: 967a e73c 9b29 d2bc afdf babd 3492 78bd
00000050: 9d1b 1fbd e6b8 ac3d ded7 583d e069 0cbd
00000060: 5001 20bd aa2f febd e263 123e 7c87 be3c
00000070: 982c f0bd e420 16be dd3e 7dbd a16c c3bd
00000080: 65c4 6bbd 2e48 e2bc 99b4 a4bd 9bf2 8bbd
00000090: b997 a6bd 2822 613c b889 c8bd 5e43 db3d
000000a0: e62b d43c 12f9 6bbc 244b 63bd 3181 97bd
000000b0: d201 fbbd ef6f ce3d a4fe dbbd f346 913d
000000c0: a468 473c fc26 11be 595c 5f3d 245a f23d
000000d0: e160 8a3d 2da3 0a3e d6d1 af3d 14b1 193e
000000e0: 7b47 b2bd f632 e3bd 9a4a e1bd 2625 d43d
000000f0: 6a71 27bd cc7e 133e 2d06 b8bd 3566 053d
00000100: b590 873d c130 933d a25f 1b3e 6bd7 dd3d
00000110: 0d57 d9bd 44ec bcbc bfcf 193b 34b4 cfbc
00000120: d87c 9d3b 620e e33b 8f3d 143e 2556 64bd
00000130: 3822 ec3d 7f76 4abd cb94 723d 4b2a f33c
00000140: e01b 93bd 48a6 f8bd d669 76bd 79c1 c03d
00000150: 720a cbbd 73a2 893d a621 983d 22d3 133e
00000160: 52ff ea3d 6ef6 3cbd d77a f53d 9c45 b1bd
00000170: aab3 093e 088b fe3d f953 b83c 9ef0 a73c
00000180: f3ca b73b 6a10 173e 8c11 9b3c 3db7 02be
00000190: 1027 adbd eede 963d 426c 51bd 88f9 d9bd
000001a0: eb03 04be f876 f9bd 3ba0 bd3d 1650 4b3d
000001b0: d4e8 763c 16d4 c7bd 9c77 353d 6145 b2bc
000001c0: 5184 d33d 0432 183e e2ea 04be 6166 a2bc
000001d0: f315 7a3d ed21 bcbd e92f 29bd 900c 113e
000001e0: d664 3d3d 3583 f0bd 19b0 b2bd e1f9 8a3b
000001f0: 3605 d33d 057c 9a3d 9ff1 0c3e 080a 07be
00000200: 3466 b63d 8a12 8bbd 5521 e63b df32 143e
00000210: 2c59 76bc 08b0 11be c128 153e 651c 66bc
00000220: a635 063d 02ac bdbd b1c2 1c3e f990 c73d
00000230: 4e1d 91bb df95 f53d 4862 8d3d f9d2 8c3b
00000240: e680 10be 3cb2 d0bd a882 29bd 1119 fe3d
00000250: 2634 b8bd d552 31bd bf07 c0bd 35fd 3f3d
00000260: 2095 03be d2b5 113e af60 48bc 8c96 233b
00000270: 5123 a7bc 11ea 1a3d 4ed8 f1bd 1316 b3bd
00000280: 9af4 ed3d 7ff5 c23c 2394 e93c 319c 713c
00000290: 6821 973d 77f9 583d 5d79 143e f6c1 05bd
000002a0: d763 f4bb 41e5 4d3d 5ffa 8bbd 1a31 513d
000002b0: b062 2fbd 336f 0bbe 88c8 c8bd 42d9 5f3c
000002c0: 7372 e3bd 95dd 18be aaf9 1e3d d6c3 f43d
000002d0: 7cff 36bd a909 7c3d 3918 893c f925 e13d
000002e0: 61e2 03be 8188 b73d 6330 413d 0f01 713d
000002f0: 6cfb f63c dfb9 b93d fcc9 d4bd 2077 033e
00000300: 1c36 50bd 5061 c03d bf49 f1bd 1790 cebd
00000310: d291 743b a2c4 f53d a9ab 5f3c cbbb 06be
00000320: 7f21 1cbe ff81 1b3e 2bd2 0d3e 7c1e 5e3d
00000330: 70f4 e6bd a01b f437 c24f 0cbe a0f0 c33b
00000340: 4d29 fdbc 5862 163e 4366 f3bd 6e22 1a3e
00000350: 853a 98bd 4339 bdbd 0ba7 b3bb abb4 873c
00000360: 8372 4d3d a076 06be 348a 173e b665 a33d
00000370: 9429 063e 7129 05be 5497 58bd 9395 90bd
00000380: c9da 133e 6a9c 033e 29f2 0cbe 335e 243d
00000390: ff2a ff3d 4f65 3a3d f4af cd3d d837 c93d
000003a0: 2620 bd3c 0c84 b7bd 691a 59bd b476 3e3c
000003b0: 9123 f8bd 7e28 fbbd 2460 3abb 8320 85bd
000003c0: e040 d63d 15ea 59bd 8551 debd 4116 9bba
000003d0: 42cc a1bd 1f0f 03be e96f b93d 7eac d4bd
000003e0: d454 16be 9336 e7bc 06c3 153e 194b 183e
000003f0: 2566 bf3c e105 fd3d aaad 01be b9a1 1d3b

fc1.bias f4 [84]
-0.10235266 -0.05776511 0.095830284 0.079504415 0.07438502 -0.044151053 0.14940712 -0.1427997
-0.008720083 -0.028088441 0.073774435 0.11838229 0.11471067 -0.13790622 0.15395771 -0.006871391
-0.11243788 0.11948275 0.02112092 -0.06321995 0.03628057 -0.1294219 -0.103725746 0.029426156
-0.10629673 -0.060987733 0.08626036 -0.049619466 0.102529176 -0.1360192 -0.080212615 -0.15094548
0.012894139 0.025925923 0.016340844 -0.12342522 -0.12650448 -0.14626767 0.016226394 -0.10088594
-0.14434992 -0.054562353 -0.046370592 -0.045427255 -0.063128605 0.10910033 0.015969351 -0.0088187875
0.08297731 0.03439406 -0.031910263 0.0033390974 -0.05026448 -0.08301355 0.027325552 0.1234119
0.0148582 -0.03609 0.15389681 -0.12043523 -0.01308143 0.120253 -0.106518656 0.010460965
0.14986503 -0.065204866 0.06823825 -0.0006040351 -0.024672914 -0.07758987 -0.0721157 0.052436493
0.0070916456 0.13876814 0.04286063 -0.08113155 0.13686785 -0.09755774 -0.10103849 0.058377862
0.118860856 0.058261316 -0.058851685 0.13894606
00000000: 459e d1bd 1c9b 6cbd ab42 c43d 36d3 a23d
00000010: 2c57 983d bcd7 34bd 2efe 183e 163a 12be
00000020: aede 0ebc bb19 e6bc 0d17 973d 6a72 f23d
00000030: 6eed ea3d 4a37 0dbe 17a7 1d3e 6829 e1bb
00000040: d545 e6bd 5fb3 f43d c805 ad3c 7679 81bd
00000050: ef9a 143d 2d87 04be 2a6e d4bd 1f0f f13c
00000060: 1ab2 d9bd 46ce 79bd 46a9 b03d c83d 4bbd
00000070: d1fa d13d 9e48 0bbe 8346 a4bd 7491 1abe
00000080: f041 533c 9a62 d43c 3cdd 853c 5dc6 fcbd
00000090: 648a 01be 31c7 15be 37ed 843c 4a9d cebd
000000a0: 77d0 13be c67c 5fbd 17ef 3dbd ee11 3abd
000000b0: 9249 81bd fe6f df3d 28d2 823c ad7c 10bc
000000c0: 02f0 a93d c9e0 0c3d 56b4 02bd c2d4 5a3b
000000d0: 21e2 4dbd 0203 aabd d6d9 df3c 61bf fc3d
000000e0: cf6f 733c 1cd3 13bd 2097 1d3e bfa6 f6bd
000000f0: 7f53 56bc 3447 f63d 7426 dabd 7864 2b3c
00000100: 3876 193e 218a 85bd 7fc0 8b3d 1c58 1eba
00000110: da1e cabc 70e7 9ebd 65b1 93bd a6c7 563d
00000120: 0961 e83b 3c19 0e3e a18e 2f3d 4c28 a6bd
00000130: 1627 0c3e 5acc c7bd 45ed cebd a01d 6f3d
00000140: 526d f33d 6ba3 6e3d 770e 71bd e047 0e3e

fc2.weight f4 [64, 84]
0.0035961592 -0.08979541 -0.076234415 0.070507236 -0.031061644 -0.051011264 0.020835724 0.08087259
0.0061680847 -0.10187534 -0.10567186 0.09417065 0.05451592 -0.010693358 -0.0639495 0.086610906
0.0238719 0.074248105 0.020776477 0.07844347 0.015464721 -0.046759576 -0.1018313 0.10248055
-0.10728604 -0.083690085 -0.09140499 -0.077569164 0.045676593 -0.08494993 0.004835564 0.05428245
0.011171398 -0.074413374 -0.03152946 -0.057443935 0.08923436 -0.05040048 0.04277929 0.08670342
-0.013843879 0.099476136 -0.046344567 0.08970463 -0.058491513 -0.024125883 0.00629879 -0.04185561
0.08930252 0.07126534 -0.026936667 0.1077834 0.04784766 -0.013838246 0.06364682 0.042229947
-0.07333867 -0.021190003 -0.09842243 -0.03245687 0.1057479 0.085223466 0.081826195 -0.053036813
0.023183528 -0.08115659 0.05151598 0.08964501 -0.07873037 0.050821703 0.05357159 -0.10113215
-0.062093463 0.008582784 0.063399956 0.03583039 0.039067656 0.014879103 0.07748599 0.08460973
-0.06087652 0.029238116 0.060100313 -0.014074204 -0.008168921 -0.10830999 0.031904366 0.051362682
0.05568894 -0.06453234 0.038398832 0.057572376 0.080157876 0.025022548 -0.058702614 0.07702313
0.016635476 0.041137997 -0.07894008 0.09974194 0.0770187 0.061195407 -0.060697168 0.026884133
0.057384934 0.05635533 -0.098922424 -0.008518791 0.0035563584 0.045254286 0.055611875 -0.008541565
-0.054944325 -0.10031777 -0.09575338 0.08578107 0.08226617 0.0798629 0.09441391 0.048058163
0.015436952 0.015576632 -0.09519712 0.061052438 0.056231674 -0.047780376 0.06919265 0.040968467
-0.068941176 0.020667817 0.0568814 -0.08599938 -0.07694616 0.05488421 0.06636508 0.05930107
-0.076147534 -0.009284384 -0.059663583 -0.04250431 0.05012368 0.0054734824 0.08337984 0.03191005
0.07337603 0.04743562 0.0069732317 -0.1052594 0.034860086 0.06425504 -0.005795024 0.08814204
-0.054135367 -0.061443303 -0.027365332 0.060309708 -0.030110352 0.10648935 -0.04380183 -0.05876826
-0.059565876 0.106117554 0.08438341 0.09826099 0.102403186 -0.08280151 0.08238568 -0.06323589
-0.09067765 -0.044912156 0.05589869 -0.07230648 0.039887432 0.099488445 -0.070412636 0.0649735
0.006673698 -0.09345493 0.030065713 0.06136002 -0.072327 0.06729703 0.030044135 0.08393833
0.0823091 -0.10262588 -0.046995156 0.024670271 0.095148176 0.044961583 0.09604025 -0.048663538
0.013967249 -0.07397928 -0.023913419 -0.044018704 0.09161446 0.020921152 0.032968104 0.10877627
-0.06730431 -0.0020221542 0.08140453 0.10545623 -0.06126096 0.06212928 -0.10104016 0.04737161
-0.055245683 0.07686284 -0.00720937 0.10076778 -0.016369214 0.05244044 0.06393672 -0.027957363
-0.027649296 -0.0150099 -0.051068377 0.044222496 0.08489636 -0.10862299 0.048053533 -0.00945701
0.04885549 -0.101651914 0.01826757 0.010662663 0.034957673 -0.07310831 -0.060790636 -0.046493847
0.01257206 0.027810892 -0.083280735 0.016529875 -0.08066538 0.053969674 -0.10025908 -0.06728471
0.036562517 -0.03381413 -0.012143448 0.034502566 0.0624762 0.018736687 0.045193896 -0.007927358
0.06659947 0.09992363 -0.10744349 0.08563806 0.0054190103 0.057789434 0.06979947 0.08409928
00000000: 8aad 6b3b a8e6 b7bd ca20 9cbd 1966 903d
00000010: fd74 febc 30f1 50bd aeaf aa3c 87a0 a53d
00000020: a51d ca3b 05a4 d0bd 7d6a d8bd 8bdc c03d
00000030: 164c 5f3d 3233 2fbc f5f7 82bd 0f61 b13d
00000040: 018f c33c 640f 983d 6e33 aa3c f8a6 a03d
00000050: be5f 7d3c f886 3fbd ee8c d0bd 53e1 d13d
00000060: c9b8 dbbd b565 abbd 8a32 bbbd 95dc 9ebd
00000070: 6117 3b3d 3bfa adbd a773 9e3b 4657 5e3d
00000080: 3d08 373c 0a66 98bd 0925 01bd 554a 6bbd
00000090: 81c0 b63d bc70 4ebd 5639 2f3d 9091 b13d
000000a0: 70d1 62bc 25ba cb3d cdd3 3dbd 10b7 b73d
000000b0: cc94 6fbd a5a3 c5bc 1566 ce3b ca70 2bbd
000000c0: 3de4 b63d 90f3 913d 49aa dcbc 8bbd dc3d
000000d0: e8fb 433d d0b9 62bc 4459 823d 4ff9 2c3d
000000e0: 9632 96bd a896 adbc b391 c9bd 7ff1 04bd
000000f0: 5b92 d83d a489 ae3d 7e94 a73d 213d 59bd
00000100: 62eb bd3c 6d35 a6bd 6c02 533d ce97 b73d
00000110: 633d a1bd 6b2a 503d e26d 5b3d 5f1e cfbd
00000120: b755 7ebd ce9e 0c3c d6d7 813d e3c2 123d
00000130: 6805 203d 7bc7 733c fab0 9e3d de47 ad3d
00000140: a859 79bd c684 ef3c bf2b 763d 7d97 66bc
00000150: f0d6 05bc a1d1 ddbd 27ae 023d ad61 523d
00000160: 161a 643d 8829 84bd 1848 1d3d 03d1 6b3d
00000170: d029 a43d 16fc cc3c 2772 70bd 4ebe 9d3d
00000180: 1f47 883c 5180 283d 56ab a1bd 8145 cc3d
00000190: fbbb 9d3d 09a8 7a3d 989d 78bd 1d3c dc3c
000001a0: 770c 6b3d d9d4 663d d797 cabd 6692 0bbc
000001b0: cb11 693b 8f5c 393d 47c9 633d ecf1 0bbc
000001c0: 4d0d 61bd 6773 cdbd 591a c4bd fcad af3d
000001d0: 2a7b a83d 298f a33d 145c c13d a3d8 443d
000001e0: 45eb 7c3c 2135 7f3c b5f6 c2bd 1f12 7a3d
000001f0: 2f53 663d 5bb5 43bd e0b4 8d3d 8dce 273d
00000200: 0831 8dbd 8e4f a93c 79fc 683d 7120 b0bd
00000210: f395 9dbd 44ce 603d 6aea 873d aee5 723d
00000220: 3df3 9bbd 871d 18bc cd61 74bd 0019 2ebd
00000230: 7d4e 4d3d e65a b33b 0dc3 aa3d 1db4 023d
00000240: 2c46 963d da4b 423d b57f e43b 3e92 d7bd
00000250: 73c9 0e3d 2598 833d 2fe4 bdbb d083 b43d
00000260: 0cbd 5dbd f9ab 7bbd 432d e0bc 5007 773d
00000270: fca9 f6bc 1717 da3d 8c69 33bd fdb6 70bd
00000280: 59fb 73bd 2954 d93d 36d1 ac3d 0f3d c93d
00000290: c3b8 d13d d793 a9bd d3b9 a83d d181 81bd
000002a0: 34b5 b9bd cff5 37bd 06f6 643d 6b15 94bd
000002b0: 0161 233d 99c0 cb3d 8034 90bd d410 853d
000002c0: 09af da3b 4c65 bfbd 5f4c f63c a554 7b3d
000002d0: 2e20 94bd 06d3 893d 1e1f f63c dce7 ab3d
000002e0: ac91 a83d 842d d2bd fe7d 40bd 4f19 ca3c
000002f0: 0cdd c23d a329 383d c0b0 c43d 6b53 47bd
00000300: e3d6 643c 7382 97bd 13e6 c3bc f54c 34bd
00000310: 5da0 bb3d d662 ab3c 9009 073d 18c6 de3d
00000320: d8d6 89bd 1e86 04bb 6bb7 a63d 70f9 d73d
00000330: c6ec 7abd 467b 7e3d 25ee cebd bc08 423d
00000340: 4c49 62bd 446a 9d3d 943c ecbb 565f ce3d
00000350: bb18 86bc c9cb 563d 41f1 823d d706 e5bc
00000360: c780 e2bc 15ec 75bc 132d 51bd a622 353d
00000370: 25de ad3d bb75 debd c8d3 443d 93f1 1abc
00000380: b21c 483d e12e d0bd dfa5 953c 73b2 2e3c
00000390: c72f 0f3d cfb9 95bd 9aff 78bd 5570 3ebd
000003a0: 0bfb 4d3c abd3 e33c 178f aabd a969 873c
000003b0: e433 a5bd 4e0f 5d3d a254 cdbd 91cc 89bd
000003c0: 94c2 153d af80 0abd 50f5 46bc 9052 0d3d
000003d0: 0be7 7f3d ae7d 993c 3c1d 393d c0e1 01bc
000003e0: 4e65 883d c3a4 cc3d 550b dcbd 0263 af3d
000003f0: f491 b13b 9db4 6c3d 06f3 8e3d 3e3c ac3d

fc2.bias f4 [64]
0.09543568 0.06679447 -0.102976084 -0.0070777154 -0.040763687 0.043480784 -0.060296156 -0.04693634
0.10568683 0.06756061 -0.037652474 0.05668522 0.04645163 -0.05297225 -0.052646235 0.09235506
0.082895026 -0.065765895 -0.103444606 0.10808651 0.017334905 0.106427476 0.039896343 0.102133974
-0.027521713 0.059696972 0.011025786 -0.01903082 -0.09342619 0.022289623 0.07728203 -0.013372772
-0.06144269 0.021438263 -0.07020379 -0.013466812 -0.016376367 0.014323673 0.09970537 -0.03194244
0.03946691 -0.017286545 -0.04092902 -0.0063267285 0.012365942 0.037221767 0.036790255 0.10600645
-0.08413905 -0.007148186 -0.088594034 -0.022971649 -0.0919135 0.06198687 -0.012629525 -0.0076255095
0.08182599 0.048052724 -0.092054784 0.010000695 0.04417182 0.043222312 -0.094639614 -0.06938977
00000000: c873 c33d 8acb 883d 20e5 d2bd 2eec e7bb
00000010: d3f7 26bd e818 323d 1af9 76bd 5240 40bd
00000020: 5672 d83d 385d 8a3d 7b39 1abd c32e 683d
00000030: 1044 3e3d 6ef9 58bd 94a3 57bd a624 bd3d
00000040: dec4 a93d 45b0 86bd c4da d3bd 765c dd3d
00000050: ee01 8e3c a6f6 d93d 596a 233d 9e2b d13d
00000060: 3775 e1bc d084 743d 80a5 343c 86e6 9bbc
00000070: 3b56 bfbd ba98 b63c 0a46 9e3d 7919 5bbc
00000080: 55ab 7bbd 4c9f af3c 01c7 8fbd e7a3 5cbc
00000090: bb27 86bc d7ad 6a3c 5432 cc3d 13d6 02bd
000000a0: 0ea8 213d 839c 8dbc 30a5 27bd 7250 cfbb
000000b0: 859a 4a3c da75 183d 61b1 163d e919 d93d
000000c0: 1851 acbd 553b eabb ca70 b5bd 0a2f bcbc
000000d0: 253d bcbd f2e5 7d3d 11ec 4ebc 69df f9bb
000000e0: 6294 a73d efd2 443d 3887 bcbd f4d9 233c
000000f0: 83ed 343d e109 313d 6ad2 c1bd 391c 8ebd

fc3.weight f4 [42, 64]
-0.0737637 0.074917346 -0.12184331 0.07101177 0.022226512 0.07156663 -0.06803508 0.020207658
0.06843455 0.081229076 -0.017123327 -0.06357208 0.06848247 -0.07397409 0.094479024 0.08084257
0.05388607 -0.107823074 -0.0201962 -0.05311425 -0.010521516 -0.109996915 -0.020899177 -0.0071964264
-0.08150798 0.0028512478 0.062117845 0.048656046 -0.046955794 0.05667062 0.08958371 -0.12226163
-0.032863066 0.026148304 0.031136021 -0.107065424 -0.054341987 -0.019107848 0.111876056 -0.07361071
-0.02402249 0.10167615 0.03303425 0.043479785 -0.06003423 -0.08767232 -0.03979267 -0.04071358
0.045735225 0.11410473 0.041686922 -0.12214707 -0.03587149 -0.04724449 0.023532823 0.07903628
-0.05358298 0.114894465 0.023286596 0.1069693 0.04628463 0.036714092 0.08519101 -0.07352947
0.05276522 -0.094120115 -0.0070637316 0.06248796 0.116867244 -0.03174098 -0.09260389 0.036073238
-0.06815238 0.0405021 0.04566504 -0.108138725 -0.054547668 -0.0523414 0.11107552 0.09717858
0.08517657 0.034613043 0.082310125 0.105795965 0.01077719 0.072782874 0.10740581 0.080066875
0.011814371 0.0873507 0.005555883 -0.033038974 0.017780393 0.11895816 -0.114512235 -0.079033524
0.034235045 0.11664304 0.0071074218 -0.021022469 -0.02647017 -0.035637006 0.095654115 0.03726493
-0.05938366 -0.07338297 -0.09597887 0.011794716 -0.06297536 0.1242788 -0.09546016 -0.05856499
-0.07987264 0.11823565 -0.020979539 0.056235462 0.09711391 -0.08623567 -0.031916052 -0.0059093386
-0.12076354 -0.039557666 0.08022952 0.09336504 -0.08630669 0.08882083 -0.0020866245 0.07711981
0.076458275 -0.104887396 0.051843703 -0.005053237 -0.08894542 -0.0001988411 -0.021446496 0.08216865
0.09595077 0.012143478 0.09898767 0.008734643 0.06753521 0.0036038756 0.0005737394 0.10053967
0.0053867996 -0.05851996 -0.010352552 -0.096406475 0.06883147 0.0714519 -0.06942715 0.044801876
0.015064254 0.019344464 0.10352598 -0.09702577 -0.083579496 -0.09078407 -0.09008077 -0.014911845
-0.027797356 0.09496611 0.06333472 -0.0068808645 -0.046857595 0.017689213 0.095616475 -0.1096044
-0.1149527 -0.005932063 0.036686122 -0.06892447 -0.06867148 0.12416814 -0.019195348 -0.017311022
-0.06339474 -0.0010259598 0.07899386 -0.08171143 0.0017379373 0.065092996 -0.049433455 0.06841849
0.0087016225 -0.09504643 -0.043716416 -0.05683182 -0.0045381337 0.0521992 0.029932559 0.06781469
-0.034426644 0.037813365 0.08699022 0.10636544 -0.095557556 -0.04409343 0.07118131 -0.059817895
-0.07634753 0.064757794 0.03667067 0.094689086 -0.004608676 0.065857515 -0.011696011 0.038980067
0.0040530562 -0.08593792 -0.040849432 -0.043091565 -0.015644506 0.03645192 0.05686836 -0.03879574
-0.052655786 0.08754222 -0.09378807 -0.011200994 0.10243416 -0.021401867 0.016432583 -0.043767348
0.09084138 -0.03584346 0.03860891 0.024156809 0.111387804 -0.042258278 0.10255468 -0.07218306
0.02062419 -0.01634349 -0.09624052 0.029880032 0.08846733 0.021904767 -0.115593255 0.11160983
-0.064026564 0.08237305 0.0007132739 0.070918664 0.00705567 -0.023728445 0.028278634 -0.09533134
-0.07839477 -0.051783472 0.011471003 -0.079016104 -0.090545386 0.0630728 -0.073715985 0.10461491
00000000: 6c11 97bd 446e 993d fc88 f9bd 9e6e 913d
00000010: 6014 b63c 8691 923d fa55 8bbd 888a a53c
00000020: 6a27 8c3d 6e5b a63d 3846 8cbc 1432 82bd
00000030: 8a40 8c3d ba7f 97bd 387e c13d ca90 a53d
00000040: a4b7 5c3d 58d2 dcbd 8072 a5bc 548e 59bd
00000050: 7062 2cbc 1046 e1bd c034 abbc 00d0 ebbb
00000060: a8ed a6bd 00dc 3a3b 486f 7e3d 904b 473d
00000070: b854 40bd 741f 683d aa77 b73d 4e64 fabd
00000080: 6c9b 06bd f834 d63c f810 ff3c 1e45 dbbd
00000090: b495 5ebd 1088 9cbc 461f e53d 36c1 96bd
000000a0: d0ca c4bc 963b d03d ec4e 073d dc17 323d
000000b0: 74e6 75bd 8c8d b3bd a4fd 22bd 48c3 26bd
000000c0: dc54 3b3d beaf e93d e8bf 2a3d 3e28 fabd
000000d0: fced 12bd 7083 41bd e8c7 c03c c6dd a13d
000000e0: d479 5bbd ca4d eb3d 88c3 be3c b812 db3d
000000f0: f494 3d3d 8461 163d a078 ae3d 9e96 96bd
00000100: 5820 583d 0cc2 c0bd e076 e7bb 60f3 7f3d
00000110: 1858 ef3d d402 02bd 1ca7 bdbd 88c1 133d
00000120: 7a93 8bbd 88e5 253d 440b 3b3d d677 ddbd
00000130: 606d 5fbd f063 56bd 907b e33d 9005 c73d
00000140: 0e71 ae3d 68c6 0d3d 3692 a83d 8eab d83d
00000150: d092 303c 300f 953d 94f7 db3d 1afa a33d
00000160: 1091 413c ece4 b23d 200e b63b e053 07bd
00000170: 30a8 913c 56a0 f33d 6485 eabd 54dc a1bd
00000180: 0c3a 0c3d 8ce2 ee3d 60e5 e83b 5037 acbc
00000190: f8d7 d8bc 1cf8 11bd 4ee6 c33d 1ca3 183d
000001a0: 483c 73bd d049 96bd 9290 c4bd a03e 413c
000001b0: 3af9 80bd e285 fe3d 9e80 c3bd d8e1 6fbd
000001c0: 4494 a3bd 8825 f23d 48dd abbc 2857 663d
000001d0: a8e3 c63d 549c b0bd 68ba 02bd 20a3 c1bb
000001e0: e052 f7bd 3807 22bd 604f a43d 2c36 bf3d
000001f0: 90c1 b0bd b2e7 b53d c0bf 08bb fef0 9d3d
00000200: 2896 9c3d 34cf d6bd 105a 543d a095 a5bb
00000210: 0429 b6bd 0080 50b9 90b0 afbc 0a48 a83d
00000220: d681 c43d 70f5 463c 0cba ca3d c01b 0f3c
00000230: e64f 8a3d 002f 6c3b 0067 163a bee7 cd3d
00000240: c083 b03b a0b2 6fbd c09d 29bc c270 c5bd
00000250: 84f7 8c3d 6055 923d d22f 8ebd 2c82 373d
00000260: 10d0 763c 4878 9e3c 6e05 d43d 72b5 c6bd
00000270: ba2b abbd 00ed b9bd 447c b8bd d050 74bc
00000280: 48b7 e3bc 987d c23d a2b5 813d e078 e1bb
00000290: c0ed 3fbd f8e8 903c 92d2 c33d 4678 e0bd
000002a0: 526c ebbd c061 c2bb 3044 163d 4628 8dbd
000002b0: a2a3 8cbd de4b fe3d 903f 9dbc d8cf 8dbc
000002c0: 1ad5 81bd 8079 86ba 88c7 a13d 5258 a7bd
000002d0: 80cb e33a 7a4f 853d bc7a 4abd fe1e 8c3d
000002e0: 4091 0e3c b4a7 c2bd fc0f 33bd 7cc8 68bd
000002f0: a0b4 94bb d4ce 553d 2035 f53c 6ee2 8a3d
00000300: f402 0dbd 30e2 1a3d ee27 b23d 20d6 d93d
00000310: aeb3 c3bd 509b 34bd 82c7 913d 9c03 75bd
00000320: 185c 9cbd bc9f 843d fc33 163d 5aec c13d
00000330: 6004 97bb 4ee0 863d a0a0 3fbc 90a9 1f3d
00000340: 80cf 843b 3800 b0bd bc51 27bd c880 30bd
00000350: e828 80bc 9c4e 153d ccee 683d 48e8 1ebd
00000360: 98ad 57bd 5649 b33d f613 c0bd 6084 37bc
00000370: 00c9 d13d f852 afbc a09d 863c 6445 33bd
00000380: 0c0b ba3d 98d0 12bd 6024 1e3d 80e4 c53c
00000390: 4a1f e43d 0417 2dbd 3008 d23d b6d4 93bd
000003a0: 10f4 a83c c8e2 85bc c019 c5bd f8c6 f43c
000003b0: 5c2e b53d a071 b33c 28bc ecbd b293 e43d
000003c0: 5c20 83bd 34b3 a83d 00fb 3a3a ce3d 913d
000003d0: 4033 e73b 2862 c2bc 98a8 e73c 143d c3bd
000003e0: 708d a0bd e81a 54bd e0f0 3b3c 32d3 a1bd
000003f0: dc6f b9bd 502c 813d 68f8 96bd 5840 d63d

fc3.bias f4 [42]
-0.09665224 -0.07692228 -0.1111346 0.062545404 0.09440707 0.09769341 0.0326335 -0.04732679
-0.09737508 0.11856195 -0.124257594 -0.07786597 -0.06316297 -0.030783057 -0.07784945 -0.08625992
0.0045134574 0.09508473 -0.008254737 -0.048274457 0.017446637 -0.0065963566 -0.09215537 0.08776924
-0.1126764 0.06702161 0.066437796 -0.09731501 0.01564464 0.049248338 -0.019751519 -0.014992297
0.12452522 -0.0139223635 0.08328429 0.07964225 0.07852264 -0.11797327 0.0011544377 0.0026804954
0.063673526 -0.06025295
00000000: 9cf1 c5bd 6e89 9dbd 8a9a e3bd ce17 803d
00000010: 7e58 c13d 7c13 c83d b4aa 053d bcd9 41bd
00000020: 966c c7bd 9cd0 f23d c47a febd 3278 9fbd
00000030: 965b 81bd c02c fcbc 886f 9fbd 0aa9 b0bd
00000040: a0e5 933b c8bb c23d e03e 07bc 70bb 45bd
00000050: 40ec 8e3c 4026 d8bb f4bb bcbd 5cc0 b33d
00000060: e2c2 e6bd a042 893d 8a10 883d 184d c7bd
00000070: 3029 803c a0b8 493d f0cd a1bc 40a2 75bc
00000080: 1407 ff3d a01a 64bc f490 aa3d 7a1b a33d
00000090: 7ad0 a03d f89b f1bd 8050 973a 40ab 2f3b
000000a0: 4467 823d cccb 76bd
