models/DQN/5/dqn_agent_policy_weights.pth (torch, 49906 bytes, 6 tensors)

fc1.weight f4 [84, 42]
000000 32 c2 da bd 32 13 ca 3d ca c6 c5 bc 84 d0 81 3d
       -0.10681571 0.098669425 -0.024142642 0.06338599
000010 2a f6 16 3d f8 b9 f6 bd 22 84 84 bd 51 22 0e 3e
       0.036855854 -0.120471895 -0.06470515 0.13880278
000020 50 4d c5 3c 0f 98 ec 3d ca 42 80 3d 8c 3f af 3c
       0.024084717 0.115524404 0.06262739 0.021392606
000030 d0 bb 08 be ab 21 e7 3c 9e ae bf bd ba be 87 bd
       -0.13352895 0.028214296 -0.093594775 -0.06628175
000040 6b 4b 8b bd 99 24 3c 3d 54 c0 e9 bd 2d a7 11 3e
       -0.06801494 0.04593334 -0.11413637 0.14223929
000050 70 06 73 bd 43 5a fc 3d b8 06 c5 3d 90 e6 02 be
       -0.05933231 0.123219036 0.09620422 -0.12783265
000060 b4 71 03 3e f0 5c ab bd 19 13 76 bd 65 9b c1 bc
       0.12836343 -0.08367336 -0.060076807 -0.023633668
000070 d3 1d 74 3d d4 d0 3d 3d 41 33 fb 3d 9e ee 4e 3d
       0.059598755 0.046341732 0.12265635 0.05052053
000080 9b 96 e2 3c 99 fa 0a be d2 69 1a be c3 33 e6 bd
       0.027659705 -0.13572158 -0.1507943 -0.112403415
000090 ce fd af bc c1 f0 f7 3d c6 0b ea bd 56 5f 1b bd
       -0.021483328 0.12106467 -0.11428027 -0.037932716
0000a0 03 55 e7 bd dd 35 82 bd 07 fc 41 bd 57 a6 00 3e
       -0.112955116 -0.0635793 -0.047359493 0.12563454
0000b0 4d 84 35 bd 6b 95 e3 3d 7d 67 70 3d da 2c 60 bd
       -0.044315625 0.111124836 0.058692444 -0.054730274
0000c0 8d 01 0b be 1c c6 ae bb 9d 4b eb bd 70 f9 ad 3d
       -0.1357481 -0.005333675 -0.114890315 0.08494842
0000d0 ea 9a 93 bd 60 48 2c bc 30 99 94 3d 9e 42 19 3e
       -0.07207282 -0.010515302 0.07255781 0.14966819
0000e0 29 42 37 3d 20 fe 98 3c 50 7c 76 3d 60 49 81 bd
       0.04474083 0.018675864 0.060177147 -0.06312823
0000f0 49 da 81 bd e6 6d 9b bd f5 45 d5 3d 68 6f 19 bd
       -0.06340463 -0.07589321 0.10413734 -0.03745976
000100 cb 3e 31 bd 8c 88 f0 3d 65 1d 4b 3d 7f a9 af 3d
       -0.043272775 0.11744794 0.04958858 0.08577251
000110 9a 0f 19 be 26 f2 02 3e 13 07 a4 bc e9 1b 05 3e
       -0.14947358 0.12787685 -0.020022905 0.12998928
000120 e8 61 05 3e 01 2a ff 3d b2 ea 8d bd 50 ef 86 3c
       0.1302563 0.124591835 -0.0692953 0.016471535
000130 04 f8 d2 bd a2 12 c4 3d 64 f2 bb 3d 72 5c 2b bb
       -0.103012115 0.095738664 0.09177092 -0.002614763
000140 81 18 e7 bd c4 8c 39 3d 76 72 c5 bc d2 e5 06 be
       -0.112839706 0.04530026 -0.02410243 -0.13173607
000150 99 a9 01 3e 28 ea 3b bd 8e 55 65 3d bb 02 b9 3d
       0.12662353 -0.045877606 0.055989794 0.09033724
000160 76 ba b7 bd d0 c7 0f bd 74 c0 1a 3e 97 b7 b5 3d
       -0.089711115 -0.035102665 0.15112478 0.088729076
000170 b4 82 8f bc 14 d9 c1 bd 6c 09 13 be 2c dd 00 bd
       -0.017518379 -0.094652325 -0.14359063 -0.031460926
000180 8b b1 f3 3d 20 34 16 bd 82 d9 4d 3d 84 57 4e bc
       0.11899098 -0.036670804 0.05025626 -0.012594108
000190 7b a1 78 bd 9f ac 02 bd f6 3c 97 bd 10 35 cc 3d
       -0.060700875 -0.031902906 -0.07384674 0.09971058
0001a0 9b b0 11 3d d9 19 05 be 99 9b 2e 3c 18 a6 01 3d
       0.035568815 -0.12998141 0.010657215 0.03165254
0001b0 e5 8c ac 3d 72 93 ce bd a1 a8 51 bd cf 78 17 be
       0.08425311 -0.10086717 -0.051186208 -0.14792179
0001c0 8d d7 e8 3d 57 8c dc bd b6 18 0c be 5b 43 6d bd
       0.11369238 -0.10768955 -0.13681301 -0.057925563
0001d0 22 80 d1 3d 7d ba 06 3e 33 95 1c be f4 db af 3d
       0.102295175 0.13157077 -0.1529129 0.085868746
0001e0 02 f9 bb bd 18 b5 22 bd 30 0b 09 3e fb 50 84 bb
       -0.09178354 -0.039723486 0.13383174 -0.004037974
0001f0 14 93 72 3a fa 27 9c 3d 91 dc 04 be a8 86 0a 3e
       0.0009253484 0.076248124 -0.12974764 0.1352793
000200 c2 35 9c 3d 19 a6 e7 bc 3c b8 51 3c d8 84 21 bd
       0.07627441 -0.028277444 0.012800273 -0.03943333
000210 64 09 e2 bd 29 35 b0 3c d6 37 bd bc 4b 6b 7e bd
       -0.11036947 0.021509724 -0.023097914 -0.06211404
000220 0c 1f b7 bd d4 24 70 3d 42 b3 f5 3d 5d fb 15 3d
       -0.089414686 0.058628872 0.11997081 0.03661667
000230 41 40 0a bc a3 84 41 3d 98 5d 98 3d 1c 90 bc bc
       -0.008438171 0.047245633 0.074397266 -0.023017935
000240 e8 04 21 3d b6 03 11 3e bc 1c ad 3d f5 c4 e7 3c
       0.03931132 0.14161572 0.08452746 0.028292159
000250 ca 63 4a bd 77 56 0f 3e a8 9c 06 be 1a dd 2e 3c
       -0.049411573 0.13997827 -0.13145697 0.010672832
000260 dc 92 0c 3c 26 73 d4 bb 94 30 d4 3d 75 ae 87 3d
       0.008579936 -0.0064834533 0.10360828 0.06625072
000270 23 13 02 be 39 6a 83 3d 2e 27 09 be 26 69 0a be
       -0.12702613 0.06416745 -0.13393852 -0.13516673
000280 e0 25 51 3d da 2b ca bc 18 23 33 3d f1 20 4f 3d
       0.05106151 -0.024679113 0.04373464 0.050568525
000290 01 e0 63 3c f8 1e 9e bd fe 16 04 be 73 1e b9 3d
       0.013908387 -0.077207506 -0.12899396 0.09039011
0002a0 a7 cd 00 3e 0f 04 1b 3e e8 89 6a bb 4b 57 fc 3c
       0.1257845 0.15138267 -0.0035787765 0.030803343
0002b0 c6 62 a7 bc 12 72 4b 3d fc b0 3b 3c 4f d3 98 bd
       -0.020432841 0.049669333 0.011455771 -0.07462179
0002c0 5a 30 4f 3d c6 6f e8 bc 2b bd 53 3d a8 98 f5 bd
       0.05058322 -0.02837361 0.051694077 -0.119920075
0002d0 84 61 fd 3d 4a 26 7f bd 7d d5 0f bd f5 1f 92 bc
       0.12372115 -0.062292375 -0.035115708 -0.017837504
0002e0 c5 b0 0a 3e de e8 ae 3c ae 0a 8a 3d 3b 36 0d be
       0.13543995 0.021351274 0.06740318 -0.13790219
0002f0 b3 ae e7 3c 56 7b 0f 3e ac 8f 0c be e1 32 e9 3d
       0.028281545 0.14011893 -0.13726681 0.113866575
000300 54 c5 a7 bd ab e3 94 3d ee 80 aa bd 00 21 e1 bd
       -0.08191934 0.07269987 -0.08325373 -0.109926224
000310 05 92 01 be 45 76 fc 3c 40 32 bd bd 24 f9 cf bd
       -0.12653358 0.030818114 -0.092381 -0.10154942
000320 df 28 4b b9 6d 27 04 3e ff f6 13 3e 58 86 15 bc
       -0.00019374814 0.12905665 0.1444969 -0.009126268
000330 3b a5 dc 3d 5f 00 13 3e 7f 4c a8 bd 84 8d 15 bd
       0.10773703 0.1435561 -0.082177155 -0.036511913
000340 b9 ae 8a bd 5f 3b db bd d5 a2 b7 3b 70 90 85 3d
       -0.06771607 -0.107046835 0.005604128 0.0652169
000350 1f 99 13 3e dc 21 18 3d d0 d4 cd 3d 5b d2 6d bd
       0.1441388 0.037141666 0.100503564 -0.05806194
000360 f7 89 ce 3d b1 31 81 3b 89 cd 0c be 1a 75 50 3d
       0.100849085 0.0039426913 -0.1375028 0.050892927
000370 93 94 99 3c 50 40 f4 bd a4 53 5e bc 7d d5 dd 3d
       0.018747604 -0.11926329 -0.013569746 0.10831735
000380 4b 9d 68 3c 52 df 88 bc 9e 73 d0 bd d9 09 77 bd
       0.014197658 -0.01670805 -0.10178302 -0.060312126
000390 c3 7b f0 bd 20 d5 19 3e 08 b5 94 bd 32 63 87 bd
       -0.11742356 0.15022707 -0.072610915 -0.06610717
0003a0 d6 94 65 bd 43 35 f2 b9 c0 0a aa 3c 0e 3c a6 bc
       -0.056050144 -0.0004619752 0.02075708 -0.020292308
0003b0 4f 99 a1 bd 80 0e ea 3c ca 26 9d 3d 06 5c 06 3e
       -0.078905694 0.028571367 0.07673414 0.13121042
0003c0 82 18 c1 bd f4 56 a5 3b 41 76 29 3d a4 8c c9 bd
       -0.094285026 0.005045766 0.04137254 -0.09841278
0003d0 43 ff 03 be 11 01 d1 3d 07 0c b1 bd 44 48 a6 bd
       -0.12890343 0.102052815 -0.08644872 -0.08119252
0003e0 60 4e 60 bc 90 aa 02 3e b4 32 5a bd 0f 01 a0 bc
       -0.013690561 0.12760377 -0.05327101 -0.019531755
0003f0 c9 2e b7 bd ec c3 0a be b5 a2 c8 3d 6c 5c 0c 3e
       -0.089444704 -0.13551301 0.09796659 0.13707131

fc1.bias f4 [84]
000000 39 d1 1d be db 89 88 bd 0d 33 0a 3e 1e 0f 9c 3d
       -0.15411843 -0.06666919 0.13496037 0.07620071
000010 a0 2f 8b 3d ea 6b 34 bd 65 5d d4 bb f1 9f 13 3d
       0.06796193 -0.044048227 -0.00648086 0.036041204
000020 23 7c 1a 3e 39 41 dd bd 2c 4b f2 3c f9 ee 4f bd
       0.15086417 -0.10803456 0.02957686 -0.05076501
000030 cc cb 13 3e 30 93 ff 3d 81 5c 0e 3e 2b f6 cf bd
       0.14433211 0.12479246 0.13902475 -0.10154375
000040 70 89 02 be e5 7d f6 bb b1 94 d3 bd d0 51 ee bc
       -0.12747741 -0.007522332 -0.10331095 -0.029091746
000050 50 8b 4f bd 52 4c 46 bd ff 9d c3 bc 78 c6 3f bd
       -0.050669968 -0.04841263 -0.02387905 -0.046820134
000060 8b d6 8c 3d 13 cd 88 bd 71 59 15 be da f1 bb bd
       0.06876858 -0.0667974 -0.145849 -0.09176989
000070 57 b1 02 3e f0 b9 ae 3d 55 ad a8 3d 2f ea bc 3c
       0.12762962 0.085315585 0.082361855 0.023060886
000080 41 c5 58 3d 99 02 92 bc 27 93 e3 3d a1 8c 1b be
       0.05292249 -0.017823504 0.111120515 -0.15190364
000090 9c 07 09 3e fd e0 6a bd 10 8d b1 bd 6c 1b b8 3c
       0.13381809 -0.05734347 -0.08669484 0.022474013
0000a0 b0 e9 e1 bd cf 4c 13 3d 30 69 1f bd 0d 60 df bd
       -0.110309005 0.035961922 -0.038918674 -0.10906992
0000b0 9d 35 e3 3d 12 b2 50 3c 67 fc b9 bd 0a 72 a1 bc
       0.1109421 0.012737768 -0.09081345 -0.019707698
0000c0 9c a9 5e 3d 88 f1 1a 3e 64 16 c6 3d 6f b4 1b bd
       0.05436097 0.151312 0.096722394 -0.03801387
0000d0 3c ed dc 3c 5d db 6d bd 26 b4 e8 bd 03 42 17 3e
       0.02696859 -0.05807053 -0.113624856 0.14771275
0000e0 5e 9c 17 bd 50 8a 29 bd f6 25 42 bc 63 62 4d bd
       -0.037014358 -0.04139167 -0.011849871 -0.050142657
0000f0 83 81 14 3e 32 99 53 3c 06 c4 cc 3d 77 d9 b6 b8
       0.1450253 0.012914943 0.09998326 -8.718942e-05
000100 11 62 88 3d 89 e6 ac 3d 41 fe 11 3e 28 dd a0 bd
       0.0665933 0.084424086 0.14257146 -0.07854682
000110 3d 3a e8 bd 28 0d ed bd a4 65 38 bd 3b 1e 80 3d
       -0.11339233 -0.11574775 -0.045018807 0.06255766
000120 8b 1a 0c be 1f 15 e7 3d c4 ac 37 bd d1 5b 6b 3d
       -0.13682 0.112833254 -0.044842497 0.05746061
000130 45 01 6a bd f3 a3 64 bd e0 e7 a2 b8 7f ae 98 bd
       -0.057130117 -0.055820417 -7.767952e-05 -0.074551575
000140 fa c0 b0 bd 6d 26 d1 3d 80 aa 00 3e f8 9e c5 3d
       -0.08630557 0.10212407 0.1256504 0.096494615

fc2.weight f4 [64, 84]
000000 70 7f fd 3c 7f 95 ce 3d 26 c5 a9 bc c6 66 ca 3d
       0.030944556 0.10087108 -0.02072389 0.09882884
000010 bf 39 40 3d 49 32 56 3c 45 c8 c8 bc 0e 75 c6 bc
       0.04693007 0.013073512 -0.024509558 -0.024225738
000020 46 44 8e 3d a8 ea 6a 3d 99 23 1d bc 5d 78 4c bd
       0.06946616 0.057352692 -0.009591007 -0.049919475
000030 91 c9 c6 3d ea 4a dd bd f2 b5 b1 bd 7c d5 aa 3a
       0.097064145 -0.10805304 -0.086772814 0.0013033594
000040 b1 da 3c bd 06 7b d6 bd a3 04 4d bd d8 96 d1 3d
       -0.046106998 -0.104726836 -0.05005325 0.10233849
000050 f4 3a c2 bd 92 a2 87 bd 18 cc 31 bd d3 d2 bc 3d
       -0.09483901 -0.06622805 -0.04340753 0.09219899
000060 18 d2 6a 3d a1 87 01 bc 30 ac b2 bc c8 f2 07 3d
       0.057329267 -0.007905872 -0.021810621 0.03319052
000070 9f d7 b2 bd 36 ad c8 bc 09 f4 7d 3d 5f 4a d5 bd
       -0.08732533 -0.024496656 0.06200031 -0.10414576
000080 bb 43 c6 bd 82 f9 b1 bd 98 a5 b9 bc 67 75 55 3d
       -0.09680887 -0.08690168 -0.022661969 0.052113917
000090 a5 60 2a 3d dc 4d 56 bd 35 65 8b 3d cb fb 3c 3d
       0.041596074 -0.052320346 0.06806413 0.046138566
0000a0 01 a5 ad bd 14 c7 4a 3d 5c 1a 80 bd 8a 23 af bc
       -0.084787376 0.049506262 -0.06255028 -0.021379251
0000b0 55 f2 6b bc c2 f5 ee bc 9e a5 4b 3c e5 a9 87 bd
       -0.014401038 -0.02916992 0.012429623 -0.06624202
0000c0 93 c8 be 3c 99 e1 6b bd e7 ad a2 bb 15 b4 37 bd
       0.023289 -0.057588194 -0.0049645784 -0.044849474
0000d0 1d f7 d7 3d c2 76 3d 3d be db 7e bd de 42 f0 bc
       0.1054518 0.046255834 -0.06222128 -0.02932876
0000e0 3f ad 39 bd 05 bb cb 3d 36 da 8b 3d 88 38 d4 3d
       -0.045331236 0.099477805 0.0682873 0.10362345
0000f0 7a 9e 9e 3d 47 4a 48 3c 6d 53 14 bd a4 97 a4 3c
       0.07745071 0.01222474 -0.036212374 0.02009184
000100 7c 57 4b 3d 05 11 49 3c 5b ec c0 bc 5d 1b ea 39
       0.04964398 0.012272124 -0.023550203 0.00044652345
000110 9d b3 0e 3d 92 1c 10 bd 0b e4 58 bd 23 1a 58 bd
       0.03483926 -0.035183497 -0.052951854 -0.0527593
000120 2c bf 5e 3d fe ab bd bc fb 33 cb 3c ee 39 a4 3d
       0.054381534 -0.023153301 0.02480506 0.08018862
000130 95 42 da bd 15 88 b0 bd 19 da 73 bd 5b 92 c0 3d
       -0.10657231 -0.086197056 -0.059534166 0.09402915
000140 ef 5c 85 3d 3f 1a 0a 3d ae 4c 6f bd 9c dd 98 bd
       0.06511866 0.033716436 -0.058422737 -0.07464144
000150 fe 24 d8 3d 8c 7f 7d 3d 8c 7a 77 3c 41 e3 d1 3d
       0.10553931 0.061889216 0.015104901 0.10248423
000160 b6 f7 80 bb bd e4 be bd 84 75 c2 bd 83 2a 37 bd
       -0.0039357794 -0.09320972 -0.094950706 -0.044718277
000170 3b 6b 93 bc a6 87 a2 bd ad e3 9f 3c b1 88 12 3d
       -0.017995467 -0.07936029 0.019517744 0.03577489
000180 1e f9 04 ba 90 d5 fa bb 25 4d b1 3d f9 5e b9 bb
       -0.0005072522 -0.007654853 0.08657292 -0.0056570736
000190 c2 9d e7 bc 0d d6 76 bd c8 0c 51 3d 0e 88 57 3d
       -0.028273467 -0.06026273 0.05103758 0.052619986
0001a0 d1 b0 5c bd c1 55 d3 3d de 67 04 3d 09 73 b7 3d
       -0.053879563 0.10319091 0.032325618 0.08957488
0001b0 a2 44 c7 3d bb c1 e0 bb 5d ed fe 3c 17 0c 9f 3d
       0.097298875 -0.006859032 0.031119043 0.07765978
0001c0 a2 54 b1 bc 68 40 24 bb c1 67 7b bd 01 ec c6 bd
       -0.021646801 -0.0025062803 -0.061378244 -0.09712983
0001d0 3b 60 df bd 73 0e da bd 1f d7 c8 bd 72 1a c6 bd
       -0.109070264 -0.10647287 -0.09806656 -0.09673013
0001e0 dc ce 50 bd 6c 69 96 3a 36 fc 83 3d 0f 9f 92 bc
       -0.050978526 0.001147551 0.0644459 -0.01789811
0001f0 bd 18 68 3d 0e e9 8a 3d e3 e1 20 bd da e8 a3 bd
       0.056664217 0.06782733 -0.039277922 -0.08003397
000200 6c 4a 2f 3d 95 01 9d 3c 47 b5 aa 3d d6 97 99 3d
       0.042795584 0.019165793 0.08335357 0.074996635
000210 14 3d 90 bd a1 38 cc bd 10 70 9a bc b0 90 75 bd
       -0.070429 -0.099717386 -0.018852264 -0.059952438
000220 7b 63 44 3d 2d 34 7e 3c dd 62 df bd 57 d2 aa bd
       0.047946434 0.015515369 -0.109075285 -0.083409004
000230 5a 4f ce bd 0c ae ab bd 19 ef 70 3d 3d 69 8b 3d
       -0.10073729 -0.08382806 0.05882177 0.06807182
000240 47 37 7d bd b9 71 82 bd 10 6d b2 bd 26 8b 00 bc
       -0.061820295 -0.06369347 -0.08712208 -0.007845676
000250 65 9c c4 3c e3 cb c1 bd 6c 8f 0c bc 4b b4 a2 bd
       0.024000356 -0.094627164 -0.008579116 -0.079445444
000260 e4 0a 6d bd e9 1a 8f 3c c4 75 ba bd 31 91 60 bd
       -0.057871714 0.017468886 -0.09104493 -0.054825965
000270 91 74 b8 bd 34 38 c7 3d 46 da 9c bc 2e 32 36 bd
       -0.09006608 0.09727517 -0.01914705 -0.04448145
000280 93 99 a0 bd 50 6b 72 3d 19 39 a8 bd 5b 1d 2c bc
       -0.07841792 0.059184372 -0.082140155 -0.010505046
000290 04 22 eb bc 77 44 74 3c b8 39 da bc d7 98 c2 3d
       -0.028702743 0.014908901 -0.02663885 0.09501808
0002a0 1f c8 9a bd b3 4f 94 3d 6c 52 b3 bd c8 21 dc bd
       -0.07557701 0.07241764 -0.08755955 -0.10748631
0002b0 8f 83 2a bd dc af ea bb 5f 7e 8a bd c0 39 88 3d
       -0.04162937 -0.0071620774 -0.067623846 0.0665164
0002c0 17 91 ba 3d ea d6 f5 ba 04 37 b8 3d 6b 00 64 bd
       0.09109705 -0.0018756066 0.089948684 -0.05566446
0002d0 fd 76 65 bd f0 be c9 3b bf d1 9d 3d fa d2 e7 3b
       -0.05602168 0.0061567947 0.077060215 0.007074711
0002e0 78 c7 d0 3d 8c 81 d7 3c b0 db 9c 3d a8 7b 80 bc
       0.10194296 0.02630689 0.076590896 -0.015683964
0002f0 f3 f0 00 bb fe 6c a1 bd c3 b6 0e 3d f2 5e 27 bd
       -0.0019674867 -0.07882117 0.034842264 -0.04086203
000300 76 98 d5 bd 78 2f 0e bd ee 75 d7 3d c0 44 2a bd
       -0.1042947 -0.03471324 0.1052054 -0.04156947
000310 76 9e 71 bc 47 1a 9a bc 39 9d be bd 66 93 53 3d
       -0.014747253 -0.018811358 -0.093073316 0.051654242
000320 34 76 63 3d ea f8 2b 3d 52 e8 78 3d 25 23 44 3d
       0.05553265 0.04198543 0.060768433 0.04788508
000330 f0 80 15 3d ee bd b8 39 6a 19 af 3d f0 68 a3 3d
       0.036499918 0.00035236723 0.08549769 0.079789996
000340 c8 2e b6 bd 23 53 23 bd ef 8e 89 3d a3 2d 9e 3d
       -0.088956416 -0.039874207 0.067167155 0.07723548
000350 04 f1 b0 3c a4 9e 8c bb 31 42 97 bc 52 04 9a bc
       0.0215993 -0.0042913724 -0.01846418 -0.018800888
000360 68 cb a5 bc 22 cb 8c 3d 90 f2 b0 3d c3 47 b4 3d
       -0.020238593 0.06874682 0.08640015 0.0880275
000370 4c af 62 bd 47 1e 03 bc fd 9b 0e 3d 2e 46 bd bd
       -0.055342957 -0.008002824 0.03481673 -0.09241901
000380 ec a2 d3 3c e3 56 ad 3d 18 2a 88 3d b5 1b 96 3d
       0.025834523 0.08463838 0.06648654 0.073295034
000390 22 c5 14 bc 1f 5e b2 3c 5c 4a 9a bd 0b 5f c6 3d
       -0.009080203 0.021773396 -0.07533714 0.09686097
0003a0 e6 9d c3 3c a9 f3 61 bd db b1 9e 3d af dd b7 bd
       0.023879003 -0.055164013 0.07748767 -0.0897783
0003b0 f2 d2 d6 3c fa a9 c0 bd e2 32 c1 3d 8f 78 e5 bc
       0.026223633 -0.094074205 0.09433533 -0.028011588
0003c0 14 e2 3a bd d1 d1 9a 3d 90 48 c2 bd 14 b3 47 bd
       -0.04562576 0.075595506 -0.094864964 -0.048754767
0003d0 46 47 51 3c 98 ae 01 bd 5c 1e d7 3d 52 4d 6e bc
       0.012773341 -0.031660646 0.105038375 -0.014544802
0003e0 b6 cf 57 3d 43 ad 9e 3c e9 e7 a4 bd 75 7a d9 bd
       0.052688323 0.019369727 -0.08052046 -0.1061906
0003f0 aa 1e c2 bd cb f1 2c 3c 0b 7a 17 bd 39 07 b0 3d
       -0.09478505 0.010555695 -0.036981624 0.085951276

fc2.bias f4 [64]
000000 45 82 de bd e0 99 01 bd 0b 55 ff bc b5 e2 c9 bd
       -0.10864691 -0.031640887 -0.031168481 -0.09857694
000010 db f8 d4 3d 77 7c bb 3d 01 9b bb bd 87 f2 46 3c
       0.10399028 0.09154599 -0.09160424 0.012142784
000020 d5 6e 5d 3d d1 05 60 bd 9f 38 7e bd c2 a0 98 3d
       0.054060776 -0.054693047 -0.062065717 0.07452537
000030 55 d7 81 3c 4e 16 0a bd b4 48 b2 3d 97 cf 3c 3d
       0.015849749 -0.033712678 0.08705273 0.04609641
000040 86 51 b7 3d 91 c4 b7 3d b5 2c e3 bc 9b 26 a3 bc
       0.08951096 0.08973039 -0.027731279 -0.01991587
000050 82 64 93 3d 10 72 d0 3d 48 9f 6c bd 1d a1 89 3d
       0.07196905 0.10178006 -0.05776909 0.06720183
000060 e7 a4 74 3d 50 e6 33 3d 41 e7 a2 3d 57 9b 0d bc
       0.059727576 0.043920815 0.079542644 -0.008642993
000070 b9 10 b4 bd 4a 46 df bd a8 81 de bd cd 02 3a bd
       -0.08792252 -0.109020784 -0.10864574 -0.045412827
000080 42 ff 08 bd 90 2a a6 bd 6c 81 cb 3d dc 33 0a 3d
       -0.033446558 -0.08113587 0.09936795 0.033740863
000090 34 48 da bc 50 2e e4 39 a3 c4 e4 bc 06 78 0a bc
       -0.026645757 0.00043522054 -0.027925795 -0.008451467
0000a0 63 c5 60 3c b3 b4 d3 3d a7 3e 04 bd cb ae 98 bd
       0.013718936 0.103372 -0.032286312 -0.07455214
0000b0 8d aa 8e 3d d6 61 98 bd b2 b5 14 3c 0d 17 0b 3d
       0.06966124 -0.07440536 0.009076523 0.03395753
0000c0 5d 5d 1f bc b1 2e 5c bd a8 4d b8 bc 11 09 a0 bd
       -0.009726849 -0.053755466 -0.022497967 -0.07814229
0000d0 36 1d c1 bd f8 f7 76 3d b4 e4 a9 3d b7 36 b8 3c
       -0.094294 0.060295075 0.08295575 0.022487028
0000e0 b8 f4 66 bd 64 85 c7 ba 17 35 96 3d 3a 35 93 bd
       -0.056385726 -0.0015222249 0.07334345 -0.071878865
0000f0 46 fb b8 bd 3d 80 c8 3d d1 48 e7 bc 19 fe 68 3c
       -0.090323016 0.097900845 -0.028232964 0.014220738

fc3.weight f4 [42, 64]
000000 80 8a d6 3d 28 7b 9b 3d 80 66 3f 3b d2 05 df bd
       0.104756355 0.075918496 0.0029205382 -0.10889782
000010 80 9a a2 3a 0a 29 ac bd 00 29 bb bc 90 78 8c bc
       0.0012405664 -0.08406265 -0.022846699 -0.017147332
000020 50 ff e3 3d e0 14 2d 3d 90 6c 36 3c b0 55 0a bd
       0.11132681 0.042256236 0.011134282 -0.033773124
000030 fe ba dc 3d 2c 89 a5 3d 5e 93 9f bd 0c d6 ec 3d
       0.107778534 0.08082804 -0.0779178 0.11564264
000040 d0 14 25 3c f4 cc 1e 3d aa 9c ea 3d 94 96 da 3d
       0.010075763 0.038769677 0.114556625 0.10673252
000050 38 a7 80 3d 7c 11 73 3d b8 35 f6 3d a4 ac 82 bd
       0.062818944 0.059342846 0.12021965 -0.06380585
000060 c4 4a 47 3d cc 9f 55 3d c4 2d 4d 3d 84 32 3b bd
       0.048655286 0.052154347 0.050092474 -0.045702472
000070 92 3e ab bd da 3a f4 3d 9c 0d f5 bd 3e 07 c1 3d
       -0.08361544 0.119252875 -0.119654864 0.094252095
000080 5c 07 3e 3d e6 93 d0 3d e2 2f ff bd 80 66 fb bd
       0.046393737 0.101844594 -0.12460305 -0.1227541
000090 34 4e 0e bd 6c df 46 3d 86 bf d5 3d b8 f2 a9 bc
       -0.03474255 0.048552915 0.10436921 -0.02074562
0000a0 b8 24 d3 3c 1e 50 8e bd a2 04 ef bd 3c f6 33 bd
       0.025774345 -0.06948875 -0.116708055 -0.043936
0000b0 a0 a4 d1 3c 5e f5 95 3d c4 6f 31 bd ae ec b2 bd
       0.025591195 0.07322191 -0.04331948 -0.08736549
0000c0 3a eb ce 3d 94 23 e7 3d 80 fa 10 3b 7c 79 9a 3d
       0.1010346 0.11286083 0.0022121966 0.075427026
0000d0 58 ef 60 3d 7e 29 aa 3d 72 a0 b6 3d d2 b6 96 3d
       0.054915756 0.08308695 0.08917321 0.07359089
0000e0 98 f3 42 bd 9c e3 de bd 3e 34 f9 bd 00 3a b7 3b
       -0.04759559 -0.10883257 -0.121681675 0.005591631
0000f0 1e 52 e4 bd a0 52 9d bc 76 fc c8 3d 92 06 a6 bd
       -0.11148475 -0.019204438 0.09813778 -0.08106722
000100 8e 67 cc bd f0 17 bf 3d 80 62 fd bd ac 8d f4 bd
       -0.09980689 0.093307376 -0.12372303 -0.11941084
000110 20 b3 ab bc 2c bc f0 bd 14 a1 f1 bd ce 39 c3 3d
       -0.020959437 -0.11754641 -0.11798301 0.0953251
000120 68 54 a6 bd 3c 47 38 bd da a9 cb 3d ee 40 b4 bd
       -0.08121568 -0.04498981 0.09944506 -0.08801447
000130 9c c7 11 3d 00 59 16 bd 04 f1 bd 3d 68 8a 15 3d
       0.035590753 -0.03670597 0.09274486 0.036508948
000140 9c 81 df bd 40 c8 c8 3c d4 f2 96 3d 1c e9 7b bd
       -0.10913393 0.02450955 0.073705345 -0.061501607
000150 48 36 95 bc f0 df 8d 3d 2c e4 b9 bd 58 33 fb 3c
       -0.01821436 0.06927478 -0.090767235 0.030664131
000160 20 0b 17 bd d6 4a a1 3d a0 1a 29 3c 78 4b 86 bc
       -0.036875844 0.07875602 0.010321289 -0.016393408
000170 98 54 d1 3d 10 b2 f5 3d 7a 2c fa 3d 5c 20 ab 3d
       0.10221213 0.11996853 0.122155145 0.083557814
000180 80 c2 1d bb 5a 8f f8 bd 00 05 65 ba 34 f1 44 3d
       -0.002407223 -0.12136717 -0.0008736402 0.04808159
000190 7c eb 15 bd 98 07 69 bd 2a 81 97 3d 8a 99 9a bd
       -0.03660153 -0.056892008 0.07397683 -0.075488165
0001a0 a8 2a fe 3d b2 5e 85 bd c8 9c 7f bd 80 2d b2 3c
       0.1241048 -0.06512202 -0.062405378 0.021750212
0001b0 40 48 1a 3d 32 ed 9c 3d 84 70 7b bd 9c 08 9f 3d
       0.03766656 0.07662429 -0.0613866 0.07765314
0001c0 c8 78 9a 3d 06 5f 96 bd b2 ce c2 bd 4c e9 22 bd
       0.075425684 -0.07342343 -0.0951208 -0.03977327
0001d0 c0 7f 54 bb a2 c8 d8 3d 30 1b cb 3c 06 fa e0 bd
       -0.0032424778 0.10585143 0.024793237 -0.10985188
0001e0 9a 24 cc bd fc f4 8d bd a0 39 98 bc fe 5c fa bd
       -0.09967919 -0.06931493 -0.018582165 -0.12224768
0001f0 e8 5b ad bd 28 63 ce bd be 75 e3 3d 7c 23 a9 3d
       -0.08464795 -0.10077506 0.11106442 0.08258721
000200 94 b6 ae bd b6 a6 89 bd ac 2d 85 bd 40 b8 03 bc
       -0.08530918 -0.06721251 -0.06502852 -0.008039534
000210 8e 2c b1 3d 16 4f e9 bd b8 53 d8 bc 7e 30 d4 bd
       0.08651076 -0.113920376 -0.026407108 -0.10360812
000220 30 60 39 bc 68 ba 7a 3d 14 75 db bd 84 0e de 3d
       -0.011314437 0.061212927 -0.1071569 0.108426124
000230 fc 38 77 3d 80 50 ac 3b d8 43 88 3d ac 66 8f bd
       0.06035708 0.00525862 0.06653565 -0.07002005
000240 40 9e a2 3c d4 4a bf bd 60 6a 80 bd 00 d8 86 3d
       0.01985085 -0.09340444 -0.062702894 0.065841675
000250 e6 31 b0 bd 82 96 e8 bd 5e a4 8f bd 3e ea cd 3d
       -0.08603267 -0.11356832 -0.070137724 0.10054444
000260 f0 38 be bd 70 5c b1 3c 10 1b 9f 3c 20 a8 99 bc
       -0.09288204 0.021650523 0.019422084 -0.018756926
000270 80 d7 0d bc 90 4a ba bc 92 da d3 3d 14 ff 3c bd
       -0.008657336 -0.022740632 0.10344423 -0.0461417
000280 e8 bb fa bc e2 3c bb 3d 00 02 ed 3d 80 cc 0d bc
       -0.030607179 0.09142472 0.11572647 -0.008654714
000290 80 13 7b bd 80 5f cf bc 4c 3b 95 3d 00 db 5d 3d
       -0.061297894 -0.025314093 0.072867006 0.054163933
0002a0 de 2e e8 bd b0 a5 31 bd 60 0b a1 bd c6 df e7 3d
       -0.11337064 -0.043370903 -0.07863498 0.11321978
0002b0 6c 29 d0 3d 7a ea d2 bd d8 81 66 bd 00 ba 7e 3c
       0.101641506 -0.10298629 -0.056276172 0.015547276
0002c0 4c 54 7b 3d b0 fc 2b bc 00 aa 53 3a a0 88 57 3c
       0.06135969 -0.010497257 0.0008074343 0.0131551325
0002d0 a4 47 45 bd e0 0f 08 3c 20 e4 14 3d 7c 06 68 bd
       -0.048164025 0.008304566 0.03635037 -0.05664681
0002e0 1e fa 9b bd cc 84 05 3d 90 78 5d bc 56 d7 c0 3d
       -0.076160654 0.032597348 -0.013517514 0.09416072
0002f0 a0 f5 95 3c 4c 1e 25 3d 80 68 8a bc 00 dd af 3a
       0.0183056 0.040312096 -0.016895533 0.0013417304
000300 2c 2e 7b bd 00 92 6d bb 88 46 3b bd c0 69 37 bd
       -0.06132333 -0.0036250353 -0.04572156 -0.044778585
000310 e8 3e b5 bd 0a a6 b9 3d d6 0d b8 3d c0 3d 32 3d
       -0.08849889 0.090648726 0.08987014 0.04351592
000320 7e 22 d0 bd f0 fb 4b 3c b8 9f ce bd 52 5d b2 bd
       -0.10162829 0.012450203 -0.10089058 -0.08709206
000330 10 f2 ea 3d fe cc 9b bd f8 b8 ae bd 24 3b e8 bd
       0.11471951 -0.076074585 -0.08531374 -0.11339405
000340 88 2c ea bc 08 6d d0 3d 4c 26 7c bd ce f7 f1 bd
       -0.028585687 0.10177046 -0.06155996 -0.11814843
000350 c0 5e 5d bc b4 bd 72 bd 7c 8b 4e bd 08 6a 0c 3d
       -0.01351136 -0.059262946 -0.05042599 0.034280807
000360 18 7d 3a bd 4c c6 94 3d 64 76 97 3d dc 19 d1 3d
       -0.045529455 0.072643846 0.07395628 0.102100104
000370 1a 1c c8 3d f4 b7 8c bd c4 78 f0 3d 20 25 5f 3c
       0.09770985 -0.06871024 0.11741784 0.013619691
000380 c0 cc 88 bc 94 f5 9e bd 46 ac b5 bd 3c 17 c4 bd
       -0.016699195 -0.07761684 -0.08870749 -0.09574744
000390 16 8d d4 bd c0 c5 23 bb c2 ee a8 bd 40 5c 36 3c
       -0.103784725 -0.0024989694 -0.082486644 0.011130393
0003a0 1c 3a 39 3d 30 4f 0b bd 32 cf c9 bd 70 cb dd 3d
       0.045221433 -0.034011066 -0.098539725 0.10829818
0003b0 f0 de d6 3d c6 b6 fb bd 36 41 83 3d be 5d a2 bd
       0.10491741 -0.12290721 0.064089224 -0.07928036
0003c0 9e c7 b9 3d 90 18 81 bc b0 7f 5f bd 80 7f 96 3a
       0.09071277 -0.015758783 -0.05456513 0.001148209
0003d0 94 91 ae 3d c2 2f 93 bd 16 67 96 bd b0 29 d6 3d
       0.085238606 -0.071868435 -0.07343881 0.1045717
0003e0 10 a6 d8 3c f0 e1 a5 bc d8 1e d7 3d a6 7c a0 bd
       0.026446372 -0.020249337 0.1050393 -0.07836275
0003f0 fe f5 b4 3d 00 e4 47 ba 7c 90 fc bd 1c 74 0e 3d
       0.08835982 -0.0007625222 -0.12332246 0.0347787

fc3.bias f4 [42]
000000 88 8c d7 bd c0 2c cd bb 00 1f a6 bc 90 bc 73 3d
       -0.10524851 -0.006261438 -0.020278454 0.059506
000010 40 9e 8b 3b 90 6f 1c 3c be ff 8a bd 0e 62 df 3d
       0.004260808 0.009548083 -0.0678706 0.10907374
000020 f0 fc f7 bc 00 6c 2c 39 1c ab 7c 3d d8 0f af 3d
       -0.030271977 0.00016443431 0.06168662 0.08547944
000030 e8 b7 0b bd 32 89 c4 3d 00 97 71 bb d4 36 7f 3d
       -0.034110934 0.095964804 -0.0036863685 0.062308148
000040 98 f9 bd bc 0c 7e 27 bd 68 7d ea 3d b2 12 8a 3d
       -0.023190305 -0.040891692 0.114497006 0.06741847
000050 72 f5 e9 bd f0 b8 31 3c 34 e5 4f bd 68 0f 70 bd
       -0.11423768 0.010847315 -0.050755695 -0.058608443
000060 78 62 64 3d 0e 7b 9a 3d dc 80 a6 3d 3c dd 10 bd
       0.05575797 0.07543002 0.08130047 -0.035367236
000070 44 a0 33 bd 08 1b 9e bd 1c 27 15 bd 74 4d a6 bd
       -0.043854013 -0.077199996 -0.03641425 -0.08120242
000080 10 35 c6 3d 38 ed 08 3d da 8f fd 3d ea da b0 bd
       0.096780896 0.033429354 0.12380953 -0.086355045
000090 60 ff e2 3b 28 50 fb bd 20 3c a5 bd 56 61 af bd
       0.0069274157 -0.12271148 -0.080681086 -0.08563487
0000a0 00 c2 a9 ba 14 34 da bd
       -0.0012951493 -0.10654464
