models/DQN/6/dqn_agent_target_weights.pth (torch, 49906 bytes, 6 tensors)

fc1.weight f4 [84, 42]
000000 76 ae 9e 3d de d6 df 3c 0f 3c e3 3b 6d cc f6 3d
       0.077481195 0.027324136 0.00693465 0.1205071
000010 d6 bb 17 be bb 79 02 be 87 e7 f3 3d f1 5f 76 bd
       -0.14817747 -0.12741749 0.11909395 -0.06015009
000020 df dc 13 3d 33 13 d5 3c f5 17 ef 3d 19 be be 3d
       0.03609931 0.026010131 0.11674491 0.09313602
000030 85 5c f5 bd 5e 92 05 be 97 df 49 bc 3b f5 d9 3d
       -0.11980537 -0.13044116 -0.012321374 0.10642477
000040 ff fd c8 ba 8c f5 4c 3c 2c 89 3f bd ac fc 42 3c
       -0.0015334486 0.012509715 -0.046761677 0.011901062
000050 bc a8 a5 3c 7a 70 1d 3e 5a 85 d2 3d 47 4d 53 3d
       0.02022206 0.15374938 0.10279341 0.05158737
000060 fc d2 1d be 3f e3 92 3d 1c cb 0d be 70 32 68 bd
       -0.15412515 0.0717225 -0.13847011 -0.056688726
000070 bc 07 b3 3d 12 62 86 bd d7 cb 17 be 69 b1 c4 bd
       0.087417096 -0.06561674 -0.14823852 -0.09604151
000080 6c 5a 8e 3d b2 af 6d 3d 27 90 fd 3d fc 92 c1 bc
       0.0695084 0.058028884 0.123810105 -0.023629658
000090 7b ff 15 3e 78 2f 97 3d 1a ce 9f 3c e1 ec 81 bd
       0.1464824 0.07382101 0.019507457 -0.06344009
0000a0 50 38 8e 3d 86 63 d8 3c de 1d ba bd 33 d7 13 bd
       0.069443345 0.026414644 -0.09087728 -0.0360939
0000b0 c4 11 9d 3d e7 b1 e6 3d 08 30 ae bd 37 66 3a bd
       0.07669404 0.11264401 -0.08505255 -0.045507636
0000c0 8d 35 3e bd 59 71 8c bd 56 32 a6 3c 44 e4 84 bd
       -0.04643779 -0.06857557 0.020287674 -0.06488851
0000d0 8d 2d 8c 3d 12 ec 13 3e cc 61 f9 3d 14 d6 20 bc
       0.068446256 0.14445522 0.121768564 -0.009816665
0000e0 1d a7 03 3d 9b 2c 1a 3e 95 bc 01 be b8 16 12 3d
       0.032141794 0.15056078 -0.12669595 0.035666198
0000f0 c7 c6 d7 bd 44 97 a8 3b 0e b9 9a bd 23 e6 e3 3d
       -0.10535961 0.0051449854 -0.07554828 0.111278795
000100 4b fa 14 3d f8 35 ef 3d 7e 3b 88 bc 81 23 f5 3d
       0.03637151 0.116802156 -0.01662993 0.119696625
000110 fc 58 10 3e 63 b3 d5 bd b6 52 c8 bd 0a e4 1a 3e
       0.14096445 -0.10434606 -0.09781401 0.15126052
000120 9d 3a f3 bd e4 3d 34 bd af ad ea 3d 9f a4 e8 3d
       -0.11876414 -0.044004336 0.11458909 0.11359524
000130 6f 6e 16 be 4c 80 48 3d f2 8a e4 3d f6 a3 fc 3d
       -0.14690565 0.04895048 0.11159314 0.123359606
000140 2e af 06 3e 7d fd 03 be 60 4b 5f 3d 5f 6c 8b 3d
       0.13152763 -0.12889667 0.054515243 0.068077795
000150 55 d5 70 bd f0 65 9e 3d c9 f7 08 be a1 3b 77 3d
       -0.0587972 0.07734287 -0.13375773 0.0603596
000160 31 d6 dd bc 74 4e b2 3d f4 f8 95 3d 3e 84 9c bd
       -0.027079673 0.0870637 0.07322875 -0.07642411
000170 42 76 d2 3b 66 3c 91 3c da 81 d9 3d d1 62 0e 3e
       0.006422789 0.017728996 0.1062047 0.13904883
000180 db f5 11 be f0 db 1b be 71 f1 da 3d e5 0e a4 bd
       -0.14253943 -0.15220618 0.106905825 -0.080106534
000190 96 b5 f0 3d 70 0e f9 bd 85 01 ac 3d 5c 0a 4b 3d
       0.11753385 -0.12160957 0.08398727 0.049570426
0001a0 6a 44 87 bd dc de d0 bc 7b 33 5d 3d 67 c2 0a 3e
       -0.06604846 -0.025496893 0.054004174 0.13550721
0001b0 2c 9e 85 3d 19 9b 89 bd d9 08 17 3e 74 00 02 3e
       0.065243095 -0.06719036 0.14749469 0.12695485
0001c0 6a 58 90 bd 56 a5 97 bc c0 78 b3 bb 11 48 07 3e
       -0.07048114 -0.018511456 -0.005477041 0.13211085
0001d0 d5 59 79 bd 40 03 43 bd 2c 40 c1 3d 65 cb 18 3e
       -0.060876686 -0.04761052 0.09436068 0.14921339
0001e0 fa 93 16 be b7 40 64 3d 07 08 83 3d 25 4d 16 3d
       -0.14704886 0.05572578 0.063980155 0.036694665
0001f0 a8 21 87 3c c8 2d 04 3e a5 7a 8d bd 6e 18 04 bc
       0.01649554 0.12908089 -0.06908158 -0.008062465
000200 1e 14 a7 bd 0b 04 26 bd e4 be ab 3c 80 9c fc bc
       -0.08158134 -0.0405312 0.020965047 -0.030836344
000210 c4 4b 0d 3e fe c5 a8 3d ed 26 9e bc 6c df 12 3e
       0.13798434 0.08240889 -0.01930567 0.14343041
000220 be 15 62 3d 06 43 fa 3d f8 15 de bd 27 43 96 bd
       0.055196516 0.12219815 -0.10844034 -0.07337027
000230 1f c6 bd 3d 6f 2b df 3b bd 62 ca 3d b2 08 99 3b
       0.09266304 0.0068105976 0.09882114 0.004670226
000240 ab 4c c5 3d 12 50 60 bd b3 8b 19 3e 8b cc e4 3d
       0.09633764 -0.05476386 0.14994697 0.11171826
000250 bb c0 bf bd 76 a0 06 3e 51 6d 28 bd 3e a9 53 3d
       -0.09362932 0.13147148 -0.041119877 0.051675074
000260 58 e6 18 bd 98 6e 34 3d ad c5 13 be 8d 14 bc bd
       -0.037329048 0.044050783 -0.14430876 -0.09183607
000270 f5 38 20 bd 48 4f 79 3d 4e cf a9 3d 6f 73 09 be
       -0.03911682 0.060866624 0.08291493 -0.1342294
000280 2e 1f 5e bc 66 f0 12 3e f2 75 71 3d 7a c9 58 3d
       -0.0135572385 0.14349517 0.058950372 0.052926518
000290 b4 03 0f 3e c7 4b ac bd df 30 0f be 56 46 8b bc
       0.13966256 -0.08412891 -0.13983487 -0.017001312
0002a0 ca 84 84 bd 90 a9 ae 3d fe 8d 2f 3d a0 83 6d 3d
       -0.0647064 0.08528435 0.042860024 0.057986856
0002b0 29 06 fa 3d f0 2b 11 be cb 5a 06 be 7a 51 76 3d
       0.12208206 -0.14176917 -0.13120572 0.060136296
0002c0 e9 11 a8 bc b3 f8 ca 3d 9e b7 1a 3e 01 53 e1 bd
       -0.020516353 0.09910717 0.15109107 -0.1100216
0002d0 71 64 28 3d 22 ed f9 bd 5e 9b 2e bd 3f f4 ed 3d
       0.041111413 -0.122034326 -0.04262864 0.11618852
0002e0 f8 e9 b6 3d be e0 3b bc 6e 22 12 be da 3b b2 bd
       0.08931345 -0.011467157 -0.14270946 -0.08702822
0002f0 91 8e 1a be 74 7c 90 bd 07 4e f2 3d 70 95 09 be
       -0.15093447 -0.070549875 0.11831289 -0.13435912
000300 b4 7a ed 3d c0 70 4a 3d 74 f7 ce bd 03 62 95 bd
       0.115956694 0.049423933 -0.10105792 -0.07294085
000310 be bb 13 be da 89 ef 3c 70 b3 82 3d 22 ce af 3d
       -0.14427087 0.029240537 0.06381881 0.085842386
000320 d5 ec d8 3d 55 91 a1 bd f2 01 4f bc c7 d3 89 bd
       0.10592047 -0.07889048 -0.012634741 -0.067298464
000330 9a 7f 65 3d e1 d6 16 3c ae e9 e0 bb 39 ed d4 3d
       0.056029893 0.009206505 -0.0068637943 0.10396809
000340 4a dc 02 3e 53 45 25 bd 86 02 12 bc 18 2c a0 bd
       0.12779346 -0.040349316 -0.008911734 -0.0782091
000350 e8 6a 84 bd 73 8f f4 bd bc 02 9b bc ab ae 81 3d
       -0.06465703 -0.11941423 -0.018922202 0.063321434
000360 a5 4e a9 bd 0c 19 ff bd 80 1a 61 bd ed 1e 91 bc
       -0.082669534 -0.12455949 -0.054956913 -0.017714942
000370 70 59 e8 3c f7 de 89 bc 9f 2d 11 be e4 80 a1 bd
       0.02836296 -0.01682995 -0.1417756 -0.07885912
000380 a7 4b 0b 3e 0a 47 30 bd 37 b9 10 be 11 ff 74 3d
       0.13603078 -0.043036498 -0.14133154 0.059813563
000390 ab 5e 14 3e 9f 24 0a 3e 91 50 8d bd f3 75 64 bd
       0.14489238 0.13490532 -0.069001324 -0.055776548
0003a0 3d d3 34 bc 1a bb 90 3d 6f 37 32 3d 8d 63 fc 3d
       -0.011036691 0.07066937 0.043509897 0.12323675
0003b0 20 74 ae 3d b3 72 0b be e2 de 01 3e f4 62 0a be
       0.08518243 -0.13617973 0.1268268 -0.1351431
0003c0 ec 06 16 be 91 33 ee 3d 82 5c 42 3c db 8f d7 3c
       -0.14651078 0.11630929 0.011862876 0.026313713
0003d0 1a 0f 17 3e fb 98 70 3d 1d c6 4e bd 41 d7 42 bc
       0.14751855 0.058739644 -0.050481904 -0.011892141
0003e0 14 bd 13 3e f0 b5 07 be d0 06 0f 3e 37 e4 15 bd
       0.14427596 -0.13252997 0.13967443 -0.036594596
0003f0 63 11 fa 3d 9b e8 08 3e e3 7a 40 bd a7 d6 80 bb
       0.122103475 0.13369982 -0.046992194 -0.0039318386

fc1.bias f4 [84]
000000 6a 19 9d bd c8 be 81 bd d8 62 d2 3d 95 a9 c1 3d
       -0.07670863 -0.06335217 0.10272759 0.09456173
000010 d8 87 13 3e de a8 95 3d 94 e8 f6 bd ee bf ec bc
       0.14407289 0.073075995 -0.120560795 -0.028900113
000020 52 d9 15 bd d0 06 1c bd 92 56 da bd f4 a2 00 3e
       -0.036584206 -0.038092434 -0.10661043 0.12562162
000030 31 ec 43 bd 6e 55 1b 3e 2c 42 07 3e fd e5 fb 3d
       -0.04783267 0.15169308 0.13208836 0.12299726
000040 be 13 26 bd 87 7e c5 3d 1e f9 2d bd 70 a0 3b 3d
       -0.04054617 0.09643274 -0.042473905 0.045807302
000050 ff 0b cd bd 6f 26 9d 3d 51 a2 09 be ae 8e c5 3d
       -0.10012054 0.07673346 -0.13440825 0.096463546
000060 b7 7c 1b be 18 13 bd bd 78 39 01 be 9d 1e c0 bd
       -0.15184294 -0.092321575 -0.12619579 -0.09380839
000070 44 cd c1 3d 27 02 1d bd a7 63 a6 3d 15 59 53 3c
       0.094629794 -0.03833213 0.08124476 0.012899657
000080 a5 b5 9f bc 39 31 3b 3c d3 fd a5 3d 75 2b 03 be
       -0.019495795 0.01142531 0.08105054 -0.12809546
000090 32 74 ac 3d 80 0b a3 3d fc 08 22 3c c0 2b fe 3d
       0.084206 0.07961178 0.009889837 0.124106884
0000a0 16 3e 1a be bc 8d ea 3d e1 8d 12 3d 85 d0 ce bd
       -0.15062746 0.11452815 0.035779838 -0.10098366
0000b0 90 73 b3 3d b7 89 85 bd 15 0b 31 bd a2 bc 6a 3d
       0.08762276 -0.06520408 -0.04322346 0.0573088
0000c0 40 d4 03 be b2 1a 1c 3e 5f 48 d4 3d 08 5d f4 bd
       -0.12873936 0.15244558 0.10365366 -0.11931807
0000d0 18 cf c5 bd 5e 59 d7 3d 86 d6 08 be 45 52 03 be
       -0.096586406 0.10515092 -0.13363084 -0.12824352
0000e0 df a5 8b bd 3b de 1b bd ed 00 97 3d 11 ad 0f 3e
       -0.06818747 -0.038053732 0.073732235 0.14030863
0000f0 46 e8 99 bd bd c4 19 be d1 37 1b 3c 6f 0f c0 bd
       -0.07515006 -0.15016456 0.009473757 -0.09377944
000100 09 f2 8d 3d 79 5c b6 3d b7 46 09 be b3 3d e8 ba
       0.0693093 0.089043565 -0.13405882 -0.0017718583
000110 d5 ee d5 bd aa 91 1b 3e 3b 67 27 bd b5 41 5c bd
       -0.10445944 0.15192285 -0.040869933 -0.0537736
000120 95 23 15 be dc 79 6a 3c 0d 23 2e bd 06 ca 85 3d
       -0.14564355 0.01431128 -0.042513896 0.065326735
000130 2f 28 00 3e bb c2 90 3b 12 49 d6 bd 21 b4 5d 3d
       0.12515329 0.004417745 -0.10463156 0.054126862
000140 11 79 09 3e 89 70 1d be b5 16 2e bd 4b 36 f2 bd
       0.1342509 -0.1537496 -0.042502124 -0.11826762

fc2.weight f4 [64, 84]
000000 c4 ad 79 bb ff 57 de 3d 40 4b 92 bd 67 d9 c8 bd
       -0.0038097957 0.10856628 -0.07143259 -0.09807091
000010 aa 71 51 3b ef ee 03 3d 6e 96 e4 3c a6 8e b2 3b
       0.0031958618 0.032210287 0.027903762 0.005449134
000020 9c d3 ff bc 07 91 84 bc 9e c4 80 3d 56 f5 e1 bc
       -0.031228833 -0.016182436 0.06287502 -0.027582806
000030 2c 3f 9d 3c 1e 70 b0 3d 09 dc 84 3d 6c 23 bd bd
       0.019195162 0.08615135 0.06487281 -0.09235272
000040 0a 45 55 bd d6 ef 80 bd 27 4a b1 bd c9 fe a9 3c
       -0.052067794 -0.06295745 -0.086567216 0.020751374
000050 53 c7 2f bd ed b8 cd 3d 6d 9f be bd a7 1e 96 3c
       -0.0429147 0.100450374 -0.09307752 0.018325163
000060 6a 27 af bd df b6 97 3d fc 09 bd 3d 79 ae 94 3d
       -0.085524395 0.07407927 0.0923042 0.072598405
000070 34 e4 fc bc 23 c8 81 bc 23 95 99 bc 05 26 64 3c
       -0.030870534 -0.015842503 -0.018747872 0.01392508
000080 4b 17 99 3d 1b bd 65 3c 78 81 9b 3d e1 18 c6 3d
       0.07475146 0.014022137 0.075930536 0.09672714
000090 64 d3 c2 bd de 4b 68 3a 4c 1e a4 3d ff b5 d0 bd
       -0.09512976 0.0008861403 0.08013591 -0.10190963
0000a0 f0 a3 9c bb ef 36 c3 3d 8a c2 ba bd 84 7c 7a 3d
       -0.004780285 0.09531962 -0.09119137 0.061153904
0000b0 e4 0f b0 bd 52 87 c0 3c a4 45 c8 3b b4 15 ff 3a
       -0.08596781 0.023502026 0.0061118174 0.0019461424
0000c0 18 21 d6 bd 31 dc 23 3d a2 23 3d bd c7 ed 82 bc
       -0.10455531 0.040004913 -0.04617656 -0.015982522
0000d0 03 a4 dc bd e4 c8 53 3b 57 81 97 3c 09 d9 82 3d
       -0.1077347 0.0032315785 0.018494291 0.063890524
0000e0 fb 68 50 bd cc 85 7c 3c f2 34 9a 3d e6 b2 2a 3c
       -0.050881367 0.015412759 0.0752963 0.010418629
0000f0 c6 ad ab bd b5 ca bd 3c 61 7d 1d 3d d7 22 4f bd
       -0.08382754 0.023167947 0.03844965 -0.050570335
000100 3f e5 11 bd 9f 27 de 3c 27 32 18 3c fa f4 a5 3c
       -0.035619017 0.027118502 0.009289301 0.020258415
000110 f0 57 a3 bd 72 dd 75 3d 44 19 83 3d e4 73 0a 3d
       -0.07975757 0.06002564 0.064013034 0.03380193
000120 24 c6 37 bc ad 0e cc bd 88 57 a6 3c 1e 03 e0 3b
       -0.011216674 -0.09963737 0.02030541 0.006836309
000130 ea 75 ae 3d d3 04 4a 3c c0 47 3c 3d d0 e9 c9 3d
       0.08518584 0.012330252 0.045966864 0.09859049
000140 cf 43 4d 3d 68 7f 85 bd 29 d0 ce 3c e4 05 95 3c
       0.050113495 -0.065184414 0.025245743 0.018191285
000150 fb 4a d5 3d ac 1d 9d bd ce d2 4f bd 73 2f c2 bd
       0.10414692 -0.07671675 -0.05073815 -0.094817065
000160 c3 e4 c3 3d cf 7f 87 bd 27 77 bc 3d 3d 6e 68 3d
       0.09565117 -0.066161744 0.09202414 0.056745756
000170 99 ae 41 39 a3 09 41 bd c8 7c cc 3c 16 80 24 3d
       0.00018470957 -0.04712833 0.024961844 0.040161215
000180 ce ea 13 3d 98 72 6f bd 9b c3 89 3d 06 a3 0f 3b
       0.0361126 -0.058458894 0.06726762 0.0021917238
000190 44 ac a2 3b b9 48 bd bd 0f 39 41 bd b9 b0 ca 39
       0.0049643833 -0.09242386 -0.047173556 0.0003866011
0001a0 d1 32 c4 3d f9 89 24 3d 50 98 45 bd e0 5d 90 3d
       0.09580005 0.040170643 -0.04824096 0.07049155
0001b0 d6 d3 94 bc 89 98 bd 3d f6 5d c3 3c ee c8 c7 bd
       -0.018167417 0.092576094 0.023848515 -0.09755121
0001c0 69 cd 3c 3c a3 48 5b bd 21 fe 32 bd c9 a8 c8 bd
       0.011523583 -0.05353607 -0.043699387 -0.09797818
0001d0 79 4e 84 3d 3e d8 bf bd 0a 06 90 bc 60 d9 3a 3d
       0.0646028 -0.09367417 -0.017581005 0.04561746
0001e0 d9 73 7c 3d 2b 7a 92 3d 24 94 d8 bd a9 35 16 bd
       0.06163392 0.07152208 -0.105751306 -0.036672268
0001f0 a1 1c 9f bd 3b 79 34 3d 33 a8 42 bd 13 57 0a 3c
       -0.077691324 0.044060927 -0.04752369 0.008443612
000200 cf ee 6c 3c ea bc cf bd c5 6f 80 3d 8f 26 6f bd
       0.014461233 -0.101434544 0.06271318 -0.05838638
000210 91 b7 1b bd d3 33 c9 3d bb bc d1 bd a0 88 c6 bd
       -0.03801686 0.09824338 -0.102410756 -0.09694028
000220 6e c3 f8 3c bd d0 bb bd f6 2a 3c bd 4d 4c a5 bd
       0.030366626 -0.09170673 -0.04593941 -0.08071194
000230 82 6a 73 bd 79 d6 d4 3d 86 43 87 3d 21 00 31 bd
       -0.059427746 0.1039247 0.06604676 -0.043213014
000240 da 37 c1 3d 4f 61 b8 3d 67 30 94 3d cb df f0 bb
       0.09434481 0.09002935 0.072357945 -0.007350897
000250 85 7c fd bc df a5 ac bd f4 94 1f bc cf 68 df bc
       -0.030943165 -0.08430075 -0.009740103 -0.027271656
000260 f7 0b ce bd ae 0a b2 3d b6 20 b1 3d e6 2b 80 3b
       -0.10060876 0.08693443 0.08648817 0.003911483
000270 98 84 6c bc da c4 28 3d 25 e4 85 bd 36 48 a5 bd
       -0.01443591 0.041203357 -0.06537656 -0.08070414
000280 a6 40 d9 3c 57 10 a3 3d 3b ed cf 3d 8e 0f 7b bc
       0.026520085 0.07962101 0.1015267 -0.015323533
000290 3d 8e d9 3d 98 4f 2f bd f9 50 bd bd 2a d7 fc 3c
       0.10622833 -0.042800516 -0.0924396 0.030864317
0002a0 4f 39 37 bd 90 9b 2e bd 1b 0c 27 3d e4 be f2 bc
       -0.044732388 -0.042628825 0.04078303 -0.02963204
0002b0 4f ce a9 3d 2a 30 76 bb de 48 3d 3d 01 0b 2a 3d
       0.08291303 -0.003756533 0.04621207 0.0415144
0002c0 94 cb 71 3d 0a 89 5f bd e9 52 91 bd 64 e5 b4 bd
       0.059032038 -0.05457405 -0.07095892 -0.08832815
0002d0 23 ff 79 bd 08 33 38 bd 29 7a de 3d 3d 12 ba 3c
       -0.061034333 -0.044970542 0.10863144 0.022713775
0002e0 64 91 b1 3d 30 f8 c4 bd 19 b9 e4 3a 89 66 e3 3b
       0.08670309 -0.096176505 0.0017450183 0.0069397134
0002f0 1b 2e de bd 7a 6a 6f bd 9d c6 46 bd a4 78 00 bd
       -0.10848638 -0.058451153 -0.048529256 -0.031365052
000300 06 6e e7 bc 20 9b 8b bc 09 ef a4 bd 7d f6 03 bd
       -0.028250705 -0.017041743 -0.08053405 -0.03221749
000310 c5 9f 8d bd c1 6a d4 bd e5 ab e4 3c c2 c6 b8 bd
       -0.06915239 -0.10371924 0.027913997 -0.09022285
000320 a8 75 9e 3d 26 5f 7b 3b d8 2c 19 3d cd f1 dd bc
       0.07737285 0.0038356273 0.037396282 -0.027092839
000330 d6 5a d4 bd 47 39 27 bd 05 cb 2b bd 16 17 6c 3d
       -0.10368888 -0.04082611 -0.04194166 0.057639204
000340 25 f2 ab bd 1c 22 a8 3d 40 7a 8e 3d a4 6c 7a 3d
       -0.08395795 0.08209631 0.06956911 0.061138764
000350 65 50 94 bd f5 3c ee bc 98 4b 1a bd 8e 4c c1 3d
       -0.072418965 -0.029081801 -0.037669748 0.0943843
000360 f7 39 1d 3c 0c 33 5b 3d 6b 58 3b bc 08 c8 0d bd
       0.009596339 0.05351548 -0.011434655 -0.034614593
000370 89 1e 87 3d d1 20 82 bd 97 2c d6 bd 9b e0 cf bd
       0.06597621 -0.063539155 -0.104577236 -0.10150262
000380 19 f0 29 bd a4 aa 39 3c 88 e2 00 3d ef a3 bc bd
       -0.04148874 0.011332188 0.031466037 -0.09210955
000390 32 25 29 3c e7 37 c9 3d be ce cf 3d ac 56 21 3d
       0.010323809 0.09825116 0.10146855 0.039389297
0003a0 e5 00 7a 3d 0a e7 d7 3d 46 5a c9 bd 6a e1 00 bd
       0.06103601 0.10542114 -0.098316714 -0.03146497
0003b0 b3 ec d3 3d 9e 0e 11 bd ed 62 cb 3d 05 1a 8c bc
       0.10347881 -0.03541433 0.09930978 -0.01710225
0003c0 fd ee 5f bc c2 6f 93 bc 3f 37 34 3d 4b 61 4a bd
       -0.013667819 -0.017997626 0.043998 -0.049409192
0003d0 8e da 27 bd d6 4a c1 bd d1 03 8c 3c bc 69 b4 bd
       -0.040979914 -0.09438102 0.017091664 -0.0880923
0003e0 1b 4e 88 bc 39 02 98 3d eb de d7 bd f6 ac c1 3b
       -0.016638806 0.07422299 -0.10540565 0.005910511
0003f0 69 7e 05 3d 23 34 91 bd 4c 37 b5 3d d7 57 1a bc
       0.032591257 -0.070900224 0.08848438 -0.009420357

fc2.bias f4 [64]
000000 00 50 f5 bc 62 fc c8 3d ab 6e 73 bc 85 60 d6 3c
       -0.029945374 0.09813763 -0.014857928 0.026169071
000010 a9 78 89 3d 20 89 3a 3d c4 65 89 bd 9c 89 a7 bc
       0.06712467 0.04554093 -0.067088634 -0.02045136
000020 26 d0 bd bd 15 79 b7 3d 20 57 a9 3d 81 6d d5 3b
       -0.09268217 0.089586414 0.08268571 0.006513298
000030 c2 61 99 bd bb 6a b8 bd 0b 33 90 3d 8c c8 7b 3b
       -0.07489349 -0.09004732 0.07040986 0.0038419096
000040 4b d1 bb 3d 6c 07 6a bd e7 86 7c bd 8d 3f 2c bd
       0.09170779 -0.057135984 -0.06165209 -0.042052794
000050 f6 01 95 3c ac 7c 0b bd 6c be 6f 3d 92 cb 74 3d
       0.018189412 -0.034054443 0.05853121 0.059764452
000060 74 9c d2 bd 29 94 13 3d e0 cf 98 3d 23 6e d8 bd
       -0.10283747 0.03602997 0.07461524 -0.10567882
000070 a6 8a ec 3c 53 91 b3 bd 21 5b 6d 3d 53 b7 de bd
       0.028874706 -0.08767953 0.057948235 -0.1087481
000080 ac c3 2a bd ed 5f 09 3d c9 44 09 3d 93 85 2f bd
       -0.041690513 0.033538748 0.033512864 -0.042851996
000090 42 12 a3 bd a6 b2 dd bd 92 ea 8b 3d 18 ed a8 3d
       -0.07962467 -0.1082509 0.0683185 0.08248347
0000a0 1c 2e d8 bd 1e 0a dd bd db ff b2 bd 62 22 40 3d
       -0.1055567 -0.10792945 -0.08740207 0.04690779
0000b0 6e 4f 83 3c c2 bb 98 3d f9 1c be 3c b5 ce 6b 3c
       0.016029086 0.07457687 0.023207175 0.0143925445
0000c0 d9 d9 ad bd c1 f8 cd bd 5c ec a7 3d 49 96 c8 bd
       -0.08488817 -0.10057212 0.08199379 -0.097942896
0000d0 9e 59 a4 3d 87 ac be 3d 8d b2 dc bc b1 66 7b 3d
       0.080249056 0.09310251 -0.026940608 0.06137723
0000e0 4d 42 73 bd 67 63 1c 3d f4 2e c7 3d ce 98 49 bc
       -0.0593894 0.038180735 0.097257525 -0.012304498
0000f0 e9 f8 b5 bd a3 78 47 3d 98 b5 d9 bd 03 0e dd bb
       -0.088853665 0.048699033 -0.106303394 -0.006746055

fc3.weight f4 [42, 64]
000000 e0 7c fe 3b 4c a7 41 3d f0 4b f3 3d a4 fc a7 3d
       0.007766351 0.047278687 0.11879718 0.08202484
000010 f8 c0 43 3d 6c 2c 17 bd 94 49 1a bd 80 7a 71 3c
       0.04779145 -0.0369076 -0.037667826 0.014738679
000020 42 2c cc bd 3a b9 87 3d d8 c6 9d bc 30 d0 37 3c
       -0.09969379 0.06627126 -0.019259855 0.011219069
000030 e8 12 cb bd 44 ac 58 bd 9a dd 8b bd c4 3a 6a bd
       -0.099157155 -0.05289866 -0.068293765 -0.05718495
000040 80 dc 55 bb b4 fb 80 bd 9c f2 ee 3d 8c 2b e2 3d
       -0.003263265 -0.062980086 0.11667368 0.11043462
000050 64 91 c1 bd 6e 8f 8d bd 30 32 cf bc 70 7b 14 bd
       -0.09451559 -0.06912123 -0.025292486 -0.03625053
000060 64 76 de bd 30 2d 3b 3c d0 a0 4b bc 24 6b 1c 3d
       -0.10862425 0.011424348 -0.012428477 0.038188115
000070 e0 99 d3 bd 10 8a 7e bc 30 cd 1f bc 46 f4 ec bd
       -0.10332084 -0.015535846 -0.00975351 -0.11570029
000080 92 c9 af bd b0 67 2e bd b4 66 0b bd 10 0b f5 3d
       -0.08583368 -0.042579353 -0.034033492 0.11965001
000090 a0 fc 99 bb b4 09 2a bd f2 8d c5 3d 78 94 9c 3c
       -0.0046993047 -0.04151316 0.096462145 0.019113764
0000a0 c0 ce b4 bb c0 bb 1f 3c 7c 2b 24 3d 26 32 90 3d
       -0.0055178106 0.009749353 0.040080532 0.07040815
0000b0 90 9f a1 bd 64 c1 6b bd 54 f8 94 3d 64 b2 c4 3d
       -0.07891762 -0.05755748 0.07273927 0.09604338
0000c0 30 2e 14 3c 40 3f 8a 3c c0 ac b4 bb 40 8a 95 3d
       0.009044215 0.016875863 -0.0055137575 0.0730176
0000d0 30 8a 4d bd bc e5 9c bd 54 88 1c 3d f2 a8 f0 bd
       -0.050180614 -0.07661006 0.03821595 -0.11750974
0000e0 0c 4b 17 3d 62 37 87 3d fa 81 e8 bd ec 1a be bd
       0.036936805 0.0660236 -0.11352916 -0.09282479
0000f0 b4 83 43 bd 30 0b af bc ec ff 15 bd 48 b6 c5 3c
       -0.047733024 -0.02136764 -0.03662102 0.02413477
000100 40 82 f7 bd 3e dd 83 bd 40 8a 42 3b 88 8f cc bc
       -0.1208539 -0.06438683 0.0029684454 -0.024970785
000110 ec 31 74 bd 20 f5 fb 3d be e8 d1 3d 62 40 cc bd
       -0.05961792 0.12302613 0.1024947 -0.099732175
000120 98 1c e3 3c 14 ab f4 bd 3a 77 d0 3d f0 1e 8a 3c
       0.027723595 -0.11946693 0.10178991 0.016860455
000130 98 97 8c 3d e0 81 68 3c 44 dd 86 3d 00 e1 2b bc
       0.06864852 0.014191121 0.06585172 -0.010490656
000140 fc ff 40 bd c2 c6 f0 3d 28 68 ae bc 1e 34 a0 bd
       -0.047119126 0.1175666 -0.0212899 -0.078224406
000150 60 98 a2 bb a8 7d 0a 3d 80 05 93 3c ee 02 8d 3d
       -0.004962012 0.03381124 0.017946959 0.068853244
000160 48 f2 86 3d a8 43 12 3d 44 3d c4 3d 50 75 58 3d
       0.0658918 0.035709053 0.09581998 0.052846253
000170 08 02 bd bd 60 50 f7 3b 58 1a e4 bd 48 c5 1d bd
       -0.09228903 0.0075474232 -0.11137837 -0.03851822
000180 80 71 f5 bb ac a4 ae bd d0 b0 64 3c 30 0b ba 3d
       -0.007490337 -0.085275024 0.013958171 0.09084165
000190 66 2e aa bd 0c b4 b3 3d 00 54 73 bd 14 76 83 3d
       -0.08309631 0.087745756 -0.05940628 0.06419006
0001a0 7c 70 75 3d 0e 0d d7 bd f8 1d 86 3d 48 b4 a5 3c
       0.059921727 -0.10500537 0.06548685 0.020227566
0001b0 e0 6f 38 bc 86 10 f9 bd 04 94 9a bd 14 f8 f4 bd
       -0.011257142 -0.12161355 -0.07547763 -0.1196138
0001c0 04 17 e7 3d 10 f4 f2 bd 98 49 91 3d c0 72 4f 3c
       0.11283687 -0.118629575 0.07094115 0.012661636
0001d0 28 61 f1 bc ae e9 fd 3d 90 59 b4 3c 04 b5 78 bd
       -0.029465273 0.123980865 0.022015363 -0.060719505
0001e0 16 7a 90 bd da d5 d2 3d 90 06 fe 3c 80 0c 99 3a
       -0.07054536 0.10294695 0.031008989 0.0011676699
0001f0 dc c3 2f bd e0 84 82 3b c4 fc c6 bd a8 4a e4 3d
       -0.042911395 0.003983125 -0.0971618 0.11147052
000200 c2 fb 97 3d 26 ca 99 bd 60 10 7b 3d 00 69 77 3c
       0.07421066 -0.0750926 0.061294913 0.015100718
000210 68 84 5d bd 08 35 b4 3d 96 53 d9 bd 18 16 7c bd
       -0.05408135 0.087991774 -0.10611646 -0.061544508
000220 3c 01 a2 3d c2 bb 8f bd 78 24 c5 bc 22 2b bf bd
       0.07910392 -0.07018234 -0.024065241 -0.09334399
000230 a8 46 5a bd 60 b2 90 bb e0 b3 8f 3c 34 85 a0 bd
       -0.05329004 -0.004415795 0.017541826 -0.078379065
000240 24 33 76 3d 18 a5 d9 bd b4 37 41 bd 74 85 9d 3d
       0.060107365 -0.10627192 -0.047172263 0.0769147
000250 92 77 ac bd d8 a3 f6 3d c0 10 96 bb a0 98 05 bc
       -0.08421244 0.120429695 -0.0045796335 -0.008154064
000260 40 da d4 3b 34 59 1b bd 68 98 8b bd 54 90 b6 bd
       0.006495744 -0.037926868 -0.068161786 -0.08914247
000270 50 53 50 3d b2 67 97 bd a0 8f 9c 3d 40 9e 22 3d
       0.050860703 -0.07392825 0.07644582 0.0397017
000280 80 1f d4 ba ea 84 b4 3d 5c 5a 16 bd 10 c9 57 bd
       -0.0016183704 0.08814414 -0.036707267 -0.052681983
000290 50 5b f3 3d e4 7e fb bd d0 c4 59 3c 58 36 b6 3c
       0.11882651 -0.12280062 0.013291553 0.02224271
0002a0 e0 1b 8e 3c 1a fe a7 3d 7c a3 12 bd 2c 4f 22 bd
       0.017347276 0.08202763 -0.035800442 -0.039626285
0002b0 74 81 d7 3d 72 72 e4 bd 70 7d e6 bd 7a 42 bc bd
       0.10522738 -0.11154641 -0.11254394 -0.09192367
0002c0 b4 6f 7c bd f8 38 68 bd 62 b8 d8 3d 5c 12 f5 3d
       -0.061629966 -0.056694955 0.10582043 0.119663924
0002d0 48 66 1d 3d 40 e5 d0 3d 06 68 e3 3d ba ce dd 3d
       0.03842762 0.10199976 0.11103825 0.108304456
0002e0 a0 ac 86 bd ba c6 90 bd a4 d7 2b 3d 22 e1 a8 bd
       -0.06575894 -0.07069154 0.041953698 -0.08246066
0002f0 5a a2 d3 3d e6 a5 c7 bd 2e 64 ff bd ac a4 e7 3d
       0.103337005 -0.097484395 -0.1247028 0.113107055
000300 00 76 24 bb 44 5b cf bd 60 ad e0 3c dc 64 da bd
       -0.0025094748 -0.101248294 0.027426422 -0.10663769
000310 9c e4 38 bd f8 57 e4 bd e4 9d ee 3d b2 ea b4 3d
       -0.045139894 -0.11149591 0.11651209 0.08833827
000320 08 69 b8 3c f8 03 0c 3d f8 7d 29 bd a6 f8 ed 3d
       0.02251102 0.034183472 -0.0413799 0.116196916
000330 68 b6 4b 3d a4 52 fc 3d c0 5b d2 3b 64 64 04 bd
       0.049734503 0.1232045 0.006419629 -0.032322302
000340 b4 3c e2 bd 7a dd fd 3d 68 79 b3 3d 00 7c 43 3a
       -0.110467345 0.12395759 0.08763391 0.0007457137
000350 cc 75 8a bd ac fe d9 3d 88 e5 1d 3d 60 c8 d9 bb
       -0.06760749 0.10644278 0.038548976 -0.006646201
000360 06 60 ac 3d b0 61 88 bc 64 b0 bf bd 28 57 04 bd
       0.084167525 -0.016648144 -0.09359816 -0.03230968
000370 9c 3b d9 3d b8 be 2c 3d c8 da 56 bd e2 bf ed 3d
       0.10607073 0.04217407 -0.05245474 0.11608864
000380 00 1c 68 b9 3a a8 8c bd f6 71 f2 3d 54 a8 a1 3d
       -0.00022135675 -0.06868024 0.118381426 0.07893434
000390 6a f1 9b bd 60 d5 4c 3d 60 02 de bc 5e c3 d1 3d
       -0.076144055 0.050008178 -0.027100742 0.102423415
0003a0 e0 a2 09 3d 90 32 1e 3d 90 97 57 3d c2 f1 94 bd
       0.033602595 0.03862244 0.052634776 -0.07272674
0003b0 a8 e5 df 3c b8 91 86 3c 10 98 a7 bd 84 5d d2 bd
       0.027331188 0.016426906 -0.081833005 -0.10271743
0003c0 ac 12 51 3d 8a ac d3 bd 64 ca 07 bd cc 64 79 bd
       0.051043198 -0.103356436 -0.033152 -0.060887143
0003d0 80 2a 5c bb 68 6a 9c 3c a0 48 1a bc dc 47 0a 3d
       -0.0033594668 0.019093707 -0.009416729 0.033759937
0003e0 c8 26 98 3c e0 2e fd bc bc e6 60 bd ec ab e9 bd
       0.01857318 -0.03090614 -0.054907545 -0.114097446
0003f0 ac 54 1e 3d b8 41 f3 3c 68 23 7a bd e6 20 d8 3d
       0.03865497 0.029694423 -0.061068922 0.1055315

fc3.bias f4 [42]
000000 e4 bb fc bd c0 6f cc bc d0 b1 85 bc 18 15 5b 3d
       -0.12340525 -0.02495563 -0.01632014 0.053486913
000010 6a 76 f6 bd 58 49 c5 bd bc 2f 96 3d 0c 79 75 3d
       -0.120343044 -0.0963313 0.07333323 0.059929892
000020 38 98 a1 3d 00 9b 3a bb 70 bf 86 3d 60 10 a9 bc
       0.078903615 -0.0028473735 0.065794826 -0.020637691
000030 f0 82 2a bc d8 fe 26 3d 00 19 cc 3a 00 a9 ef 3c
       -0.0104071945 0.04077038 0.0015571415 0.02925539
000040 38 00 18 bd 0c ee ac 3d c0 97 fa bb 70 05 c5 bd
       -0.037109584 0.08443841 -0.0076474845 -0.09620178
000050 10 29 f2 bd f4 77 26 3d 78 95 8d bc d6 f3 b4 3d
       -0.11824238 0.04064174 -0.017283186 0.088355705
000060 a8 cd 43 bd 42 49 b7 3d 46 04 fb 3d 74 c8 9c bd
       -0.04780355 0.0894952 0.122566745 -0.07655421
000070 ba b8 d4 bd 60 6b 1c 3c a2 9f c9 bd e8 29 35 3d
       -0.10386796 0.009547085 -0.09844901 0.044229418
000080 94 36 9e 3d c0 bc 26 bc 58 f4 39 3d 48 f6 d3 bc
       0.07725254 -0.010176837 0.04539904 -0.025874272
000090 04 ab 75 bd 84 16 60 bd cc 00 08 3d 78 be 83 bc
       -0.059977546 -0.054708973 0.033203885 -0.016082034
0000a0 a2 8e a4 bd 0e ed 8f 3d
       -0.080350175 0.070276365
