models/DQN/1/dqn_agent_policy_weights.pth (torch, 41394 bytes, 6 tensors)

fc1.weight f4 [64, 42]
00000000: 5268 cf3d dc60 523c a453 0b3d d3b4 a43d
00000010: 242e 7e3d 8c08 223d b546 443e 8d93 2c3d
00000020: a0a4 bdbd fd9a 263d 84d3 063e 745a b53d
00000030: 88e0 bb3d 7d07 a83d a242 263e 8680 b2bd
00000040: 27da 4d3d 6122 a03d 157b 233d 5082 5ebc
00000050: 583b e23d aa47 9d3b 66c6 de3b b19f 413e
00000060: 7f26 b73d 678f 183e 49c3 c63c 63ff 05bd
00000070: 548f dbbc 83ed c0bb 9a77 223c bc84 01be
00000080: 1cd4 fd3d 4a53 db3d ace5 013e 88ad cc3d
00000090: 9122 2f3e 182d ebbb 947f a83d cc48 e33d
000000a0: 75ff f53b 9d80 6cbd 6d8c 0e3e 1256 533c
000000b0: f65d c93d d81e 2a3e 0b69 c2bd 0069 423e
000000c0: 200a 4a3d 7e20 b9bc c4f4 873d ae5e acbc
000000d0: 0f71 9ebd 04ca 963d 09fb b33b 789a 313c
000000e0: 0a89 7abd 859b 033e 3b04 2b3e 3856 1d3e
000000f0: d8a8 a2bd 0a45 51bd d0fb 303e 4b34 943c
00000100: a343 813c f0d6 853c 3d09 253c 95ad 5fbd
00000110: a84e 8ebc 2d87 a2bd 056a 27bd 1bef f43d
00000120: 32ec 8cbd 4d98 3f3d 1cd7 3e3c f2bd 03be
00000130: b2c0 8c3c 3ef3 08bc 2681 9dbd 1e18 163d
00000140: 5c69 3cbd 8ca5 a5bc 9f39 afbc 02de 9f3d
00000150: 2c38 403e 462e 673d b42e 7b3d 89c0 c83d
00000160: bc36 09bd 04b4 403e 56db 933a a0d8 803d
00000170: 46d5 973c 8ed3 0e3e 2d30 ce3c ad6a c93d
00000180: d817 db3d d430 643d 1db0 8abc d44e 28bd
00000190: cc7a b93d d1ce 9ebb 1fae 513d 08e0 b5bc
000001a0: a25d 1f3e 3bae 823d 8b81 ff3d 0c12 1abc
000001b0: 6f24 5c3e 3996 293e 6caf 343e a250 493d
000001c0: d94f e8bc 8d15 353d 00a6 2ebd e4e0 1d3e
000001d0: 0e3a 473d b524 233c f5c9 933d 6461 493c
000001e0: 4bab e03d 76ff 193d 714f ad3c 1ffd 7f3d
000001f0: 93db 333e e83c dd3c 3922 d03d 7a88 633d
00000200: 16f3 503d c7e2 2c3e 7170 f23d 2b35 38bc
00000210: 0844 163e 3c28 d33d c073 503d 7f9a 8e3c
00000220: dd81 8d3d 0bb8 b5bd e942 4bbd aa2b 833c
00000230: 749f fb3d 435a e9bc d7db 25bd 42f6 0dbd
00000240: 7785 cd3d d1c3 3c3e d2f8 8c3d a859 e63d
00000250: e81e 13bc 4bba a93d 2d64 a53c c96b fdbc
00000260: e60b 033e 0192 173e 763e 7c3c bf62 a83d
00000270: 8e02 7dbd 006d 023e 4680 163e 86aa 23bd
00000280: 82d4 b53d f5af cab8 83fc b53c 2f4d 0cbc
00000290: ecf7 83bc 3660 f73c a13e 2dbd 3ff2 3ebd
000002a0: 0aa2 d73c 8666 403e 42ee 083e 4660 3a3e
000002b0: 5992 073e 6482 223d 954b 903d 5964 183e
000002c0: 01e2 b03d 37f3 fb3d 0257 a83d ee30 d9bd
000002d0: 4379 e63d 4fc2 a2bc f511 b43d 8535 97bd
000002e0: 8ddf 8c3d 29c0 03bd f7aa da3d ffc8 59bd
000002f0: 2b0e e03c 5221 893d 4fde 423e b86f 243e
00000300: a3a1 943d 343e 8e3d 6496 15bd 161b ab3d
00000310: bcae 333e 300b 823d 6ee7 9bbd 31cd b73d
00000320: b96f 483e 4e2c 9a3d 76ad 243e 61bf 0a3e
00000330: 9e59 da3c d84d 533e 4b1b fe3d 2573 343e
00000340: df43 1a3e 7499 073e 47dc e7bc e7f9 3c3e
00000350: 1674 d23c c627 6a3e 3043 5f3d 8813 2abc
00000360: 538b 12bd e9bd 483e e4fd ee3c 347d 5a3d
00000370: 54fe 50bd 250c e23c 26d1 ec3d 98f4 c73d
00000380: e225 9e3c 710a c83d e3e7 86bd b9ec c73d
00000390: bf6f 47bd 4eff b73c 4d7c 55bc 02ae 053e
000003a0: 0517 043d d372 64bb d01f ea3b ba8c 23bd
000003b0: 0897 29bb 2481 e73d d089 2e3e 2965 473c
000003c0: 6a92 c13d 568b 4fbc 2e3e cf3d 65e8 af3d
000003d0: 9a3c 06bd eaea 9a3d 5c4e 0c3c e2d6 4c3d
000003e0: fb1e 45bd 3bcd b73d d2d0 00bd e245 f33d
000003f0: 7cb8 2b3e 5301 f6bc 208a 1ebb b5f8 0d3e
0.101273194 0.012840476 0.034015313 0.08042302 0.062055722 0.039558932 0.19167598 0.042132903
-0.09259915 0.040675152 0.13166624 0.08855143 0.09173685 0.08204553 0.16236356 -0.0871592
0.050256874 0.07819057 0.039912302 -0.013580874 0.11046475 0.004799803 0.0067985533 0.18908574
0.089428894 0.14898454 0.024263041 -0.03271426 -0.026801743 -0.0058876886 0.009916211 -0.1264829
0.12393972 0.107092455 0.12685269 0.09994036 0.1710303 -0.0071770065 0.082274586 0.11097869
0.0075072595 -0.057739843 0.13920756 0.012898939 0.09832375 0.16613328 -0.094926916 0.18985367
0.049326062 -0.022598501 0.06638482 -0.02104124 -0.07736408 0.0736275 0.005492572 0.010840051
-0.061165847 0.12852295 0.16700833 0.15364921 -0.07942361 -0.05109123 0.17283559 0.018091341
0.015779322 0.016337842 0.010073003 -0.0546089 -0.01737149 -0.07935939 -0.040872592 0.11959668
-0.06880988 0.046776105 0.011647966 -0.12865427 0.017181728 -0.008358775 -0.07690649 0.036644094
-0.045998916 -0.02022054 -0.02138978 0.078060165 0.18771428 0.056440614 0.061323836 0.09802348
-0.033499464 0.1881867 0.0011280577 0.06291318 0.018534314 0.13947889 0.025169456 0.098348
0.10697907 0.05571063 -0.01692968 -0.0410908 0.09056625 -0.004846432 0.051191445 -0.022201553
0.15563062 0.06380888 0.1247588 -0.009403717 0.21498273 0.16561212 0.17645043 0.049149163
-0.028358387 0.044210006 -0.04263878 0.1541782 0.04863935 0.009957482 0.072162546 0.012291286
0.109701715 0.037597142 0.021156045 0.062497254 0.1756423 0.027006581 0.101627775 0.055550076
0.051013075 0.16883384 0.11837853 -0.011243145 0.1467439 0.103104085 0.050891638 0.017407654
0.06909535 -0.08872994 -0.049624357 0.016012032 0.12286273 -0.028485423 -0.04049286 -0.034658678
0.10035222 0.18434073 0.06883396 0.11247569 -0.008979537 0.08287486 0.02018937 -0.030935185
0.12797508 0.1480179 0.015395751 0.08221959 -0.061770014 0.12736893 0.1469737 -0.039957546
0.08878423 -9.664885e-05 0.022215134 -0.008563324 -0.01610943 0.030197244 -0.042296056 -0.046617743
0.026322383 0.1878911 0.13372138 0.18200788 0.13239421 0.03967513 0.07045666 0.1488203
0.08636857 0.12302249 0.082197204 -0.10605036 0.112535976 -0.019868044 0.087924875 -0.07383255
0.068785764 -0.03216568 0.1067714 -0.0531702 0.027350506 0.066958085 0.19030116 0.16058242
0.07257392 0.06945458 -0.036520377 0.083547756 0.17547125 0.0634979 -0.07612501 0.08974684
0.19573869 0.07527982 0.16081795 0.13549568 0.02665406 0.20635164 0.124075495 0.17622049
0.15064953 0.13242131 -0.028303279 0.18454705 0.02569012 0.22866735 0.054507434 -0.010380633
-0.0357774 0.19603695 0.029173799 0.05334206 -0.051023796 0.027593682 0.115633294 0.097634494
0.019305173 0.097676165 -0.06587198 0.09761948 -0.048690554 0.022460606 -0.013030124 0.1305466
0.032248516 -0.003485848 0.0071449056 -0.03992913 -0.0025877375 0.113039285 0.17044759 0.012170115
0.094517544 -0.012667498 0.10119282 0.085892476 -0.032772638 0.075643376 0.008563604 0.050009616
-0.04812525 0.089746915 -0.031449147 0.118785635 0.16769594 -0.030029928 -0.0024191216 0.13864405

fc1.bias f4 [64]
00000000: 0749 08be f547 9f3e 9235 53be dd3f 89bd
00000010: 1c72 18be 24a2 e6bd 93d3 4ebe 52a7 99bd
00000020: 5509 71be 2f49 8ebd c47d 3b3e 495e 903d
00000030: bfe0 773e 4a60 8c3e cd91 45be 364a 30be
00000040: 567b 56be aac7 833b 5d8a fcbc 54ac db3c
00000050: 8635 44be c539 973d a55b 0e3e 3682 3ebe
00000060: 1536 7ebe 604c 013e b120 413d f43c 0dbe
00000070: 7dde d2bd cfec 27be 281f 68be c68e 39bd
00000080: 8735 90bd 5796 31bc c162 cbbd 5980 38be
00000090: 7c7a f9bb 889c 75be 02a7 bc3e 51f1 54bd
000000a0: 2bc6 87be baeb 28be 5941 373e f826 4cbe
000000b0: 762d 38be 15c9 85be 25ea 09be 335d 163e
000000c0: c916 21be 6c63 1cbe 80ef 8b3e bb0f bdbd
000000d0: 6733 cc3d 8e74 80be 8019 bcbd b1be a9bb
000000e0: 1e59 39bd e755 10be f222 04bd c34f c4bd
000000f0: 6fd3 a53e 9e66 49be b42d 713e 56fd cebd
-0.13309108 0.31109586 -0.20625904 -0.06701634 -0.1488728 -0.112613946 -0.20197897 -0.07502617
-0.23538716 -0.069475524 0.18309695 0.070492335 0.24206828 0.27417213 -0.192939 -0.17215809
-0.20945486 0.0040216045 -0.030827696 0.02681557 -0.19161043 0.073840655 0.13902147 -0.18604359
-0.24825318 0.12626791 0.047150318 -0.13792783 -0.102963425 -0.16398929 -0.22668135 -0.045302175
-0.070414595 -0.0108390665 -0.09930945 -0.18017711 -0.007613478 -0.23985493 0.36846167 -0.05198795
-0.26518378 -0.16496173 0.17896022 -0.1993674 -0.17986092 -0.26129976 -0.13468225 0.1468399
-0.15731348 -0.15272301 0.27331161 -0.09231516 0.09970742 -0.25088924 -0.09184551 -0.005180203
-0.045251004 -0.14095269 -0.03225989 -0.09585526 0.32387874 -0.19668052 0.2355259 -0.10106914

fc2.weight f4 [64, 64]
00000000: b4c1 4cbd ba64 433e 25c8 0dbd 84be 32bd
00000010: b317 833d f022 063e ed30 c2bd 0682 22bd
00000020: a3a6 de3b 64fe 093d 41f6 c83d 108e 023e
00000030: 5a17 803e a24c bc3d 6b16 543d ce26 f6bc
00000040: aa2c 7ebd 02cf 043d 2087 a63d 7b12 683c
00000050: 5dc1 b8bd 0162 a63d c41c 523d ff8f 08be
00000060: c048 18bd ccd3 b23d e76d a63d 5917 f1bc
00000070: 06f2 843d 96de a4bd 92da fbbc e078 e4bc
00000080: 9637 f83d b88b 543e 5851 0d3d b07f da3d
00000090: d7fd d73d 42ff 7dbd 28d3 193e cbe7 af3d
000000a0: c9ed 673d 2fc7 6bbc d17f 4e3e aa36 c63c
000000b0: e409 b6bd 6bc2 933c b646 923c e806 1b3e
000000c0: 0d72 bbbd 93c5 f0bc 1d5a db3d 8af0 2ebd
000000d0: fe46 b33c 55bf e7bd 5c77 b4bd 88c1 4a3c
000000e0: 2054 c93d 99fe b2bd abff 9f3b 6c7e da3b
000000f0: c2bf 333e 7cce c23b 9c7d 613e 2a26 28ba
00000100: 2da5 2cbd 81f8 26bd 0f5a 303e 0d68 bcbc
00000110: 6d67 1c3e 6082 b63d 8e20 393d 6d37 7c3d
00000120: 5ae7 0e3e 6579 1ebd eff2 d0bd 2d04 d8bc
00000130: 8a5e dabd c51a cbbd 235f 2b3e c7ce 1a3d
00000140: 6bf5 1c3e ba2b 27bc d689 073e 6f8a a3bd
00000150: 9552 91bc 0fd6 933d 10d8 69bd 957d 623b
00000160: d6f3 1bbb 377f 5dbd 28e1 5f3d deb2 e23c
00000170: 6f2a 013e 4af5 4bbd 8f59 fb3d 0dc3 fabc
00000180: 7a54 5a3d d9bd 583c 5fbd a03d 28df f53d
00000190: 42e0 133e f225 823d 4a00 fdbd 3b46 ae3c
000001a0: 0c3b e63d 443c 493d 43e7 653b 3788 1f3e
000001b0: 8310 183e 7745 0e3e 2bc8 56bc e36e 41b7
000001c0: 5d5e 863c f0d5 1d3e 5c03 263b 5815 c63b
000001d0: 9e7f b5bd f35e 8e3c 94e3 0fbc 8046 6cbd
000001e0: 917a 1b3e 2940 193c a695 7f3d ba50 df3c
000001f0: c7e8 63be 03eb 093d a464 1b3d e09a 203d
00000200: c453 61bc 023a ccbd 8c65 973d c342 043e
00000210: debe e33c 4eaf d43d 5213 0f3d bcbd 7abd
00000220: 5688 ccbc 9a5c d13d 8224 83bd fe1d 803d
00000230: 1488 43ba 9f50 9f3b 46e2 813d 4a48 19bd
00000240: 7b5a 343e 698f 7cbd 2fe1 ce3d 4945 d43d
00000250: bccc d93d 655f ef3c c819 ba3c 01fb 0abd
00000260: b659 583d f4cb 9fbc 07a3 903d 47a7 47bd
00000270: 30d0 e43d 951d bcbc 9d84 813d 2bd4 81bd
00000280: 2d67 4d3c 458d 5e3d 7ecb 403d 809b 86bc
00000290: 0ea7 f7bc a2ad 38bc ad61 52bd ae10 c9bd
000002a0: 2d9a a83d 17a9 f53d 934f 9a3d 3f2e ed3d
000002b0: ea77 823c 98cd 2dbc 8242 9dbd 8216 b5bc
000002c0: 7ffb a83d 7a3e 583d 1418 e03c 0f7a f03d
000002d0: 830c 5d3d a7f7 10bd 6be8 90bd 93a4 cebc
000002e0: ff60 5fbc 9a91 fc3d 89b4 a83c 1d3b 45bd
000002f0: 6a9c 88bd 613a 03bd e32f f1bc 6c05 473d
00000300: 4c3f 9dbc 425e a1bd 465d f33d e1cf 693d
00000310: c5d9 a23d e04b ac3d d58d b13d 430e 93bc
00000320: 649c b03d 5c1c bdbb 3542 c43d 44a9 55bd
00000330: 3230 2ebd 0330 57bb 79fd 83bd 1e6d a0bd
00000340: 80e8 81bc d609 893d 14a2 d43c 72fa 72bc
00000350: b7db f9bd 22d0 dfbd 8fd1 dcbd 64e7 e43d
00000360: 220b 3c3d 7e3b 833d 7505 e5bd f088 f23d
00000370: 26f2 063b 78d3 a2bd 2988 ae3d a031 0d3d
00000380: 823b 3ebd 605f 1cbd cad2 88bc d564 993d
00000390: 7d51 8e3c f42d 863d a69c dcbd afaf b6bd
000003a0: a241 e13c c615 aebd 3f9f 91bd 5d80 bc3d
000003b0: 0050 0bbd 9ea1 c03d 5e56 eebd dcd2 35bd
000003c0: 774d 18bd 84c0 bcbd 4b9f d6bd cefb afbc
000003d0: 82a7 b1bd b4b4 60bb 59c6 abbb 74f2 e2bd
000003e0: 3b54 82bd 92a8 853d 8b44 54bd 5702 9fbd
000003f0: e4d3 1fbd f0a0 f93d b2b4 25bd adfb 693d
-0.049989417 0.19081393 -0.0346147 -0.04363872 0.06401005 0.13099265 -0.09481988 -0.03967478
0.006794767 0.03368987 0.09812594 0.12749505 0.25017816 0.09194304 0.051779192 -0.0300478
-0.062054314 0.03242398 0.08131242 0.014164562 -0.09021256 0.081241615 0.051296964 -0.1333618
-0.037178755 0.08731803 0.08126431 -0.029430078 0.06491475 -0.080502674 -0.03074387 -0.027889669
0.12119977 0.20756423 0.034501404 0.10668886 0.10546463 -0.06201101 0.15021956 0.08589133
0.056623254 -0.014390751 0.20165946 0.024195988 -0.08888605 0.018037042 0.017855983 0.15139353
-0.09152613 -0.029391086 0.10710547 -0.042709865 0.021884438 -0.113157906 -0.088118285 0.012375243
0.09830499 -0.08739967 0.004882773 0.0066679027 0.17553619 0.005945025 0.22020572 -0.00064143783
-0.04214971 -0.040764336 0.17221855 -0.022998834 0.15273829 0.08911586 0.045197062 0.061576296
0.13955441 -0.03868999 -0.10202586 -0.026369179 -0.10662563 -0.09917215 0.1673551 0.037794854
0.15327995 -0.010203296 0.13236174 -0.079853885 -0.017739573 0.07218563 -0.05709082 0.0034559716
-0.002379646 -0.0540764 0.054658085 0.027673181 0.12613843 -0.049794473 0.12272941 -0.030610586
0.05330322 0.013228857 0.0784862 0.12005454 0.14441016 0.06354894 -0.12353571 0.021273723
0.11241731 0.04912974 0.003508047 0.15579306 0.14850049 0.13893686 -0.013109247 -1.1529514e-05
0.016402418 0.15413642 0.0025331592 0.006045025 -0.08862232 0.01737926 -0.008782286 -0.05768442
0.15183474 0.009353676 0.062398575 0.027260173 -0.22256766 0.03367139 0.037937775 0.0392102
-0.013752881 -0.099720016 0.073924154 0.12916093 0.027800974 0.10384999 0.034930535 -0.0612161
-0.024967354 0.102227405 -0.06403448 0.062557206 -0.0007458937 0.0048619057 0.06341986 -0.037422456
0.1761264 -0.061660204 0.10101544 0.103647776 0.10634753 0.029220292 0.022717372 -0.033930782
0.05281993 -0.019506432 0.07062345 -0.048743512 0.11172521 -0.022963325 0.06324122 -0.06339296
0.012536806 0.054333944 0.047069065 -0.01643157 -0.030231025 -0.011271866 -0.051362682 -0.098176345
0.08232532 0.11995142 0.07534709 0.11581086 0.01592632 -0.010608099 -0.07678701 -0.02210546
0.08251094 0.052793957 0.027355231 0.11742031 0.05396701 -0.03539243 -0.0707558 -0.02522496
-0.0136339655 0.12332459 0.020593898 -0.048152078 -0.066704586 -0.032038096 -0.02944178 0.048589155
-0.019195221 -0.078793064 0.11883025 0.057083014 0.079516925 0.084129095 0.086696304 -0.017951136
0.08623579 -0.005771203 0.095829405 -0.052163377 -0.04252643 -0.0032835014 -0.064448304 -0.078333125
-0.015857935 0.06691329 0.025956191 -0.014830219 -0.122001104 -0.1092837 -0.10782158 0.11176947
0.045909055 0.064078316 -0.111826815 0.11842525 0.002059111 -0.07950491 0.08522064 0.034471154
-0.04644347 -0.038176894 -0.016702075 0.07489935 0.017372841 0.065517336 -0.10772066 -0.08920228
0.027497116 -0.08500247 -0.07110452 0.09204171 -0.03401184 0.09405826 -0.11637567 -0.044390544
-0.03718325 -0.09216407 -0.104796015 -0.021482375 -0.08674528 -0.0034287395 -0.0052421507 -0.110814005
-0.06363722 0.06526293 -0.05182318 -0.07764118 -0.039020434 0.121888995 -0.040455528 0.057124782

fc2.bias f4 [64]
00000000: 1535 c73e e701 dabc 30a2 06be 0141 6cbd
00000010: ad3e 04be a605 dbbb 2ca0 fbbd 1f0f f13b
00000020: 17d7 a0bd 98cd 1b3c d906 393d 1229 3fbe
00000030: f8c5 1c3c b451 8cbd 22d1 9abd ae23 e9bd
00000040: a832 96bd 0f40 41be 5c02 01bd b25f 903e
00000050: 5c6e d7bd 460d 6fbc cf7c 9cbc d7c3 a5bd
00000060: de1a 50be 9b9a a9bd fa95 01be 35d2 15bc
00000070: 52f0 16be de2e 08be 0c1c 93bd 4efd 36be
00000080: 5eda 4d3b fcf3 f7bd a8de 39bd e117 3fbd
00000090: 38bc f3bc 0318 12bc edc2 04be f5c0 d23e
000000a0: b351 c4bd 1a38 f6bd 7e43 b8bd f332 1dbe
000000b0: 47ac 1fbd b7a5 c6bd 2059 8f3e b89b 63bc
000000c0: 10d1 18bd 6ed3 98bc cf44 e63e 30ac 98bc
000000d0: a916 5dbc 6bdc 10bc 8297 9abd 00f3 4dbd
000000e0: 7f2e 99bd cca9 9ebc 0129 fcbc 8df4 5dbe
000000f0: f29a 75bd c3f2 90bc fe37 7f3e 24ed abbd
0.38907686 -0.026612235 -0.13147807 -0.05767918 -0.12914534 -0.006684023 -0.1228641 0.007356539
-0.07853525 0.009509467 0.045172546 -0.18668011 0.009568684 -0.06851521 -0.0755942 -0.113837585
-0.07333881 -0.18872093 -0.03149639 0.2819801 -0.10519096 -0.014590567 -0.019102482 -0.08093994
-0.20322749 -0.08281442 -0.12654868 -0.009144356 -0.14740112 -0.13299128 -0.07183084 -0.17870066
0.0031410675 -0.12107083 -0.045378357 -0.046653632 -0.029752836 -0.008916858 -0.12964983 0.4116284
-0.095858954 -0.12022419 -0.08997248 -0.15351467 -0.038982656 -0.09699576 0.27997684 -0.013892107
-0.037308753 -0.018655505 0.44974372 -0.018636793 -0.013494172 -0.008841614 -0.07548429 -0.05028057
-0.074795716 -0.019368075 -0.030781271 -0.2167532 -0.05996222 -0.017693883 0.24923703 -0.0839484

fc3.weight f4 [42, 64]
00000000: 7dc0 59bd 67ea f73d f928 61bc 8c63 b9bd
00000010: 1848 073e de6e d23d 18ba 023c 5d6c 83bd
00000020: c354 123e af58 273d d1fb 263d 6788 643d
00000030: 4a6c 5f3c fafa b03d 8f39 86bb 980e d53d
00000040: c71b ccbc f9f3 953d 84c2 2f3d 3a79 25bd
00000050: 4c43 803d fb0c c23d d07f 893d ac9e b73c
00000060: b165 263e 934e d7bd 81aa 913d 7f54 113d
00000070: 99f5 853d 8b7f 233d bbfb b73d 8c96 2c3c
00000080: 72fa dd3d 2302 443d a8f0 10bd 487f 26bb
00000090: 03c4 233e 43a1 8d3b 1e70 50bd 0cef 06bd
000000a0: a345 0c3d a475 2b3d 25da d13d 7fab 903d
000000b0: 94fe 163e 11bc 96bc be07 cabd e823 f23c
000000c0: 26a7 95bc 4506 35bd c7cd 15be 5ab2 9bbc
000000d0: c2d4 943c c6ad aa3d afa4 793d 606a 2e3e
000000e0: d060 b93d bc8a 53bd eadb 963d 6ace f83d
000000f0: d7a1 f4bb 9939 5d3d 7025 38be d64f 91bd
00000100: 5211 1ebe 7043 c9bc d71b acba 311e 143a
00000110: 0671 1b3e 573b 213e b100 9e3d 3d0d bf3d
00000120: 340d 30bd 2f7d 833d 2283 87bd 8f25 79bd
00000130: 4dec c23c 3b28 cfbb b575 023e 1866 6a3d
00000140: 6627 1e3e cc41 453c 285c 953d 27e5 debc
00000150: 377b 153d 9ea3 a4bd 6007 10bc 0ecf 2e3d
00000160: ba3d fb3d 9789 873d d6f6 c13d de4d f5bc
00000170: a1c3 e83d bb11 063d 9e4d 5ebd b031 5fbc
00000180: edaf 93bd 9f50 cd3d 3b8c 0e3e baaa acbc
00000190: d361 0c3e b4eb d03d d9e8 d63c b419 d3bd
000001a0: 5836 52bb 3f7f 903d 875f 433d 2ddd 3ebc
000001b0: 29a6 16bd 98fd 193e 60db fcbd 916a 313d
000001c0: e57c 5f3d 862b 513d 49a7 143d 38ac a4bd
000001d0: 6891 3fbd 48f1 163e 726f fd3d b4c5 0b3e
000001e0: f6ff 763d 4c36 7e3d 541d ca3d f8e9 cb3d
000001f0: d897 003a c01c 213e 1428 a9bd dbf4 db3c
00000200: 18a2 e4bd fa46 f8bc cd27 e33d ae4f f8bd
00000210: 13bf f63d 87fb 1a3e 97a7 bc3d 5bfc a9bc
00000220: 212e 9fbb 4feb ab3d 4095 f4bb 9723 df3d
00000230: f2a9 12bc 8ba5 2dbd 4d49 dfbc 203d dabb
00000240: f223 8dbc 58d7 e83c a644 9f3c ba8c 89bd
00000250: 4b9e 06bd cf7b bf3c 8e6c f33d eccd 36bd
00000260: 872c c23d 54ae 353d fc48 5c3d 5d62 8c3c
00000270: d800 693d ae8f 773c 1da1 e93d 737d 973d
00000280: 53c2 1c3e cdff 99bd 0d0c fc3d 436d 9e3d
00000290: 4219 083e a8f5 0cbd 0729 fdbc 727c d6bd
000002a0: ba58 893c c76f 2e3e 4122 fa3d 93d5 b43d
000002b0: a704 143d 7f58 92bc a936 e1bd 1a3e 863d
000002c0: bf6a c23c f933 183e 850a 0bbe 0144 963c
000002d0: a54c c33d 8377 183e efbe 2a3e a246 523c
000002e0: 6cf5 9b3c 94c1 d33c c58d da3b caba 013e
000002f0: 5713 183e 9539 a63d bdb8 473b dc37 1a3d
00000300: 6785 bfbd 5d2d d23d 431b 823d c6de a33d
00000310: 60d3 9e3c 20f9 5d3c 3f08 83bd 2475 a33d
00000320: 636a c03c cf55 9a3d ae2b 87bd 5dd2 4f3d
00000330: 5a7e cebc 11da d1bc 7390 65bd c094 a73b
00000340: 22f9 9b3d a701 dc3d 19cf 03bd d982 b4bd
00000350: 2a4f 0d3d 1bb5 7e3c 8c11 1c3d b093 e63d
00000360: b58b a1bc c31d 043d 0a91 80bc 1bf9 393e
00000370: c137 5d3d 0eed 0b3e 320d da3d 1b39 44bd
00000380: 5a2e cabc 4c89 c03d a352 1a3e e0a4 093e
00000390: 594c 143e f48a 033e 0448 f5bc 6ac9 d3bd
000003a0: b215 f63d 9192 cb3d bd27 8a3d 847a f03d
000003b0: 72f5 de3d 90d2 1e3e d12f e63c eef0 ee3b
000003c0: 649f c7bd 8ba2 96bc 0ec1 98bd 19ed a4bc
000003d0: e061 1e3d 1e2c 123e 165a cc3d 1747 acbc
000003e0: 4df9 0a3e 0b24 10bd f00e a83c a985 a9bc
000003f0: 4729 6b3d c5c6 ea3d c054 33be dda6 a83d
-0.053162087 0.121052556 -0.013742679 -0.0905219 0.13211095 0.102750525 0.0079789385 -0.06417153
0.14290147 0.04085606 0.040767495 0.055794146 0.013636658 0.0864162 -0.004096217 0.10403174
-0.024915589 0.07321925 0.042910114 -0.040398814 0.06262836 0.09475132 0.067138314 0.022414528
0.1624973 -0.10513034 0.07112599 0.035480972 0.06540985 0.039916556 0.08983561 0.01053394
0.10838784 0.0478536 -0.035385758 -0.0025405455 0.15992741 0.0043222024 -0.050888173 -0.032942817
0.0342461 0.041860238 0.10246686 0.0706396 0.14745551 -0.018400224 -0.09864758 0.029558137
-0.01826818 -0.044195432 -0.14629279 -0.019005943 0.018167857 0.08333926 0.06094807 0.17032766
0.09051669 -0.05164598 0.07366164 0.12148745 -0.007465582 0.054010008 -0.17983031 -0.070953056
-0.15436295 -0.02456829 -0.0013130856 0.0005650251 0.15179834 0.15745293 0.077149756 0.09328697
-0.04298134 0.06420361 -0.066168085 -0.060826834 0.023794318 -0.0063219345 0.12740214 0.05722627
0.15444717 0.012039613 0.07292968 -0.027208878 0.03649446 -0.0803902 -0.008790821 0.04267793
0.12267633 0.0661804 0.09470908 -0.029944357 0.11365438 0.032731753 -0.05427324 -0.013622686
-0.072112896 0.10025143 0.13920681 -0.021077503 0.13709192 0.10201207 0.026234077 -0.10307637
-0.0032075848 0.0705552 0.047698524 -0.011649412 -0.036779556 0.15038145 -0.1234653 0.04331452
0.054562468 0.051066898 0.036292348 -0.080406606 -0.04676953 0.14740479 0.12374772 0.13649637
0.060302697 0.0620635 0.09868875 0.099567354 0.0004905439 0.15733624 -0.082595974 0.026850155
-0.111637294 -0.030307282 0.11091576 -0.12124573 0.12048163 0.15135013 0.09211653 -0.020750215
-0.004857794 0.08394491 -0.007464081 0.1089546 -0.008951651 -0.042394202 -0.027256632 -0.0066601187
-0.017229054 0.028422996 0.019441914 -0.067162946 -0.032865804 0.023374466 0.118859395 -0.044629976
0.09481149 0.044355705 0.05378054 0.017136747 0.05688557 0.0151099395 0.11407683 0.073969744
0.15308504 -0.07519493 0.12306986 0.07735684 0.13290885 -0.034413964 -0.030903352 -0.10472955
0.016765941 0.17034827 0.12213565 0.088297985 0.03613725 -0.017864464 -0.10996754 0.06554814
0.023732541 0.14863576 -0.13578232 0.018342974 0.09536103 0.1488934 0.16674398 0.012834223
0.019037925 0.025849141 0.0066697323 0.1266891 0.14851128 0.08116452 0.0030475103 0.037650928
-0.09351616 0.102625586 0.06352856 0.08001475 0.0193879 0.013548166 -0.06398057 0.07981327
0.02348823 0.07535898 -0.06600128 0.050737727 -0.025206733 -0.025616677 -0.05604596 0.005114168
0.07615878 0.10742503 -0.032179926 -0.0881402 0.034499325 0.015546109 0.03810267 0.11258638
-0.019719938 0.032254945 -0.01569416 0.18161432 0.05400825 0.13664648 0.10647048 -0.047906023
-0.024680305 0.09401187 0.15070586 0.13441801 0.1448225 0.12845975 -0.029941566 -0.10341151
0.12015857 0.09940065 0.06745861 0.11742118 0.10886659 0.1551001 0.028098973 0.0072919047
-0.09747198 -0.018388053 -0.07458697 -0.020132588 0.03866756 0.14274642 0.0997812 -0.021029992
0.13571663 -0.035190623 0.020514935 -0.020693617 0.057412412 0.114636935 -0.17512798 0.08234952

fc3.bias f4 [42]
00000000: 7552 5ebc 450a f7bd 86bc c3bc d660 83bd
00000010: c96e 2cbe e75f bcbd 8637 e3bd fda2 313c
00000020: d58c f5bd 25c3 52bd 0c3d 3fbd 7483 253d
00000030: 2ab9 36be 2f92 f8b9 62fe 913b 41e7 443d
00000040: 7913 043d 5633 82bd e5c4 8abc ad3c 00be
00000050: d4fc 09be 0cdd 18be 1a68 1abe 97c1 9dbb
00000060: 86ff 87bd 9d06 14bd 4a3c acbc a33d e0bd
00000070: 034e 83bc 5a0c 0dbd 77c1 b1bc 3783 66bd
00000080: 03f1 40bd bd34 573c 98ff ffbc 93b1 2bbe
00000090: fc8d f1bd 1ba4 c7bd 4c36 6abd 47d0 0ebc
000000a0: 81f5 91bd b331 3fbd
-0.013569464 -0.12062506 -0.023893606 -0.06414954 -0.16839136 -0.091979794 -0.11094575 0.010842082
-0.11989752 -0.051455636 -0.04668908 0.040408567 -0.17844072 -0.0004741116 0.0044553736 0.048072103
0.032245133 -0.06357448 -0.01693959 -0.12523146 -0.13475353 -0.14928073 -0.15078774 -0.0048143375
-0.06640534 -0.03613912 -0.021024842 -0.10949256 -0.01602841 -0.034435607 -0.021698697 -0.05627748
-0.047104847 0.013135132 -0.031249806 -0.16766958 -0.117946595 -0.097480975 -0.057180688 -0.008716649
-0.07126904 -0.046678256
