models/DQN/1/dqn_agent_target_weights.pth (torch, 41394 bytes, 6 tensors)

fc1.weight f4 [64, 42]
0.10126882 0.012823959 0.034043755 0.08043389 0.062039826 0.03954379 0.1916506 0.04212556
-0.09259647 0.040662497 0.131685 0.08855624 0.09173258 0.08206148 0.16237241 -0.08716316
0.05027465 0.0781981 0.03989045 -0.01357426 0.1104629 0.004812163 0.0067992476 0.1891017
0.089423396 0.1489837 0.024249738 -0.03272345 -0.026805177 -0.005867039 0.009930995 -0.12648639
0.123952806 0.10707632 0.12685204 0.099955216 0.17100772 -0.0071757953 0.0822745 0.111012354
0.0074958014 -0.05773695 0.13921395 0.0129220905 0.09830987 0.1661322 -0.094914824 0.18988937
0.049356755 -0.022592258 0.06638894 -0.02102843 -0.077379175 0.073630676 0.0055029634 0.010821399
-0.061172448 0.12852657 0.16698632 0.15364698 -0.07939917 -0.051108424 0.17283508 0.018079614
0.015787026 0.016319806 0.010078633 -0.0546027 -0.017350934 -0.079352036 -0.040872883 0.119578
-0.068824135 0.046776745 0.011628817 -0.12863706 0.017162891 -0.008385101 -0.076903194 0.03664101
-0.045992453 -0.020240264 -0.021380698 0.07805898 0.18770951 0.05640962 0.061334062 0.09802667
-0.033509806 0.18814598 0.001094988 0.06290432 0.018526252 0.1394677 0.025179643 0.098348506
0.10696372 0.05572932 -0.016923267 -0.04109691 0.09058352 -0.004845807 0.051165916 -0.022184419
0.15563674 0.06382222 0.12475466 -0.009389907 0.21498552 0.16559795 0.17642929 0.049138162
-0.028366601 0.044227466 -0.042628113 0.15417928 0.048659448 0.009934201 0.07218494 0.01232158
0.10969638 0.0376025 0.021149019 0.06251207 0.17563227 0.027002206 0.101625934 0.05553579
0.051042758 0.16884519 0.118371606 -0.011259052 0.14671957 0.10309751 0.05088878 0.017387556
0.069108255 -0.08872192 -0.049639754 0.016038913 0.12286595 -0.028483983 -0.040466636 -0.03466544
0.10032511 0.18435034 0.06883584 0.11247404 -0.008992553 0.08289197 0.020191114 -0.030945247
0.12796722 0.14801164 0.0153973745 0.082241006 -0.06175636 0.12736605 0.14698684 -0.03997681
0.08879655 -7.446045e-05 0.022191841 -0.008564139 -0.016117273 0.030223744 -0.04231624 -0.046615858
0.026300488 0.1878663 0.1337343 0.18200946 0.1323846 0.039639074 0.07043379 0.14881016
0.08635634 0.123011716 0.08221033 -0.10605612 0.11251811 -0.019845454 0.08792963 -0.073846996
0.06880617 -0.032171324 0.10674426 -0.053157978 0.027354095 0.06695494 0.1902885 0.16059458
0.07256938 0.06944483 -0.036557283 0.083533585 0.17546807 0.06351066 -0.07611363 0.089738235
0.19575803 0.07526372 0.16083188 0.13552383 0.026636684 0.206351 0.124066666 0.17623492
0.15064377 0.13242275 -0.028306175 0.18451932 0.025740964 0.22867058 0.05449716 -0.010408891
-0.035806637 0.19602229 0.029173752 0.05334084 -0.051005825 0.027601032 0.11562756 0.097664565
0.019313537 0.09768607 -0.065838665 0.09762496 -0.04870985 0.022470348 -0.013026747 0.13055363
0.03224819 -0.0034614587 0.007151409 -0.03993018 -0.0026032492 0.11303318 0.17044863 0.0122006275
0.094539404 -0.012668018 0.10121898 0.08587313 -0.032749593 0.07566592 0.008550603 0.050021984
-0.048127368 0.08976743 -0.03146596 0.11879023 0.16768283 -0.030047813 -0.0023990097 0.13865045
00000000: 0766 cf3d 951b 523c 7771 0b3d 86ba a43d
00000010: 791d 7e3d abf8 213d 0e40 443e da8b 2c3d
00000020: 38a3 bdbd b88d 263d 6fd8 063e f95c b53d
00000030: 4ade bb3d d90f a83d f444 263e 9982 b2bd
00000040: cbec 4d3d 5326 a03d 2b64 233d 9366 5ebc
00000050: 5f3a e23d 59af 9d3b 39cc de3b e0a3 413e
00000060: 9d23 b73d 2f8f 183e 63a7 c63c 0609 06bd
00000070: 8896 dbbc 4a40 c0bb 9db5 223c a685 01be
00000080: f8da fd3d d44a db3d 80e5 013e 52b5 cc3d
00000090: a61c 2f3e ef22 ebbb 887f a83d 725a e33d
000000a0: 579f f53b 957d 6cbd 1a8e 0e3e 2db7 533c
000000b0: af56 c93d 8f1e 2a3e b462 c2bd 5c72 423e
000000c0: 4f2a 4a3d 6613 b9bc edf6 873d d043 acbc
000000d0: f978 9ebd aecb 963d 3452 b43b 3d4c 313c
000000e0: f68f 7abd 789c 033e 76fe 2a3e a255 1d3e
000000f0: 089c a2bd 1157 51bd aefb 303e b31b 943c
00000100: cb53 813c 1db1 853c da20 253c 15a7 5fbd
00000110: 8c23 8ebc 5283 a2bd 536a 27bd 4fe5 f43d
00000120: abf3 8cbd f998 3f3d cb86 3e3c 6fb9 03be
00000130: 3199 8c3c aa61 09bc 6c7f 9dbd e214 163d
00000140: 9562 3cbd e9ce a5bc 9326 afbc 63dd 9f3d
00000150: ec36 403e c60d 673d 6d39 7b3d 35c2 c83d
00000160: 9441 09bd 57a9 403e b385 8f3a fbd3 803d
00000170: 5ec4 973c 9fd0 0e3e 8a45 ce3c f16a c93d
00000180: cb0f db3d 6d44 643d aaa2 8abc 3c55 28bd
00000190: da83 b93d 93c9 9ebb 5a93 513d 19bc b5bc
000001a0: 3d5f 1f3e 39b5 823d 5f7f ff3d 20d8 19bc
000001b0: 2a25 5c3e 8292 293e e1a9 343e 1945 493d
000001c0: 1361 e8bc dc27 353d d19a 2ebd 2ce1 1d3e
000001d0: 214f 473d 0fc3 223c b3d5 933d 74e0 493c
000001e0: 7fa8 e03d 1405 1a3d b540 ad3c 5406 803d
000001f0: f2d8 333e bb33 dd3c 4221 d03d 7f79 633d
00000200: 3612 513d c1e5 2c3e d06c f23d e377 38bc
00000210: a83d 163e ca24 d33d c170 503d 5970 8e3c
00000220: a188 8d3d d7b3 b5bd 0e53 4bbd 0a64 833c
00000230: 25a1 fb3d 3e57 e9bc 58c0 25bd 59fd 0dbd
00000240: 4077 cd3d 56c6 3c3e cef9 8c3d ca58 e63d
00000250: 8055 13bc 44c3 a93d d667 a53c e380 fdbc
00000260: d709 033e 5d90 173e 4545 7c3c f96d a83d
00000270: 3df4 7cbd 3f6c 023e b883 163e b9be 23bd
00000280: f7da b53d a627 9cb8 aacb b53c 9a50 0cbc
00000290: 5f08 84bc c997 f73c cb53 2dbd 45f0 3ebd
000002a0: 1f74 d73c 0660 403e a5f1 083e b060 3a3e
000002b0: d48f 073e 955c 223d 973f 903d b161 183e
000002c0: 98db b03d 91ed fb3d e45d a83d f333 d9bd
000002d0: e56f e63d ef92 a2bc 7314 b43d 183d 97bd
000002e0: 40ea 8c3d 14c6 03bd bc9c da3d 2ebc 59bd
000002f0: b215 e03c ac1f 893d fdda 423e e872 243e
00000300: 419f 943d 1739 8e3d 17bd 15bd a813 ab3d
00000310: e7ad 333e e011 823d 76e1 9bbd aec8 b73d
00000320: cb74 483e dd23 9a3d 1db1 243e c2c6 0a3e
00000330: 2d35 da3c ad4d 533e aa16 fe3d ed76 343e
00000340: 5c42 1a3e d499 073e 5ae2 e7bc a2f2 3c3e
00000350: b7de d23c 9f28 6a3e 6a38 5f3d 0e8a 2abc
00000360: fba9 12bd 11ba 483e cbfd ee3c ed7b 5a3d
00000370: 7ceb 50bd 8f1b e23c 24ce ec3d 5c04 c83d
00000380: 6c37 9e3c a20f c83d 6cd6 86bd 98ef c73d
00000390: fb83 47bd bc13 b83c 236e 55bc daaf 053e
000003a0: ae16 043d a4d9 62bb 5e56 ea3b d48d 23bd
000003b0: 469b 2abb f17d e73d 168a 2e3e 24e5 473c
000003c0: e09d c13d 858d 4fbc e64b cf3d 40de af3d
000003d0: 7024 06bd bcf6 9a3d d417 0c3c dae3 4c3d
000003e0: 3421 45bd fdd7 b73d 73e2 00bd 4b48 f33d
000003f0: 0cb5 2b3e d526 f6bc b438 1dbb 62fa 0d3e

fc1.bias f4 [64]
-0.13308114 0.31108233 -0.20625094 -0.06700307 -0.14886725 -0.11259461 -0.20197389 -0.075036265
-0.23537333 -0.06946735 0.18308161 0.070487484 0.24205662 0.2741584 -0.1929317 -0.1721564
-0.20945749 0.004028897 -0.030819425 0.026824074 -0.1916 0.07382902 0.13901304 -0.18603396
-0.2482409 0.12626056 0.047148824 -0.13791534 -0.10295891 -0.16398302 -0.22667444 -0.045325983
-0.070403494 -0.010835261 -0.09929055 -0.18016738 -0.007603382 -0.23984583 0.36844766 -0.05201534
-0.26517302 -0.16495554 0.17894635 -0.19935474 -0.1798497 -0.26129052 -0.13465522 0.1468324
-0.15729956 -0.15271649 0.27330256 -0.09230111 0.099697545 -0.25089103 -0.091842644 -0.005174596
-0.0452293 -0.14094618 -0.0322462 -0.09584948 0.32386672 -0.1966673 0.23551355 -0.10104298
00000000: 6c46 08be 2f46 9f3e 7233 53be e838 89bd
00000010: a870 18be 0198 e6bd 3ed2 4ebe 9dac 99bd
00000020: b505 71be e644 8ebd bf79 3b3e be5b 903d
00000030: b1dd 773e 7d5e 8c3e e38f 45be c449 30be
00000040: 067c 56be d604 843b 0579 fcbc 29be db3c
00000050: ca32 44be ab33 973d 6f59 0e3e b07f 3ebe
00000060: dd32 7ebe 734a 013e 201f 413d ae39 0dbe
00000070: 1fdc d2bd 2aeb 27be 581d 68be bda7 39bd
00000080: b52f 90bd 6186 31bc d858 cbbd cc7d 38be
00000090: cb25 f9bb 259a 75be 2ca5 bc3e 0a0e 55bd
000000a0: c2c4 87be 1bea 28be b63d 373e a623 4cbe
000000b0: 852a 38be dfc7 85be 0fe3 09be 3c5b 163e
000000c0: 2313 21be b661 1cbe 50ee 8b3e 5d08 bdbd
000000d0: 3a2e cc3d ca74 80be ff17 bcbd a88f a9bb
000000e0: 5c42 39bd 3254 10be 9714 04bd bb4c c4bd
000000f0: dcd1 a53e 2763 49be 772a 713e 9fef cebd

fc2.weight f4 [64, 64]
-0.04998472 0.1908222 -0.034598745 -0.04363577 0.06401821 0.13099736 -0.0948099 -0.039659474
0.0067997887 0.03369751 0.09813837 0.12750123 0.25018585 0.09194252 0.051801555 -0.030038757
-0.062037785 0.032435365 0.08131138 0.014170034 -0.090200484 0.081255384 0.05130338 -0.13335194
-0.03717756 0.08733263 0.0812795 -0.029430171 0.06491813 -0.08049347 -0.030734714 -0.02788506
0.12120612 0.20757593 0.034505546 0.10669547 0.10547115 -0.06200334 0.15022083 0.085893266
0.05662735 -0.014380355 0.20166661 0.024196649 -0.08887472 0.018052587 0.01783447 0.15140791
-0.091506355 -0.029388178 0.10711046 -0.04271313 0.021896124 -0.11314516 -0.08811066 0.012379372
0.098308034 -0.08739489 0.0048850887 0.0066807875 0.17553571 0.005953009 0.22021219 -0.0006368714
-0.04213996 -0.04075674 0.17221062 -0.022999473 0.15273604 0.089115605 0.04518826 0.0615698
0.13956009 -0.038691107 -0.102024384 -0.026359955 -0.106622994 -0.0991611 0.16734089 0.037782807
0.15326136 -0.010207347 0.13237514 -0.07984123 -0.017743893 0.07218489 -0.05708673 0.003461625
-0.002379203 -0.054087788 0.05465721 0.027684163 0.12613602 -0.049800213 0.12272347 -0.030614236
0.053297915 0.013224485 0.07848537 0.120049365 0.14441308 0.06354829 -0.123523384 0.02128661
0.11242542 0.04912527 0.0035110053 0.15580513 0.14849605 0.13892558 -0.013070192 -3.8513044e-06
0.016387438 0.1541416 0.0025406764 0.006067267 -0.0886241 0.01736647 -0.0087864725 -0.05767657
0.15184277 0.009356275 0.06241132 0.027250933 -0.2225534 0.033673145 0.03794458 0.039209627
-0.013735113 -0.099701844 0.07391796 0.12916796 0.027805502 0.10385864 0.034928426 -0.061222024
-0.024949161 0.10223565 -0.06402618 0.06257392 -0.0007288761 0.0048815934 0.06342265 -0.037423898
0.17610992 -0.061644137 0.10104507 0.1036589 0.10634644 0.029234013 0.022730503 -0.033923503
0.052838106 -0.019499542 0.070627615 -0.04873887 0.11173783 -0.02295349 0.06324669 -0.06338684
0.012544148 0.054340526 0.04708582 -0.016421508 -0.030214692 -0.01126511 -0.05134075 -0.09815777
0.082329996 0.11995891 0.07536621 0.11583235 0.01593523 -0.010606277 -0.07673065 -0.022105506
0.082496665 0.052815493 0.027373167 0.11744037 0.05397128 -0.03539501 -0.07075287 -0.025217915
-0.01361917 0.12334658 0.02061497 -0.04813851 -0.06667844 -0.032031123 -0.029423216 0.048597597
-0.019195221 -0.078793064 0.11883025 0.057083014 0.079516925 0.084129095 0.086696304 -0.017951136
0.08623579 -0.005771203 0.095829405 -0.052163377 -0.04252643 -0.0032835014 -0.064448304 -0.078333125
-0.015857935 0.06691329 0.025956191 -0.014830219 -0.122001104 -0.1092837 -0.10782158 0.11176947
0.045909055 0.064078316 -0.111826815 0.11842525 0.002059111 -0.07950491 0.08522064 0.034471154
-0.04644347 -0.038176894 -0.016702075 0.07489935 0.017372841 0.065517336 -0.10772066 -0.08920228
0.027497116 -0.08500247 -0.07110452 0.09204171 -0.03401184 0.09405826 -0.11637567 -0.044390544
-0.03718325 -0.09216407 -0.104796015 -0.021482375 -0.08674528 -0.0034287395 -0.0052421507 -0.110814005
-0.06363722 0.06526293 -0.05182318 -0.07764118 -0.039020434 0.121888995 -0.040455528 0.057124782
00000000: c7bc 4cbd e566 433e 6ab7 0dbd 6cbb 32bd
00000010: fb1b 833d 2c24 063e b12b c2bd f971 22bd
00000020: c3d0 de3b 6606 0a3d c5fc c83d af8f 023e
00000030: 5c18 803e 5c4c bc3d de2d 543d d713 f6bc
00000040: 551b 7ebd f2da 043d 9586 a63d 6e29 683c
00000050: 08bb b8bd 3969 a63d 7e23 523d 698d 08be
00000060: 7f47 18bd 73db b23d de75 a63d 8b17 f1bc
00000070: ccf3 843d c3d9 a4bd 5ec7 fbbc 366f e4bc
00000080: ea3a f83d c98e 543e b055 0d3d 2883 da3d
00000090: 4201 d83d 37f7 7dbd 7dd3 193e cfe8 af3d
000000a0: 15f2 673d 959b 6bbc b181 4e3e 0d38 c63c
000000b0: f303 b6bd 05e3 933c 9819 923c ad0a 1b3e
000000c0: af67 bbbd 7abf f0bc bb5c db3d f7f3 2ebd
000000d0: 805f b33c a6b8 e7bd 5d73 b4bd d9d2 4a3c
000000e0: b955 c93d 18fc b2bd 1813 a03b 82ea da3b
000000f0: a2bf 333e 7511 c33b 4e7f 613e b7f3 26ba
00000100: f39a 2cbd 8af0 26bd fb57 303e 6469 bcbc
00000110: d666 1c3e 3e82 b63d 5317 393d 9d30 7c3d
00000120: d7e8 0e3e 917a 1ebd 29f2 d0bd d5f0 d7bc
00000130: 285d dabd fa14 cbbd 695b 2b3e 25c2 1a3d
00000140: 8cf0 1c3e b73c 27bc 598d 073e cc83 a3bd
00000150: a45b 91bc acd5 933d c6d3 69bd 6edc 623b
00000160: 67ec 1bbb 288b 5dbd 3de0 5f3d e6c9 e23c
00000170: cd29 013e 4ffb 4bbd 7156 fb3d b5ca fabc
00000180: ea4e 5a3d 83ab 583c f0bc a03d 71dc f53d
00000190: 06e1 133e 9b25 823d d4f9 fcbd 4261 ae3c
000001a0: 4c3f e63d 9437 493d e518 663b 618b 1f3e
000001b0: 590f 183e 8242 0e3e 5c24 56bc 743a 81b6
000001c0: f33e 863c 4cd7 1d3e 7a81 263b edcf c63b
000001d0: 8d80 b5bd 2144 8e3c 23f5 0fbc 443e 6cbd
000001e0: ac7c 1b3e 104b 193c 03a3 7f3d 593d df3c
000001f0: 0ae5 63be daec 093d c76b 1b3d 469a 203d
00000200: 3d09 61bc 7b30 ccbd 4d62 973d 9b44 043e
00000210: 5dc8 e33c d7b3 d43d 1c11 0f3d f2c3 7abd
00000220: 2f62 ccbc ed60 d13d 2820 83bd c126 803d
00000230: 0c12 3fba c6f5 9f3b bce3 813d cd49 19bd
00000240: 2956 343e 907e 7cbd b8f0 ce3d 1e4b d43d
00000250: 2acc d93d 2b7c ef3c 5235 ba3c 5ff3 0abd
00000260: c56c 583d 81bd 9fbc 36a5 903d 69a2 47bd
00000270: ced6 e43d f508 bcbc 7b87 813d f6d0 81bd
00000280: f885 4d3c 2c94 5e3d 10dd 403d 6686 86bc
00000290: cd84 f7bc 4c91 38bc ae4a 52bd f106 c9bd
000002a0: a19c a83d 04ad f53d 9959 9a3d 8339 ed3d
000002b0: 998a 823c f3c5 2dbc f624 9dbd 9b16 b5bc
000002c0: 03f4 a83d 0f55 583d b13d e03c 9484 f03d
000002d0: fd10 5d3d 5cfa 10bd e1e6 90bd cd95 cebc
000002e0: f022 5fbc 229d fc3d bae0 a83c e32c 45bd
000002f0: b58e 88bd 1133 03bd f508 f1bc 460e 473d
00000300: 4c3f 9dbc 425e a1bd 465d f33d e1cf 693d
00000310: c5d9 a23d e04b ac3d d58d b13d 430e 93bc
00000320: 649c b03d 5c1c bdbb 3542 c43d 44a9 55bd
00000330: 3230 2ebd 0330 57bb 79fd 83bd 1e6d a0bd
00000340: 80e8 81bc d609 893d 14a2 d43c 72fa 72bc
00000350: b7db f9bd 22d0 dfbd 8fd1 dcbd 64e7 e43d
00000360: 220b 3c3d 7e3b 833d 7505 e5bd f088 f23d
00000370: 26f2 063b 78d3 a2bd 2988 ae3d a031 0d3d
00000380: 823b 3ebd 605f 1cbd cad2 88bc d564 993d
00000390: 7d51 8e3c f42d 863d a69c dcbd afaf b6bd
000003a0: a241 e13c c615 aebd 3f9f 91bd 5d80 bc3d
000003b0: 0050 0bbd 9ea1 c03d 5e56 eebd dcd2 35bd
000003c0: 774d 18bd 84c0 bcbd 4b9f d6bd cefb afbc
000003d0: 82a7 b1bd b4b4 60bb 59c6 abbb 74f2 e2bd
000003e0: 3b54 82bd 92a8 853d 8b44 54bd 5702 9fbd
000003f0: e4d3 1fbd f0a0 f93d b2b4 25bd adfb 693d

fc2.bias f4 [64]
0.3890791 -0.02660438 -0.131453 -0.05767918 -0.12914042 -0.0066801347 -0.122857824 0.007359762
-0.078524396 0.009523782 0.045145538 -0.1866729 0.009582345 -0.06850122 -0.075584464 -0.113837585
-0.07333096 -0.18872948 -0.031483408 0.28196695 -0.105168745 -0.014585122 -0.019102482 -0.0809322
-0.2032076 -0.08281442 -0.12654868 -0.009147642 -0.1473964 -0.13298006 -0.07179616 -0.1786804
0.0031641668 -0.121069394 -0.045401365 -0.04661241 -0.029747976 -0.008910989 -0.12964904 0.41162163
-0.0958477 -0.120218 -0.08997446 -0.15350851 -0.038986478 -0.096989945 0.2799569 -0.0138976
-0.03728958 -0.018664194 0.4497279 -0.018669961 -0.013478647 -0.008841451 -0.075476475 -0.050274935
-0.07479473 -0.019362127 -0.030797597 -0.21675572 -0.059947956 -0.01770086 0.24922748 -0.083960816
00000000: 6035 c73e 6ef1 d9bc 9d9b 06be 0141 6cbd
00000010: 633d 04be 08e5 dabb e29c fbbd 292a f13b
00000020: 66d1 a0bd a309 1c3c 87ea 383d 2e27 3fbe
00000030: 45ff 1c3c 5e4a 8cbd 07cc 9abd ae23 e9bd
00000040: 8b2e 96bd 4d42 41be bff4 00bd f95d 903e
00000050: b662 d7bd 6ff6 6ebc cf7c 9cbc c8bf a5bd
00000060: a715 50be 9b9a a9bd fa95 01be fedf 15bc
00000070: 15ef 16be ed2b 08be dd09 93bd fff7 36be
00000080: e95d 4f3b 3bf3 f7bd c8f6 39bd a8ec 3ebd
00000090: 07b2 f3bc 66ff 11bc b8c2 04be 12c0 d23e
000000a0: cd4b c4bd db34 f6bd 8844 b8bd 5631 1dbe
000000b0: 49b0 1fbd aaa2 c6bd 8356 8f3e c2b2 63bc
000000c0: f5bc 18bd a7e5 98bc bc42 e63e bff1 98bc
000000d0: 8bd5 5cbc bcdb 10bc 6993 9abd 17ed 4dbd
000000e0: fb2d 99bd 539d 9ebc 3e4b fcbc 36f5 5dbe
000000f0: fd8b 75bd 6501 91bc 7d35 7f3e a6f3 abbd

fc3.weight f4 [42, 64]
-0.053146016 0.12106716 -0.013728483 -0.0905219 0.13212697 0.102764346 0.007994761 -0.06415646
0.14291692 0.04087237 0.04077383 0.05580999 0.013651024 0.08643394 -0.004081258 0.10403174
-0.02490142 0.07323419 0.04292505 -0.04038194 0.06264472 0.09476892 0.067138314 0.022430044
0.16251291 -0.10513034 0.07112599 0.035498295 0.06542522 0.03993258 0.08985054 0.010550231
0.10840319 0.047869325 -0.03536438 -0.002525456 0.15994303 0.0043382384 -0.05087266 -0.032926437
0.03426205 0.04187489 0.10248252 0.070654616 0.1474714 -0.018384364 -0.098631255 0.029574491
-0.018252576 -0.044180118 -0.14627653 -0.01898984 0.018185664 0.08335291 0.06096307 0.1703436
0.0905327 -0.051631056 0.07367742 0.12150353 -0.007450396 0.05402438 -0.17981385 -0.07093802
-0.15436871 -0.024571327 -0.0013160823 0.0005650251 0.15179509 0.15745012 0.07714663 0.093283996
-0.04298479 0.06420057 -0.066168085 -0.060830306 0.023791462 -0.0063250763 0.12739892 0.05722627
0.15444395 0.012036764 0.07292647 -0.02721524 0.036491156 -0.08039446 -0.008790821 0.04267446
0.12267316 0.0661804 0.09470908 -0.029948005 0.11365135 0.032728177 -0.05427652 -0.013626098
-0.07211617 0.10024798 0.13918766 -0.021080349 0.13708875 0.1020089 0.026231566 -0.10308212
-0.003210518 0.0705521 0.04769502 -0.011652495 -0.036782753 0.15037833 -0.12347153 0.043310642
0.054558642 0.05106377 0.036286656 -0.08041224 -0.046771865 0.14740224 0.123744614 0.13649306
0.060299475 0.062060375 0.09868578 0.09956386 0.00048755316 0.15733296 -0.08260233 0.026846813
-0.11163948 -0.030311616 0.11091073 -0.12124573 0.12047868 0.15134592 0.09211286 -0.020755073
-0.0048639798 0.083942674 -0.007464081 0.10894991 -0.008956917 -0.04240079 -0.027261248 -0.0066601187
-0.01723374 0.028418122 0.019437898 -0.06716545 -0.03287293 0.023362234 0.118859395 -0.04463585
0.09480679 0.044355705 0.05378054 0.017130718 0.056882273 0.015104414 0.114073314 0.073963754
0.15307851 -0.07520156 0.12304993 0.077349074 0.13290285 -0.03441746 -0.030904083 -0.104732394
0.016761856 0.17034166 0.12213001 0.088295445 0.036131866 -0.017870825 -0.10997007 0.06554246
0.023725385 0.14862894 -0.1357849 0.018339941 0.09535905 0.14888734 0.16673811 0.012828766
0.01903222 0.02584619 0.0066633285 0.12668464 0.14850725 0.08115919 0.003044729 0.037645638
-0.09351313 0.10263883 0.06354004 0.08001475 0.01940755 0.013563494 -0.0639632 0.079818554
0.023500537 0.075377986 -0.06600156 0.050746117 -0.025204588 -0.025602637 -0.056029364 0.005114168
0.07616118 0.107434094 -0.032168716 -0.0881348 0.034536615 0.015606565 0.03810267 0.11261266
-0.01971497 0.032254945 -0.01569416 0.18164058 0.054015815 0.13665561 0.106485285 -0.04788807
-0.024662 0.09403185 0.15069689 0.13443272 0.14484473 0.12848127 -0.029933749 -0.10340686
0.120168924 0.09941803 0.067465924 0.11743896 0.1088735 0.15511627 0.028104637 0.00725018
-0.097463265 -0.018372336 -0.074582964 -0.020135261 0.038703863 0.1427642 0.09979377 -0.021017803
0.13573062 -0.035166975 0.020534579 -0.020683782 0.05743253 0.11465728 -0.17512521 0.08236183
00000000: a3af 59bd 0ff2 f73d 6eed 60bc 8c63 b9bd
00000010: 4b4c 073e 1d76 d23d 75fc 023c 7664 83bd
00000020: d058 123e c969 273d 7602 273d 0499 643d
00000030: 8ba8 5f3c 4704 b13d 13bc 85bb 980e d53d
00000040: 10fe cbbc cffb 953d 2dd2 2f3d 8867 25bd
00000050: e04b 803d 3516 c23d d07f 893d 36bf b73c
00000060: c969 263e 934e d7bd 81aa 913d a966 113d
00000070: a8fd 853d 5890 233d 8f03 b83d e0da 2c3c
00000080: 7e02 de3d a012 443d 3dda 10bd 1f82 25bb
00000090: 1bc8 233e c827 8e3b da5f 50bd dfdd 06bd
000000a0: 5d56 0c3d 0185 2b3d 5be2 d13d 5eb3 903d
000000b0: be02 173e ce9a 96bc 2fff c9bd 3446 f23c
000000c0: 6d86 95bc 36f6 34bd 84c9 15be 9590 9bbc
000000d0: 1afa 943c eeb4 aa3d 69b4 793d 8d6e 2e3e
000000e0: 3569 b93d 167b 53bd 30e4 963d d8d6 f83d
000000f0: 7422 f4bb ab48 5d3d 1f21 38be f447 91bd
00000100: d512 1ebe cf49 c9bc 6580 acba 311e 143a
00000110: 2c70 1b3e 9b3a 213e 0dff 9d3d ae0b bf3d
00000120: d210 30bd 977b 833d 2283 87bd 3329 79bd
00000130: 50e6 c23c 9642 cfbb dd74 023e 1866 6a3d
00000140: 8e26 1e3e d935 453c 795a 953d 7ff2 debc
00000150: c077 153d daa5 a4bd 6007 10bc 6acb 2e3d
00000160: 113c fb3d 9789 873d d6f6 c13d 8555 f5bc
00000170: 0ac2 e83d fb0d 063d 0e51 5ebd ff3f 5fbc
00000180: a4b1 93bd d04e cd3d 3687 0e3e b2b0 acbc
00000190: fe60 0c3e 0bea d03d 95e3 d63c b81c d3bd
000001a0: 8e67 52bb 9f7d 903d da5b 433d 1bea 3ebc
000001b0: 83a9 16bd c7fc 193e a4de fcbd 8066 313d
000001c0: e278 5f3d 3e28 513d 51a1 143d 2caf a4bd
000001d0: db93 3fbd 9df0 163e d16d fd3d d6c4 0b3e
000001e0: 95fc 763d 0533 7e3d c51b ca3d 23e8 cb3d
000001f0: 479e ff39 e41b 213e 692b a9bd d9ed db3c
00000200: 3da3 e4bd 1150 f8bc 2a25 e33d ae4f f8bd
00000210: 87bd f63d 6dfa 1a3e aba5 bc3d 8b06 aabc
00000220: 0562 9fbb 23ea ab3d 4095 f4bb 2121 df3d
00000230: 08c0 12bc 73ac 2dbd fb52 dfbc 203d dabb
00000240: c62d 8dbc 1fcd e83c 3a3c 9f3c 0a8e 89bd
00000250: c4a5 06bd 2862 bf3c 8e6c f33d 15d4 36bd
00000260: 102a c23d 54ae 353d fc48 5c3d b855 8c3c
00000270: 63fd 683d 8178 773c 459f e93d 4f7a 973d
00000280: 9dc0 1c3e 4703 9abd 9a01 fc3d 3169 9e3d
00000290: af17 083e 53f9 0cbd 8f2a fdbc f07d d6bd
000002a0: 2950 893c 0b6e 2e3e 4c1f fa3d 3ed4 b43d
000002b0: 02ff 133d d665 92bc fd37 e1bd 203b 863d
000002c0: bd5b c23c 2f32 183e 320b 0bbe a53d 963c
000002d0: 9b4b c33d ec75 183e 65bd 2a3e bf2f 523c
000002e0: 75e9 9b3c 64bb d33c 0d58 da3b 9eb9 013e
000002f0: 4912 183e ca36 a63d 138a 473b 5032 1a3d
00000300: d083 bfbd 4f34 d23d 4821 823d c6de a33d
00000310: 95fc 9e3c 6b39 5e3c 23ff 82bd e977 a33d
00000320: 3384 c03c c65f 9a3d d32b 87bd 29db 4f3d
00000330: da79 cebc 9fbc d1bc 0c7f 65bd c094 a73b
00000340: 65fa 9b3d 6806 dc3d 58c3 03bd 0580 b4bd
00000350: 4476 0d3d aeb2 7f3c 8c11 1c3d 77a1 e63d
00000360: 4a81 a1bc c31d 043d 0a91 80bc fdff 393e
00000370: b03f 5d3d 73ef 0b3e f514 da3d 4826 44bd
00000380: f607 cabc c593 c03d 4950 1a3e bba8 093e
00000390: 2d52 143e 9890 033e 9f37 f5bc fac6 d3bd
000003a0: 201b f63d ae9b cb3d 932b 8a3d d683 f03d
000003b0: 12f9 de3d cdd6 1e3e b23b e63c eb92 ed3b
000003c0: d29a c7bd 9581 96bc f4be 98bd b4f2 a4bc
000003d0: f187 1e3d c730 123e ad60 cc3d 872d acbc
000003e0: f8fc 0a3e 3f0b 10bd 2238 a83c 0971 a9bc
000003f0: 5f3e 6b3d 70d1 ea3d 0654 33be 52ad a83d

fc3.bias f4 [42]
-0.013553502 -0.12063297 -0.02389429 -0.06413611 -0.16840334 -0.09197632 -0.11093624 0.010818219
-0.11988751 -0.051455367 -0.046681393 0.040400222 -0.17846295 -0.00046856023 0.0044324496 0.048066325
0.032258734 -0.06357527 -0.016936978 -0.1252167 -0.13475014 -0.14927302 -0.15073575 -0.0048029167
-0.06640917 -0.036142316 -0.021025464 -0.10947045 -0.016043168 -0.034405854 -0.02171724 -0.05627796
-0.047079355 0.013122119 -0.031235749 -0.16766006 -0.1179401 -0.09746232 -0.057163067 -0.008705717
-0.071254626 -0.04669139
00000000: 820f 5ebc 6b0e f7bd f5bd c3bc cb59 83bd
00000010: ed71 2cbe 155e bcbd 8a32 e3bd e63e 313c
00000020: 9587 f5bd ddc2 52bd fd34 3fbd b47a 253d
00000030: febe 36be 17a9 f5b9 153e 913b 32e1 443d
00000040: bc21 043d c033 82bd 6bbf 8abc ce38 00be
00000050: f1fb 09be 07db 18be 795a 1abe c961 9dbb
00000060: 8801 88bd f709 14bd 983d acbc 0b32 e0bd
00000070: f66c 83bc 27ed 0cbd 5ae8 b1bc b883 66bd
00000080: 48d6 40bd 28fe 563c 1de2 ffbc 14af 2bbe
00000090: 948a f1bd 539a c7bd d223 6abd 6ca2 0ebc
000000a0: f2ed 91bd 793f 3fbd
