models/DQN/4/dqn_agent_target_weights.pth (torch, 49906 bytes, 6 tensors)

fc1.weight f4 [84, 42]
00000000: 0e63 163d 1479 a2bd 614e 5abd 5aad a0bd
00000010: a919 df3d d456 103e 777c 01be c731 e13d
00000020: db60 8ebd bb1b 3f3c eeed d1bc e34d 963d
00000030: 58b8 103e 6869 983d 4fdc e6bd 2536 033d
00000040: 9e54 1a3e 425f 17be a650 623d c0c8 003e
00000050: dc10 7fbb 4d42 ab3d 177d 18be 13d8 ba3d
00000060: 8e98 c63d 11e6 4b3d 83fc 033e 539c cfbd
00000070: 6f28 f3bd fdaf 69bd f8c9 ea3d f5e2 1a3e
00000080: eab4 2dbd 2c7a 783c cabb f63d 1fe3 f3bd
00000090: add6 cb3d f95c 173e 2d2b a1bb 3064 133d
000000a0: 59a3 e83d deb6 fa3c e9cd 7e3d cd26 823d
000000b0: 05d5 b73c 2b92 07be baa7 d7bd 70c8 123d
000000c0: eb92 c3bd 0154 d23b aa19 82bd b5bc 5cbd
000000d0: 8589 f1bd 6f2b 99bd 7612 823d 551a fd3c
000000e0: 39b3 32bd 7280 213d 4e89 a63d 3837 803c
000000f0: 7b8e 273c 1313 d7bd a7a0 7f3d b54f c53c
00000100: 9521 9d3d ca97 043d cf78 aa3d bb9d b8bd
00000110: e4e4 4bbd c3d5 8bbc 0e8c a33c c528 afbd
00000120: fe11 4fbb 8dd0 773d 414f 04be a2eb ff3d
00000130: 711d a1bc ffe4 65bc b69d 1b3e e138 a0bc
00000140: 3abc 6c3d 361e ebbd c140 49bd 6224 013d
00000150: 483d c9bd c513 1dbe 147f 043d 16d3 abbd
00000160: f777 6e3c 974c 03be 97c8 0b3d e7f8 ee3d
00000170: bd9c d03d c792 07bd ba63 983d 81f9 0ebe
00000180: 0cc4 2c3d 0401 bfbd 288d 063d 5418 d73d
00000190: 3a32 053d 6ac6 1bbe dbea 233d 4839 013e
000001a0: 3039 0f3e de9e b13d 6397 03be cbab 8bbc
000001b0: e30b 113e 6c42 b6bd daf3 ff3d b1c7 1ebd
000001c0: 307c 15be 9789 1bbe 6697 103e e4a4 613d
000001d0: 9bbc 213d 4e43 19be bacd 9e3d 3099 103e
000001e0: 86f8 4fbd ff6e d33c 0ab9 793c b5aa e7bd
000001f0: 7ac9 fdbd 3ad4 afbd db88 b33d d6d1 f6bb
00000200: c162 07bd 9d50 e6bd 6678 9bbd deba 233d
00000210: 92d5 80bd eaca dabd a775 e33d c3f8 e13d
00000220: b95b e03c 0451 603d 2100 f4bd d4df ccbc
00000230: d7d2 02be c22f 973c 925b b8bd 59cb 143e
00000240: 31da 47bd 51ab b9bd 8633 04be f97c 873d
00000250: 765b e83d 9c21 213d c925 ee3d 2589 f33d
00000260: 834d 9d3d cd7a 803c d02c b53d 7cb7 e73d
00000270: 1d48 123c d1c9 f2bd 8986 273d 3a43 10be
00000280: cb90 b2bc d293 34bc 1e6f 1bbe 4719 f8bd
00000290: 5449 6a3d 904b b13c 0c33 073e 2eb1 033e
000002a0: b0a0 11be 4108 97bd 107e 1a3e 5646 1dbd
000002b0: 76eb 03be 5127 793d eb11 a03d 3157 e83d
000002c0: 996e 0e3d 9ef7 44bd 75a0 c43c 6756 f5bb
000002d0: f81c 32bd 0e1f b0bc 32d8 ab3d 29e9 f03d
000002e0: f46c c83b 25ff 763d 3396 b7bd e8ab 933d
000002f0: 8f74 efbb ed79 c73c 80a5 f8bd 8835 903d
00000300: 03d4 bbbc 4cdb 633c afc6 173d 5c3d 94bd
00000310: 5d8b dfbd 0d73 cfbd 7776 a93c 779a cebd
00000320: dedc de3d 7306 1bbe 2b80 dd3c 4c8f b3bd
00000330: f940 af3c ec95 9abd 2fe3 0ebe 2815 02be
00000340: e44e bfbd 5ba9 5e3c f59b 88bd 6e1e 0d3d
00000350: 2ca2 e63b 9622 39bb a48b 91bd 337c e3bd
00000360: 69e1 ccbc 1595 253d 7fdc 10bd 237e 6ebd
00000370: b79e 0e3e e105 73bb 8ed4 153d a643 13be
00000380: f37c 083e 0cc0 87bb 7e94 36bd a302 143e
00000390: a86e d3bd 5c47 a63a f558 053d 36ec 963d
000003a0: ecb5 1c3e 16db 7c3d 157b b5bd 618a e93a
000003b0: 4b76 ddbb 8965 f4bb a626 5abd 32a1 453d
000003c0: 3fcc ad3d 5753 02be 159c c93d 7d55 edbd
000003d0: 36e5 94bc 8e9f f4bb 4142 843d 0b89 0c3d
000003e0: 1f4b 063e edf7 02be 5da6 9c3d 0793 0c3e
000003f0: 1719 9a3d 801a d5bd 5a38 dcbc 98c0 bfbd
0.03671556 -0.0793325 -0.053297404 -0.07845564 0.10893566 0.14095622 -0.12645136 0.109958224
-0.069520675 0.011664326 -0.025626149 0.073390745 0.14132822 0.0744198 -0.11272489 0.032034058
0.15071341 -0.14782432 0.055252694 0.1257658 -0.003891996 0.08362255 -0.14891468 0.09123244
0.09697066 0.049779955 0.12889294 -0.10137238 -0.118729465 -0.0570526 0.11464304 0.1512564
-0.04240886 0.015165847 0.12047537 -0.11908554 0.099530555 0.1478156 -0.004918477 0.035984218
0.11359281 0.030604776 0.06220809 0.06355057 0.022440443 -0.13239352 -0.10530038 0.035835683
-0.09549507 0.0064187055 -0.06352551 -0.053890903 -0.11793808 -0.074789874 0.063511774 0.030896345
-0.04362795 0.039429136 0.081316575 0.01565133 0.010226841 -0.10501685 0.06240907 0.024085859
0.07672421 0.03237132 0.08323824 -0.0901446 -0.049778834 -0.017069703 0.019964244 -0.08552698
-0.0031596418 0.060501624 -0.12920858 0.12496115 -0.01966736 -0.014031648 0.1519688 -0.019558372
0.057796694 -0.11480372 -0.04913402 0.031528838 -0.098261416 -0.15339573 0.032347754 -0.08389871
0.014554969 -0.12822185 0.034126844 0.11668568 0.101861455 -0.033098962 0.07440896 -0.13962366
0.042179152 -0.093263656 0.03284946 0.10502687 0.032518603 -0.15212408 0.040018898 0.12619507
0.13986659 0.0867288 -0.12850718 -0.01704969 0.1416469 -0.08899388 0.12497683 -0.03876466
-0.14598155 -0.15189205 0.14120254 0.055088893 0.03948651 -0.14967081 0.07754083 0.14120936
-0.05077412 0.025809763 0.015241871 -0.11311857 -0.12391944 -0.08585401 0.087663375 -0.0075323386
-0.033053163 -0.112458445 -0.075913236 0.039973132 -0.06290735 -0.10683234 0.11106425 0.11033776
0.027387487 0.054764763 -0.11914087 -0.025009073 -0.12775742 0.01845539 -0.09001841 0.14530696
-0.048792068 -0.09065879 -0.1291028 0.066156335 0.1134557 0.039338693 0.11628301 0.118913926
0.076808 0.015683556 0.08846438 0.11314294 0.008928326 -0.118549 0.040899787 -0.14088145
-0.021797558 -0.011021571 -0.15179107 -0.12114196 0.057198837 0.021642476 0.13203067 0.12860557
-0.14221454 -0.07374621 0.15087152 -0.038397156 -0.1288279 0.06082851 0.078159176 0.113447554
0.034773443 -0.04808771 0.024002293 -0.0074871066 -0.043484658 -0.021499183 0.08390845 0.11763222
0.006116504 0.06030192 -0.08964195 0.07210523 -0.007307596 0.02435013 -0.121409416 0.0704146
-0.022928244 0.013907265 0.037054714 -0.07238266 -0.10915253 -0.10129366 0.020686371 -0.100880556
0.10881971 -0.15139179 0.027038654 -0.08767566 0.021393286 -0.075481266 -0.13953851 -0.12703383
-0.09341219 0.013590182 -0.066703714 0.034452848 0.0070383754 -0.0028249375 -0.071067125 -0.111076735
-0.025009828 0.04042538 -0.03536653 -0.058225762 0.13927732 -0.0037082362 0.03657966 -0.14381275
0.13328914 -0.004142767 -0.044575207 0.14454131 -0.103238404 0.0012686062 0.03255554 0.073692724
0.15303773 0.061732374 -0.08861367 0.0017817729 -0.0067584864 -0.007458393 -0.053259514 0.04824943
0.084862225 -0.12727104 0.098442234 -0.11588571 -0.018175703 -0.0074653095 0.064579494 0.03431038
0.13114594 -0.12789889 0.07648919 0.13727961 0.07524317 -0.10405445 -0.02688234 -0.09362906

fc1.bias f4 [84]
00000000: 6154 f43d 1078 14be e636 17be 51de c03d
00000010: f38f a43d 3e75 13be 01cf 04be 2db4 213d
00000020: 0a07 4d3d 7a9c 02be 7210 ecbd 0e59 d3bd
00000030: 0fde 923c 77ec 0fbe 3ebc d53d e044 a2bd
00000040: d33e b0bd 0ba2 3e3d f2bb 7f3d 2ff4 0e3e
00000050: 9200 dbbd 32a3 6f3d 9d91 e73d a719 22bc
00000060: a5bb 3a3d 7a3d f23d aec0 193e 4244 19ba
00000070: ee65 9d3c 4e60 b03d a831 06bd 6f10 423d
00000080: 89fe 8dbd 50b2 aebd 18d0 463d 67eb 4a3d
00000090: 2514 573c 74ac 42bd 210a 07be de13 66bd
000000a0: 0684 3b3d fc70 5abd bdd9 18be b05b 033e
000000b0: 6f8a 62bd 0cf2 82bd 37a6 efbd a20b ae3d
000000c0: 8868 17be aa5e f9bd 602b 8a3d 7c2e e63c
000000d0: cefb b93c 536f 1b3d 0824 d33d 929f a03c
000000e0: 6f93 d8bd 38ff af3d a7ac d0bd db17 9abd
000000f0: f888 80bd 5ee9 d3bd 7835 11be 010c 6bbd
00000100: 5b91 e63d e1c2 023c ba10 fd3c 3f44 0dbe
00000110: 3280 45bd fb1d e83d abf7 f6bd 9b14 d0ba
00000120: 78bd 52bc 4adf e6bd e42b 4a3d c5e7 50bc
00000130: 1ac7 7e3d d245 aa3d 8bcf 81bb 1de0 2cbd
00000140: bd37 093d 862d fd3d 24e7 aebd cd15 3e3d
0.119301565 -0.14498925 -0.14767036 0.094174035 0.08035269 -0.14400193 -0.1296959 0.03947847
0.05005554 -0.12755004 -0.11526574 -0.1031972 0.017928151 -0.14055048 0.10436295 -0.07923293
-0.08605733 0.046541255 0.062435098 0.13960336 -0.10693468 0.058505245 0.113070704 -0.009893811
0.045589108 0.11828132 0.15014908 -0.0005846658 0.019213643 0.08612119 -0.0327622 0.047378954
-0.06933314 -0.08530104 0.048538297 0.049540903 0.013127361 -0.047527745 -0.13187458 -0.05617129
0.045780204 -0.053330407 -0.1492681 0.12827945 -0.0553078 -0.06393823 -0.11701625 0.084983125
-0.1478597 -0.12176259 0.067465544 0.028098337 0.022703078 0.037947964 0.10309607 0.019607339
-0.10574996 0.08593601 -0.10189181 -0.07524081 -0.06276125 -0.10347246 -0.14180553 -0.057384495
0.11258193 0.007981033 0.030891765 -0.13795565 -0.04821796 0.11333843 -0.12058958 -0.0015875282
-0.012862556 -0.11273058 0.049358264 -0.012750571 0.062201597 0.083140984 -0.0039615086 -0.04220592
0.03350042 0.123621985 -0.0854018 0.04640751

fc2.weight f4 [64, 84]
00000000: a0ad d83d adcb 5bbd 88d0 403d 06d2 5d3c
00000010: 5629 81bd e45a bc3d 2f75 833d 9a66 4d3d
00000020: 9a09 dabd fc97 97bd 597b d33d 64e4 bc3d
00000030: c303 5bbd 39f1 5f3d b47c 8c3d 7a6f b2bd
00000040: 8336 b7bd 0449 9fbc 5372 b93d 26c1 c93d
00000050: 0b1a 0d3c fd65 56bd 2cb0 98bc ef41 bebd
00000060: 6983 503d 43a0 c639 79cb 223c b4f7 2fbc
00000070: fc56 cbbd 75be 1fbd 9b22 be3d 3744 16bd
00000080: 9409 8a3c 525c 07bd 63c7 a0bc 63ec d93d
00000090: d771 c73d 165d 0f3c 579f c6bd dbc2 bb3b
000000a0: e82f 4abd a80b a13d adbe ce3c 8ac8 ce3d
000000b0: 998d 21bd 331e 9ebd dca4 30ba 94e6 4cbd
000000c0: cd4e c0bc 2078 823d 1d82 9cbd 5e9b 8bbd
000000d0: c859 033d 48ec 473c ede3 7d3d 1c53 3dbd
000000e0: 01b7 dcbd c610 95bd 6d6d a0bd 4d9a a33d
000000f0: d6fb b33b 7430 9c3d 0d26 c0bd ad4e 7a3d
00000100: 5fe8 f53b cf24 4d3d cada 67bd fb55 a23d
00000110: cbb9 463b 51fc dbbd 72be 643d 5203 6dbd
00000120: 0c9b d43d 9e66 9d3c 95f0 193d c9de 793d
00000130: b036 b13d ecf1 da3d 2d97 adbc f348 ad3d
00000140: d7d9 4bbd 99b0 243d 394c 913c c7b9 423d
00000150: c932 4e3d 4de0 fc3c b05b 7ebd 4368 893d
00000160: 2cb0 14bd 3049 24bc 74a4 073d 683b 15bc
00000170: 96b4 c53a 2566 be3d 96e8 ff3c 3732 11bd
00000180: d565 303d 97c4 b4bd 198f a53d fd95 ba3d
00000190: b5b3 8e3d 1587 d43d 3946 703d 612b 853d
000001a0: 438c d3bd 8cbe ddbd fe43 7b3d a23b 473c
000001b0: 2866 823c 15d0 c93d 05aa d1bd 5a1d e2bc
000001c0: 735c bd3d af10 babc 30da 71bd dcfc cdbd
000001d0: ddff a7bd c3bf fc3c 0be3 90bd 5ae1 ccbd
000001e0: 0d1a 143a ebc0 d53c f9b0 c93b d6ae 183d
000001f0: fa87 f43c 173f f43c 5ae4 62bd 9a0b a13d
00000200: 156f bd3c 4587 ac3d ac6a d43d 6f42 ae3d
00000210: 18bf cabd b700 42bd 8e77 87bd 2e76 59bd
00000220: 340c 19bc e619 d63b dfe8 8a3c f8ac 99bd
00000230: 3a31 72bd 3f93 0ebd 9dff 45bd 5258 fdbb
00000240: f5a2 203d 61d3 acbd a640 933d 8ded 9f3d
00000250: 2536 51bd e9a3 73b9 4de6 8a3d 5d48 71bd
00000260: 1841 91bd 9ac1 073d ec4d 853c 0606 c33d
00000270: a9b2 d3bc 18e8 af3d 564d a03d 53b4 843d
00000280: 8da7 c43d a3cf d93c cd27 8a3d de37 84bd
00000290: 71c2 98bd bb6b 85bd 1c7c 953b 3253 6f3d
000002a0: e2f6 8f3d 9e46 9ebc b6f0 06bc c780 4c3d
000002b0: d5b5 3a3d 1623 1a3d e4a9 b4bd 574c d43d
000002c0: 5d4d 933c 518e cbbd 08ed 8ebc 062f a0bd
000002d0: 59fd c93a a57d 42bd 86d3 86bd 830d a93d
000002e0: fde7 64bd ac9a babd 0561 d53d 7aa8 563d
000002f0: ecf7 0c3d 4a05 3cbd 7034 c73d de1f b43d
00000300: 3f24 30bd 0316 5abc 953b b8bd 3663 c03d
00000310: b13d b83d 479f 653d 0b26 b73d c144 98bc
00000320: 3bf0 9a3d fb1f 6cbd 6c31 ae3d 8f3a c6bd
00000330: e3e1 173d 4d8f b93d 74d0 9cbb 25b6 cc3d
00000340: 6989 c8bd 83cc cf3d f199 bfbd ea2e 033d
00000350: d005 2dbc 73e3 acbd 011d 80bd e4b4 3bbc
00000360: 41ec a4bc e8b9 c93d 9dad febc 02d4 bfbd
00000370: 0436 c0bd 8aae a63d d61b b3bc 8c1f 943d
00000380: 692e 0c3d 02c7 7fbc fb09 1e3c 8fbe 37bd
00000390: eb8f dbbd e6b8 de3c 748c 9cbc 6d06 323d
000003a0: c677 a63a 54b5 913d fb8e 9a3d 73d2 4fbd
000003b0: 8c81 12bc 973c a8bd b150 013c ae4d 16bd
000003c0: 2ef4 f63c 7ba5 8dbd 9b72 783d ec37 a9bd
000003d0: f502 4dbd 0460 67bd fe9a 24bd 8e59 2dbc
000003e0: fb0d b7bd 184d 1a3d 15ae 89bd fd1f af3d
000003f0: b04b 80bd c0cf cfbc 5277 b03d c550 9c3c
0.10579991 -0.053661037 0.04707387 0.013538843 -0.06306712 0.091970235 0.06418835 0.050146677
-0.106463626 -0.074020356 0.10326261 0.092232496 -0.053470384 0.054673407 0.06859723 -0.08712669
-0.08945944 -0.019443996 0.09055009 0.09851293 0.008612166 -0.052343357 -0.018638693 -0.092899196
0.050906572 0.00037884907 0.009936207 -0.010740209 -0.099287 -0.038999993 0.09283944 -0.03668615
0.01685027 -0.033047028 -0.019626325 0.1064079 0.0973851 0.008750221 -0.096983604 0.0057300157
-0.049362093 0.078635514 0.025237406 0.100968435 -0.03944168 -0.07720604 -0.0006738433 -0.050024584
-0.023475075 0.06370568 -0.07642005 -0.06816743 0.032068044 0.01220233 0.061984945 -0.046221837
-0.10777093 -0.0727859 -0.07833371 0.07988415 0.0054926677 0.07626429 -0.093822576 0.061110187
0.0075045074 0.05008393 -0.056605138 0.07926556 0.0030323144 -0.10741485 0.055845685 -0.057864495
0.10381135 0.01921397 0.037582953 0.06100348 0.08653009 0.10690674 -0.02119025 0.084611796
-0.049768295 0.04020748 0.017736541 0.047540452 0.0503414 0.030868674 -0.06209916 0.067093395
-0.036300823 -0.010027215 0.03311582 -0.009108402 0.0015083726 0.09296826 0.031238835 -0.03544828
0.043065865 -0.08826559 0.08083934 0.09110639 0.0696787 0.10377327 0.05866072 0.065024145
-0.10329487 -0.108273596 0.06134414 0.012160214 0.015917853 0.098541416 -0.10237507 -0.027601887
0.09246149 -0.022713033 -0.05904597 -0.10057995 -0.08203099 0.030853158 -0.07074555 -0.1000392
0.0005649634 0.026092967 0.00615513 0.03727611 0.029849995 0.02981524 -0.055393554 0.07863541
0.023124257 0.08424238 0.103719085 0.08508765 -0.098997295 -0.047363963 -0.066146 -0.05309122
-0.009341288 0.006533849 0.016956745 -0.07503694 -0.059128977 -0.034808394 -0.048339475 -0.007731476
0.039217908 -0.08438755 0.07190065 0.07808981 -0.051077027 -0.00023235347 0.06782208 -0.0589069
-0.07092494 0.033143617 0.016272508 0.09522633 -0.025842028 0.0858919 0.07827251 0.064797066
0.0960227 0.026588267 0.06745873 -0.06455968 -0.07458962 -0.065146886 0.004561914 0.05842895
0.07029511 -0.019320782 -0.008236101 0.0499275 0.045583565 0.037631117 -0.088214666 0.10366123
0.017981226 -0.09939254 -0.01744701 -0.07821469 0.0015410586 -0.047483105 -0.06583314 0.0825453
-0.055885304 -0.091115326 0.10418896 0.052406766 0.034416124 -0.04590348 0.097267985 0.08795141
-0.043003317 -0.013310912 -0.08995739 0.09393923 0.08996142 0.0560601 0.08942803 -0.018587472
0.075653516 -0.057647686 0.0850552 -0.09679138 0.037080657 0.090605356 -0.0047855917 0.09995679
-0.09791834 0.101464294 -0.09355534 0.032027163 -0.010560468 -0.0844182 -0.06255532 -0.011456702
-0.020132186 0.09849912 -0.031088645 -0.09366609 -0.09385303 0.081387594 -0.02186386 0.072325796
0.034223948 -0.015611412 0.009645934 -0.044859465 -0.107208095 0.027187776 -0.019109942 0.04346316
0.001270049 0.07114664 0.075468026 -0.05073781 -0.008942019 -0.082146816 0.0078927735 -0.036695175
0.03014573 -0.069163285 0.06065617 -0.082626194 -0.05005165 -0.056488052 -0.040186875 -0.0105804335
-0.089382134 0.03767118 -0.06722657 0.08551023 -0.06264436 -0.025367618 0.086165085 0.019081483

fc2.bias f4 [64]
00000000: 1fe4 213d b13b 2b3d f5ea 43bd 508e 123c
00000010: dd52 64bc 9707 e03c bd96 e13c 3626 223d
00000020: ee43 8d3d ab1f dcbd 3643 ebbc ba32 833d
00000030: 0f4c ab3c 1049 d33d 39f5 fc3c 1673 9a3d
00000040: 4d95 78bd 7e84 bf3d 3165 7a3d 7511 1dbd
00000050: 0f61 353d 956a df3b 973e 933d d0a8 b7bd
00000060: bfb3 a0bc 3e4c 883d 4b54 653d aba4 15bd
00000070: 4d48 29bd 6d8d 903d 1ab8 963d e9eb 50bd
00000080: f4ef d93d 2545 c13d 4915 223d 6a9d 033d
00000090: 907b af3d aef9 1d3d 8d9a e33c 8834 5b3d
000000a0: 9d6f a5bd 2b2a 40bc 6955 93bd e7ac 903d
000000b0: 70ea 77bc 74b2 723c 8b65 0a3d c524 073d
000000c0: e088 37bd 3fe0 d83d 4598 46bd e534 e13c
000000d0: 9794 493d 0150 033d 3912 4c3d 1d8f e6bc
000000e0: ccbf 993c 977e 79bd b761 4f3d 307d a13c
000000f0: f9e1 bdbc 0ad7 be3d 8fe7 93bd 2f42 0d3d
0.039524194 0.041804973 -0.047831494 0.008945063 -0.013935772 0.02734737 0.027537698 0.039587222
0.06897722 -0.10748228 -0.028718572 0.0640616 0.020910291 0.1031667 0.03087865 0.07541482
-0.06068926 0.09351443 0.06113166 -0.038346726 0.044282015 0.0068181255 0.071896724 -0.08967745
-0.01961696 0.06655167 0.05598859 -0.036533993 -0.041328717 0.07058225 0.07359333 -0.05100623
0.106414706 0.094370164 0.03957108 0.032132544 0.085684896 0.03856819 0.027783656 0.053516895
-0.08077929 -0.011728804 -0.07194025 0.070642285 -0.015131578 0.014813054 0.033788245 0.03299405
-0.04480827 0.105896465 -0.04848506 0.027491042 0.049213972 0.03205872 0.049822066 -0.028144414
0.018768214 -0.06091174 0.050630298 0.019713014 -0.023179041 0.09318359 -0.07221901 0.034486946

fc3.weight f4 [42, 64]
00000000: 1a26 c7bd 0e7f d0bd 408d 6e3c 2c23 ac3d
00000010: bead 843d 4e7f 9b3d ee6a 88bd 2aae e2bd
00000020: 807d ddba 8061 49bb 74d7 69bd a0fe 873b
00000030: ba73 e63d ea29 8cbd 8ca4 9cbd f087 36bd
00000040: d868 963d b686 e83d b830 353d ee4c d1bd
00000050: 0645 903d 007f a13c 8006 88bb 98d8 6a3d
00000060: 804a cdbb 18dc eb3d 3c46 36bd e860 5f3d
00000070: b04a 9ebc 1010 35bd 400d 7fbc 129f d8bd
00000080: 6099 4dbc 50dc 063c 1cec de3d d231 f3bd
00000090: 288b 763d 682b b03d 80cf e1bd c0a1 c83d
000000a0: 0077 22bd 6ef5 d43d f495 d03d 6032 193d
000000b0: a47b bbbd a001 c93c 3c6d 56bd b446 4e3d
000000c0: 52cf 8f3d f0ca 01bc 5c56 c1bd e048 c53c
000000d0: 50b3 883d 20c2 cd3c 2c5c adbd 64a4 7dbd
000000e0: e0b4 92bb 8af9 a33d cc38 903d acda 1f3d
000000f0: 28d9 08bd 9010 55bc 92ef f63d d87d 0fbd
00000100: b81e eabc d876 853c 2c7e 623d 5c39 b4bd
00000110: 40be 543b 62ff e83d 086b 593d ac21 6f3d
00000120: 80fb ef3a 1c84 4abd 86d5 b2bd 4026 633b
00000130: 3825 d1bc 6456 d6bd a288 d3bd 0a45 99bd
00000140: 1a77 dbbd 7275 d2bd f0b2 b53d a0d6 55bc
00000150: 525f 893d 2244 9dbd ec45 a53d 00c9 edba
00000160: 14ff 4fbd 30d5 433d fc21 d03d c229 8c3d
00000170: 4422 2fbd f048 03bc 2095 df3c 522f a5bd
00000180: e05e 113d d0b9 c6bd b4fc 7d3d 06cb ef3d
00000190: b096 e33c f84d da3d 20cb 74bd d8d5 5ebd
000001a0: 9884 b1bd 08b8 723d 3e93 f3bd 9c1b 393d
000001b0: a474 a23d 5c1e be3d 10e5 55bc 90b0 693c
000001c0: 1232 e03d b844 7e3d a8d0 783d 5e37 b33d
000001d0: 608d 883b 0456 b43d 2e45 eabd 2a61 d3bd
000001e0: 186d e9bd 163d afbd 52ad c23d f0e9 5e3c
000001f0: 087e bc3d 9878 ea3d 8062 8cbc 6ea7 8dbd
00000200: 1c21 d8bd f220 c33d e698 8b3d 2094 8bbc
00000210: 9061 e8bc 5694 debd c200 b5bd 8090 53bb
00000220: b4e8 b5bd 4e53 c33d 088e ee3c 7e74 dbbd
00000230: 989a 49bd 182f 473d 5c89 48bd d6b2 f9bd
00000240: cc72 733d ba4b b63d 18ee 09bd 96c6 f4bd
00000250: d036 533c 606d 3dbd e012 fcbb 608a b63b
00000260: 2889 ecbd 1c10 973d 9074 2abc b288 bf3d
00000270: 7054 a23c 64c3 6e3d 64ab 9e3d 0075 913a
00000280: b8c7 b23c 5072 a53c a81a e7bc aad5 b43d
00000290: 2650 f8bd 00e0 403a 9029 01bc 281e 573d
000002a0: 1433 df3d 12a9 9d3d 3803 91bc 1e18 e9bd
000002b0: 5e61 bb3d 80d8 53bb 307e ed3c 6062 d6bb
000002c0: 8027 443b 088d a33d 9c89 823d 58e1 cf3d
000002d0: f246 90bd c023 cb3c ac67 73bd 90f6 2d3c
000002e0: be64 f73d 20bb b93c 38fc 4ebd 34b1 49bd
000002f0: 289c b13d 981c a33c a094 283d b449 75bd
00000300: 8039 ac3c 4031 aabc a891 eabc dc53 6c3d
00000310: 7ef6 b7bd 70ba 82bd c40e 01bd 3409 f3bd
00000320: 9c07 d03d 50ea 44bc eee4 a23d 80fa 7a3b
00000330: f865 e23d e8c0 33bd ba78 8fbd 00c2 feba
00000340: 7856 0bbd 80ae f63d a2b2 e33d 702c 3a3d
00000350: 4c52 473d 344e 4abd 9cdd 7fbd 4282 e3bd
00000360: 0691 8c3d d0a8 01bd a032 9a3d 0e9d 9e3d
00000370: 3099 dcbd 1400 e6bd 0805 1f3d 60a7 babd
00000380: 14e1 3bbd ca9f c3bd 802f 19bd def9 fa3d
00000390: dc5c 6a3d a211 9ebd 9041 213d f0df 133d
000003a0: 2ef7 b9bd dca9 88bd 709a fc3c 60ba 97bc
000003b0: 6c8e 4fbd b4ba 17bd 5c47 14bd 8882 d4bd
000003c0: 6c57 e53d 9071 253c 4253 80bd eee2 9bbd
000003d0: 488f 0e3d 186a 87bc dccf 9fbd 544b 07bd
000003e0: 9805 89bc 9074 423c 6a7d af3d b262 f33d
000003f0: 386b d0bc 8c78 09bd 6036 cc3c e020 54bd
-0.09724064 -0.10180484 0.014560044 0.08405146 0.06478451 0.07592641 -0.0666102 -0.110683754
-0.0016898364 -0.003072828 -0.057090238 0.0041502267 0.11252542 -0.06843932 -0.07648572 -0.044563234
0.07344216 0.11353819 0.044235915 -0.10219751 0.07044415 0.019713879 -0.0041511655 0.057335466
-0.0062649846 0.11516589 -0.044500574 0.054535776 -0.019322723 -0.04420477 -0.015567124 -0.10577215
-0.0125487745 0.0082312375 0.10884878 -0.11874737 0.060191303 0.08602029 -0.110259056 0.09796476
-0.03966427 0.103983745 0.10184851 0.037401557 -0.09154442 0.024536908 -0.052350268 0.050360397
0.07021965 -0.007921919 -0.094403 0.024082601 0.06674826 0.02511698 -0.08464846 -0.061924353
-0.0044771284 0.0800658 0.07042083 0.0390269 -0.03341022 -0.013004437 0.12057413 -0.035032123
-0.028579101 0.01629202 0.055296108 -0.08800003 0.003246203 0.113768354 0.05308059 0.05838172
0.0018309206 -0.049442396 -0.087321326 0.003466025 -0.025530443 -0.104656965 -0.10328795 -0.07483871
-0.10716076 -0.10276307 0.0887202 -0.013051659 0.06707634 -0.07679011 0.08069977 -0.0018141568
-0.05078037 0.047810733 0.10162732 0.06843902 -0.042757288 -0.008012995 0.027292788 -0.08065666
0.03549087 -0.0970341 0.062008575 0.117086455 0.027781814 0.106594026 -0.059764028 -0.054403156
-0.086678684 0.059257537 -0.118933186 0.045192346 0.07932404 0.09283134 -0.013055101 0.014263287
0.1094705 0.062077254 0.060745865 0.08750795 0.004167244 0.08805469 -0.11438976 -0.10321267
-0.11397761 -0.08556573 0.095057145 0.01360558 0.09203726 0.11448783 -0.017136812 -0.069167
-0.1055319 0.09527768 0.068162724 -0.017038405 -0.028366834 -0.108681366 -0.08838035 -0.0032282174
-0.08882275 0.095373735 0.02912046 -0.107155785 -0.049219698 0.048628896 -0.04895912 -0.121923134
0.05943565 0.089011624 -0.03367433 -0.1195194 0.012891486 -0.046246886 -0.0076926798 0.005570695
-0.11549598 0.073761195 -0.010403767 0.093522444 0.019815654 0.058291808 0.07747534 0.0011097491
0.021823749 0.02019611 -0.028210953 0.08829816 -0.12124662 0.00073575974 -0.007883444 0.052518994
0.10898414 0.07698263 -0.01770173 -0.11381553 0.09149431 -0.003232509 0.028990835 -0.006542489
0.002993077 0.07985884 0.06373903 0.10150403 -0.07044782 0.02479732 -0.05942504 0.010617867
0.12079762 0.022672236 -0.050533503 -0.04924126 0.086723626 0.019911095 0.041157365 -0.059884742
0.021023512 -0.020775437 -0.028633907 0.057697162 -0.089825615 -0.063832164 -0.031508222 -0.1186699
0.101577014 -0.012018755 0.07953821 0.0038296282 0.11054605 -0.04388514 -0.07005449 -0.0019436479
-0.03401801 0.12045002 0.11118056 0.045452535 0.04866247 -0.049390987 -0.062467203 -0.11108829
0.068635985 -0.031655133 0.07529187 0.077447996 -0.10771406 -0.11230484 0.038823158 -0.091139555
-0.045868948 -0.09551962 -0.037398815 0.1225469 0.057217464 -0.07718207 0.039369166 0.036102235
-0.09080349 -0.06673023 0.03083536 -0.018521488 -0.050672933 -0.03704329 -0.036200866 -0.10376459
0.11198315 0.010097876 -0.0626588 -0.07611643 0.034804612 -0.016530082 -0.07803318 -0.033030823
-0.0167263 0.011868611 0.08568843 0.11884059 -0.02544175 -0.033562228 0.024928272 -0.051789165

fc3.bias f4 [42]
00000000: 2041 7e3c 2e28 c33d 849f 6d3d c811 aebd
00000010: e819 c7bd 5c94 9a3d 3c61 3bbd 741a ef3d
00000020: f891 a93d 60d6 833b 8039 33bd 10e4 0e3d
00000030: ecef 453d 2a2c c1bd 2831 9dbc 781d c23d
00000040: be51 df3d f4d5 1d3d fa36 813d d0fe e23c
00000050: 0006 e63d 9090 513d 0c59 e2bd a07a 803c
00000060: 4066 7c3b a884 62bd 845e 9d3d e47f 2a3d
00000070: 8865 47bd c0ad 72bc 1c58 b5bd 80b3 533c
00000080: 68fa fd3d 20cc 183c 008d b13d 38e7 7c3d
00000090: a8ed e2bd c0cf d23b 806a fdbd 4642 babd
000000a0: d8fb f53d f055 99bd
0.015518457 0.09529148 0.058013454 -0.08499485 -0.09721738 0.075478286 -0.045747027 0.116749674
0.082797945 0.004023358 -0.04375601 0.034885466 0.04832451 -0.09432252 -0.019188479 0.09478277
0.10904263 0.03853412 0.06309314 0.027709395 0.11231613 0.051163256 -0.110521406 0.015683472
0.0038513094 -0.055302292 0.07684043 0.041625872 -0.048680812 -0.014811933 -0.08854696 0.012921214
0.12401277 0.009326011 0.08669472 0.061743945 -0.110804856 0.006433457 -0.12373829 -0.09094672
0.12010926 -0.074870944
