models/REINFORCE/policy_weights.pth (torch, 366106 bytes, 10 tensors)

fc1.weight f4 [336, 42]
0	0x8315db9d	-4.403927e-37
1	0x801b2e2f	-2.496126e-39
2	0x0ac28f0f	1.8735333e-32
3	0x809a94e8	-1.4196084e-38
4	0xbc063ff2	-0.008193957
5	0x9c6cc86b	-7.8344884e-22
6	0x2e3be7d8	4.2724796e-11
7	0xa231301d	-2.4013444e-18
8	0xb5a7095c	-1.2445194e-06
9	0x9a801bea	-5.2984657e-23
10	0x91069910	-1.0617902e-28
11	0xbe07b3cb	-0.1325218
12	0x9e22adbb	-8.612135e-21
13	0xb9067baf	-0.00012825312
14	0x3404e5fc	1.2377126e-07
15	0x3d22469c	0.03961812
16	0xbb65b23d	-0.0035048865
17	0x9ab6ab42	-7.555012e-23
18	0xb82d6582	-4.134095e-05
19	0xae272fa8	-3.801373e-11
20	0xb805a615	-3.1864347e-05
21	0xb7b52cea	-2.1597796e-05
22	0x37006b9b	7.654448e-06
23	0x032d2d0f	5.0891855e-37
24	0xa5770fac	-2.1429145e-16
25	0x3d5606e7	0.052252676
26	0x330c2677	3.2631274e-08
27	0x38a44bf6	7.834278e-05
28	0x322fe6b4	1.02387965e-08
29	0xb1c4e7d9	-5.730709e-09
30	0x8da34fbb	-1.0064845e-30
31	0x1dba7605	4.935582e-21
32	0x1e19c4dc	8.140462e-21
33	0x3d41da14	0.047327116
34	0x2f00ecd2	1.1725668e-10
35	0x3cbbc52c	0.022921167
36	0x80165f65	-2.054602e-39
37	0x833326de	-5.264799e-37
38	0x803bacdd	-5.480306e-39
39	0x2394f3aa	1.6149388e-17
40	0x004c4c97	7.006973e-39
41	0x3d37b032	0.044845767
42	0x8328ead1	-4.964032e-37
43	0x801a061d	-2.389916e-39
44	0x0b37014a	3.5245488e-32
45	0x80150094	-1.928753e-39
46	0xbc034a03	-0.008013251
47	0x9bbef9eb	-3.159437e-22
48	0x2d91e74f	1.6587313e-11
49	0xa134fc50	-6.1320305e-19
50	0xb5b7ee2f	-1.3703883e-06
51	0x992a2944	-8.7971275e-24
52	0x90905077	-5.692196e-29
53	0xbe00af3b	-0.12566845
54	0x9d08e3f9	-1.811731e-21
55	0xb8f4fd3e	-0.00011681997
56	0x3396d4f1	7.023653e-08
57	0x3d2643ae	0.040591888
58	0xbb6814d4	-0.0035412805
59	0x9856d613	-2.7766932e-24
60	0xb80f69b2	-3.4192293e-05
61	0xad2ca15e	-9.812899e-12
62	0xb7ea1152	-2.790304e-05
63	0xb807dd86	-3.2392818e-05
64	0x36ef02c8	7.123079e-06
65	0x0335b89d	5.3403045e-37
66	0xa5051b96	-1.1545258e-16
67	0x3d4517c2	0.04811836
68	0x32a942e1	1.9704602e-08
69	0x38996e38	7.316138e-05
70	0x31fd70b0	7.37608e-09
71	0xb148aed4	-2.9203209e-09
72	0x8c73bd0c	-1.8776928e-31
73	0x1d147863	1.9649875e-21
74	0x1d70706e	3.182186e-21
75	0x3d306f95	0.043075163
76	0x2ebd0e33	8.597247e-11
77	0x3cb709e3	0.022343582
78	0x009a94e8	1.4196084e-38
79	0x8314d61d	-4.373908e-37
80	0x801870ea	-2.244558e-39
81	0x22f793ba	6.7105896e-18
82	0x003b5736	5.44958e-39
83	0x3d339a1d	0.043848146
84	0x83376072	-5.388958e-37
85	0x804c3355	-6.997912e-39
86	0x0b350051	3.485957e-32
87	0x809a94e8	-1.4196084e-38
88	0xbc0348fb	-0.008013005
89	0x9bbbab5b	-3.104729e-22
90	0x2d902166	1.6385737e-11
91	0xa131a656	-6.0190076e-19
92	0xb5b73e4e	-1.3652696e-06
93	0x99267832	-8.606272e-24
94	0x908dc222	-5.59138e-29
95	0xbe009143	-0.12555413
96	0x9d0614a3	-1.7745421e-21
97	0xb8f490b0	-0.00011661777
98	0x3395b21a	6.97075e-08
99	0x3d264645	0.040594358
100	0xbb681949	-0.0035415462
101	0x98503899	-2.6911944e-24
102	0xb80f0097	-3.4094406e-05
103	0xad2a5383	-9.6819245e-12
104	0xb7e982db	-2.7836699e-05
105	0xb8080ebd	-3.2438653e-05
106	0x36ee7e07	7.1076242e-06
107	0x0324dca0	4.8448533e-37
108	0xa50341a9	-1.1384685e-16
109	0x3d44df87	0.048064735
110	0x32a7fd98	1.955668e-08
111	0x38995305	7.311072e-05
112	0x31fbb643	7.325782e-09
113	0xb146e519	-2.894302e-09
114	0x8c6e1565	-1.8341291e-31
115	0x1d11f0de	1.9315116e-21
116	0x1d6c4696	3.1270832e-21
117	0x3d304a23	0.043039452
118	0x2ebb982d	8.530807e-11
119	0x3cb7118a	0.02234723
120	0x009a94e8	1.4196084e-38
121	0x83236b6e	-4.802472e-37
122	0x80428391	-6.10834e-39
123	0x22f3a7fe	6.604315e-18
124	0x0048ce5c	6.686184e-39
125	0x3d3389c0	0.04383254
126	0x009a94e8	1.4196084e-38
127	0x0025be0e	3.466092e-39
128	0x809a94e8	-1.4196084e-38
129	0x009a94e8	1.4196084e-38
130	0x009a94e8	1.4196084e-38
131	0x80259347	-3.450747e-39
132	0x009a94e8	1.4196084e-38
133	0x809a94e8	-1.4196084e-38
134	0x80032a86	-2.90761e-40
135	0x002f6058	4.35083e-39
136	0x009a94e8	1.4196084e-38
137	0x81191c0d	-2.8121787e-38
138	0x809a94e8	-1.4196084e-38
139	0x809a94e8	-1.4196084e-38
140	0x803aa81e	-5.386768e-39
141	0x801c054e	-2.573297e-39
142	0x003ae56c	5.40876e-39
143	0x8023e16e	-3.295111e-39
144	0x809a94e8	-1.4196084e-38
145	0x809a94e8	-1.4196084e-38
146	0x002f365c	4.335769e-39
147	0x009a94e8	1.4196084e-38
148	0x009a94e8	1.4196084e-38
149	0x009a94e8	1.4196084e-38
150	0x809a94e8	-1.4196084e-38
151	0x81518d48	-3.8488602e-38
152	0x009a94e8	1.4196084e-38
153	0x809a94e8	-1.4196084e-38
154	0x809a94e8	-1.4196084e-38
155	0x0011e14a	1.642022e-39
156	0x809a94e8	-1.4196084e-38
157	0x009a94e8	1.4196084e-38
158	0x00089ad7	7.9023e-40
159	0x814c2508	-3.749545e-38
160	0x8019d713	-2.373041e-39
161	0x8138ce64	-3.394354e-38
162	0x80277ddc	-3.626734e-39
163	0x009a94e8	1.4196084e-38
164	0x809a94e8	-1.4196084e-38
165	0x8032943d	-4.644953e-39
166	0x8001b002	-1.54975e-40
167	0x009a94e8	1.4196084e-38
168	0x833d8a57	-5.5700914e-37
169	0x00419173	6.021485e-39
170	0x0fb82791	1.8159041e-29
171	0x009a94e8	1.4196084e-38
172	0xbbbd6509	-0.0057798666
173	0x989c9716	-4.0477613e-24
174	0xa7ab2950	-4.7506825e-15
175	0x9a2553ea	-3.4188986e-23
176	0xb706d3f2	-8.03637e-06
177	0x905ec663	-4.3934612e-29
178	0x91197b0a	-1.2107486e-28
179	0xbdb41ba5	-0.08794335
180	0x94896de3	-1.3876808e-26
181	0xb8921d91	-6.96733e-05
182	0x30fcb3c6	1.8386508e-09
183	0x3d59112c	0.052994892
184	0xbb7339e5	-0.0037113365
185	0x833fa797	-5.632224e-37
186	0xb73b4e4e	-1.11643e-05
187	0xb107273f	-1.9667394e-09
188	0xb7416f80	-1.1529657e-05
189	0xb8f31a0d	-0.00011591995
190	0x36ba0a44	5.544427e-06
191	0x03243978	4.826124e-37
192	0xa341d9fd	-1.0508712e-17
193	0x3cb32eed	0.021872962
194	0x30cf4820	1.5081731e-09
195	0x37e848e0	2.769049e-05
196	0x30e13f87	1.638896e-09
197	0xad339b14	-1.0209406e-11
198	0x85676c4c	-1.0881459e-35
199	0x19c3e0b9	2.0253292e-23
200	0x1a0c7739	2.904763e-23
201	0x3c760cad	0.015017671
202	0x2e1ea875	3.607466e-11
203	0x3cb82a3a	0.022481073
204	0x809a94e8	-1.4196084e-38
205	0x832741fe	-4.9152644e-37
206	0x009a94e8	1.4196084e-38
207	0x1fe17253	9.548034e-20
208	0x809a94e8	-1.4196084e-38
209	0x3d234908	0.03986457
210	0x031fb453	4.6932902e-37
211	0x001ac5e0	2.458707e-39
212	0xa3196ccf	-8.317188e-18
213	0x009a94e8	1.4196084e-38
214	0xbb9e96f2	-0.0048397714
215	0x1ee3d045	2.4120698e-20
216	0x2db21c2f	2.0248773e-11
217	0x22d887a9	5.8690553e-18
218	0x39dc4dee	0.00042019732
219	0xa5a4f1b0	-2.861324e-16
220	0x252189bf	1.4011194e-16
221	0x3df8c4fb	0.12146946
222	0x1cd06cd3	1.3792416e-21
223	0x390ce250	0.00013435748
224	0xb7b6c456	-2.1787517e-05
225	0xbd6070c8	-0.054795057
226	0x3b011636	0.0019697077
227	0x2c9d37e5	4.468414e-12
228	0x37c69348	2.3672023e-05
229	0x38040adc	3.1481366e-05
230	0x38b3b30c	8.568735e-05
231	0x39b325ae	0.00034169614
232	0xb83f764b	-4.5648118e-05
233	0x8337a28a	-5.3965452e-37
234	0x2b291720	6.0072954e-13
235	0x3d1f9fb0	0.03897065
236	0xb6fefeb0	-7.5994394e-06
237	0xb9f820f0	-0.00047326786
238	0xb410e4a0	-1.3494218e-07
239	0x350ecd0e	5.3197516e-07
240	0x181bcafd	2.0135763e-24
241	0x9efbf1bc	-2.6675638e-20
242	0x9f027d1c	-2.763206e-20
243	0x3d8b922e	0.06814991
244	0xb390aa6f	-6.736524e-08
245	0x3d82b288	0.063817084
246	0x009a94e8	1.4196084e-38
247	0x032a0b09	4.9971178e-37
248	0x809a94e8	-1.4196084e-38
249	0xa6e86318	-1.6125093e-15
250	0x809a94e8	-1.4196084e-38
251	0xbcacd851	-0.021099241
252	0x8316025a	-4.4083738e-37
253	0x003b5a88	5.450771e-39
254	0x0fce320f	2.033245e-29
255	0x009a94e8	1.4196084e-38

fc1.bias f4 [336]
0	0x3df22a33	0.11824455
1	0x3de11ff7	0.10992425
2	0x3de0e0c8	0.109803736
3	0x813494fa	-3.3167664e-38
4	0x3d89000a	0.066894606
5	0x3d588281	0.052858833
6	0x3d8abc70	0.06774223
7	0x80c9d286	-1.8534456e-38
8	0x3d89164c	0.06693706
9	0x3d0f269d	0.034948934
10	0x3d14252e	0.03616827
11	0x3deb62ad	0.1149343
12	0x3d56da39	0.052454207
13	0x3d8b0566	0.06788139
14	0x3d8bafa7	0.068206124
15	0x3d88f35a	0.066870406
16	0x3e2bc6cf	0.16775058
17	0x3d8b4e60	0.06802058
18	0x3de28592	0.11060633
19	0x3d8ab810	0.067733884
20	0x811233bf	-2.685309e-38
21	0x3d864c0c	0.065574735
22	0x800477c0	-4.103e-40
23	0x3e2441b3	0.16040687
24	0x3de9f4d3	0.1142365
25	0x3d1448e1	0.036202315
26	0x3df59719	0.1199171
27	0x3d588496	0.05286082
28	0x3df08b99	0.11745376
29	0x3d5832e9	0.052782927
30	0x3d0fa054	0.03506501
31	0x3d57c63b	0.05267928
32	0x3df0af00	0.117521286
33	0x3d146f2b	0.03623883
34	0x3d130f2e	0.03590315
35	0x81247c26	-3.0211115e-38
36	0x3d5841dc	0.052797183
37	0x3d5dd2b1	0.05415601
38	0x8123d1a2	-3.0088776e-38
39	0x3d356deb	0.04429428
40	0x3de9683d	0.11396835
41	0x3defdbf6	0.11711876
42	0x3defaae6	0.11702518
43	0x3d88b48d	0.06675062
44	0x80457f6e	-6.382362e-39
45	0x3d865a97	0.065602474
46	0x3d587150	0.05284244
47	0x3df1c124	0.11804417
48	0x3d139fe7	0.036041167
49	0x3d5798e9	0.05263606
50	0x3d88d4b2	0.066811934
51	0x3dec50d9	0.11538858
52	0x3d8958f7	0.06706422
53	0x3d8b6a76	0.06807415
54	0x3dec8bab	0.11550077
55	0x3d86b609	0.06577689
56	0x3d88d829	0.06681854
57	0x3d8b0753	0.06788506
58	0x3d894986	0.067034766
59	0x3d11260c	0.035436675
60	0x3d8b1e0a	0.06792839
61	0x3d59443a	0.05304358
62	0x3d586177	0.052827325
63	0x8019d118	-2.370896e-39
64	0x3d131e6f	0.035917696
65	0x3d58e769	0.052955065
66	0x3d13b26e	0.036058836
67	0x3d12dd52	0.0358556
68	0x3df310ae	0.11868416
69	0x3de467f0	0.11152637
70	0x3dec6d00	0.115442276
71	0x3e1cbb77	0.15305887
72	0x3d511038	0.051040858
73	0x82d18da0	-3.0791079e-37
74	0x3de3cd7c	0.111231774
75	0x3de51b8c	0.11186895
76	0x3d13dbf3	0.03609843
77	0x82c553ea	-2.8994713e-37
78	0x81073baf	-2.4838405e-38
79	0x3df22c11	0.11824811
80	0x80ad357c	-1.5906727e-38
81	0x8126f9c0	-3.0668572e-38
82	0x80f89d20	-2.2831569e-38
83	0x3d67b3b4	0.056567863
84	0x3d5fb4e0	0.054615855
85	0x3decade7	0.11556607
86	0x3ded40f3	0.11584654
87	0x3d299306	0.041399978
88	0x3d8a705c	0.06759712
89	0x3df133b9	0.117774434
90	0x3d577c5c	0.052608833
91	0x81233dce	-2.9982714e-38
92	0x3d11fbef	0.035640653
93	0x3d136134	0.035981372
94	0x3d0effb8	0.03491184
95	0x3df6ad7c	0.12044808
96	0x3de2f3b6	0.110816404
97	0x80d90d00	-1.9932966e-38
98	0x3c528c4c	0.012850832
99	0x3e20e064	0.15710598
100	0x3e2ff4e0	0.17183256
101	0x3d0ef3cc	0.03490047
102	0x3decb819	0.11558551
103	0x3e268ded	0.16265078
104	0x3d14769d	0.03624593
105	0x3d5e37f7	0.05425259
106	0x3d8b04b1	0.06788004
107	0x8112475e	-2.6867168e-38
108	0x3dee6092	0.11639513
109	0x3d88db1e	0.06682418
110	0x3e3247f7	0.17410265
111	0x3d8a5a51	0.06755508
112	0x3d88c9e6	0.06679134
113	0x3dee5dcb	0.11638983
114	0x3d145d95	0.03622206
115	0x80f624f4	-2.2604788e-38
116	0x801701ca	-2.112858e-39
117	0x3dc36720	0.09541154
118	0x80edf56c	-2.1853053e-38
119	0x3df24d3b	0.11831137
120	0x3ef41ade	0.47676748
121	0x3d8daf2a	0.069181755
122	0x3dedd376	0.116125986
123	0x3d867e07	0.065670066
124	0x3d8b00ed	0.06787286
125	0x3dec2c25	0.115318574
126	0x3d576882	0.0525899
127	0x3d13e7b6	0.03610965
128	0x3e351a4b	0.17685811
129	0x3d8bc56e	0.06824766
130	0x3d4b762d	0.049673248
131	0x8058eff0	-8.167597e-39
132	0x3d868fcf	0.06570398
133	0x3e6fd4b9	0.23420991
134	0x3ded1483	0.11576178
135	0x3d781cd1	0.060574356
136	0x3ded8a3b	0.11598631
137	0x3d8b48fc	0.0680103
138	0x8068b8a6	-9.617131e-39
139	0x3e13fba1	0.14451458
140	0x3d88b190	0.06674492
141	0x82cf4ea0	-3.0461045e-37
142	0x3dec2c5a	0.11531897
143	0x3d8693d8	0.06571168
144	0x3d58dd30	0.052945316
145	0x3d0f174b	0.034934323
146	0x3de685e6	0.11256008
147	0x3d0f58bd	0.034996737
148	0x3ddfd5ba	0.10929437
149	0x3d11bf0e	0.035582595
150	0x3d8869d5	0.06660811
151	0x3d138bac	0.036021873
152	0x3dea2935	0.11433641
153	0x3d58f5b2	0.05296869
154	0x8073119a	-1.0567396e-38
155	0x3df30fe5	0.11868266
156	0x3dec12d2	0.11527027
157	0x3d1346fe	0.035956375
158	0x3decf7b3	0.115706824
159	0x8131498f	-3.256254e-38
160	0x3df21184	0.11819747
161	0x3de16f33	0.11007538
162	0x3d58c02b	0.05291764
163	0x3d14519a	0.036210634
164	0x3d147571	0.036244813
165	0x3d128e0b	0.035779994
166	0x3debe448	0.115181506
167	0x3d8ab3d3	0.0677258
168	0x3d888b69	0.066672154
169	0x3de39ee0	0.111142874
170	0x3d894b08	0.06703764
171	0x3de22616	0.110424206
172	0x3ec60471	0.38675264
173	0x3d124a8e	0.035715632
174	0x803c6245	-5.545382e-39
175	0x3cb347f1	0.02188489
176	0x3e31564f	0.1731808
177	0x80546534	-7.750487e-39
178	0x3cb4b0b5	0.022056917
179	0x8020d4e0	-3.015101e-39
180	0x3e731320	0.23737764
181	0x3c4f94a9	0.012669721
182	0x3d88fb17	0.066885166
183	0x3d8b1d0c	0.067926496
184	0x3dedbed9	0.11608667
185	0x3df1fef5	0.11816207
186	0x80790d4b	-1.1116864e-38
187	0x3deb7732	0.11497344
188	0x3deb8ac3	0.11501076
189	0x3d56f0e1	0.052475814
190	0x3e3b649e	0.18300101
191	0x3d578115	0.052613337
192	0x3d57e128	0.05270496
193	0x80b57a14	-1.6666018e-38
194	0x3dea41ab	0.114383064
195	0x3e3377c2	0.17526153
196	0x8153316f	-3.8790046e-38
197	0x3d5836c3	0.0527866
198	0x81027c43	-2.3966382e-38
199	0x3e34a1b0	0.17639804
200	0x3d885e5e	0.06658624
201	0x3def72d4	0.116918236
202	0x3e1a93ad	0.15095396
203	0x3e1fe8c7	0.15616141
204	0x3e174789	0.14773382
205	0x3d133242	0.0359366
206	0x3defdefb	0.11712452
207	0x3d145888	0.036217242
208	0x3deeee5a	0.11666556
209	0x3de30109	0.11084182
210	0x3defcc72	0.11708917
211	0x3d8931d4	0.06698957
212	0x3d13257e	0.035924427
213	0x3d57ee6a	0.052717604
214	0x81138878	-2.7097547e-38
215	0x81844100	-4.858241e-38
216	0x81156ffb	-2.744732e-38
217	0x3d5868db	0.052834373
218	0x80d958f0	-1.9960207e-38
219	0x3d8933b0	0.06699312
220	0x3de80ffa	0.11331172
221	0x3d8b0c21	0.06789423
222	0x3e22533f	0.15852068
223	0x3df24aea	0.11830695
224	0x3d93db33	0.07219543
225	0x3e290145	0.1650439
226	0x3d8aabfe	0.06771086
227	0x3d889950	0.06669867
228	0x80b84708	-1.6923213e-38
229	0x3dea12cb	0.11429366
230	0x80d673ca	-1.9694333e-38
231	0x3de4f8ca	0.11180265
232	0x3d587735	0.05284806
233	0x3d8b0edb	0.06789943
234	0x3def2667	0.116772465
235	0x8097b6fc	-1.3932802e-38
236	0x3dec18e5	0.11528186
237	0x3dec4b21	0.11537767
238	0x8120a6de	-2.950708e-38
239	0x3d88a7e4	0.066726476
240	0x3d893654	0.066998154
241	0x3deec944	0.11659482
242	0x3d12d2a0	0.0358454
243	0x3e05e30e	0.13074896
244	0x811b0347	-2.8471355e-38
245	0x3d88cc6d	0.06679616
246	0x80184e46	-2.232131e-39
247	0x3de0f0d9	0.10983438
248	0x3e879302	0.26479346
249	0x3df1a996	0.11799924
250	0x810b8b9c	-2.5630433e-38
251	0x3d570f22	0.052504666
252	0x3dee9611	0.11649717
253	0x8108eff6	-2.5151418e-38
254	0x3d8b3c15	0.06798569
255	0x3e133369	0.1437508

fc2.weight f4 [168, 336]
0	0x3b896663	0.0041931137
1	0x3b80833d	0.003921895
2	0x3b8071c3	0.0039198115
3	0x813e6280	-3.496816e-38
4	0x3b00eaad	0.0019671128
5	0x3c2998d9	0.010351383
6	0x3b0232cb	0.00198667
7	0x009a94d8	1.4196061e-38
8	0x3b00f883	0.0019679375
9	0x3a0befab	0.00053381425
10	0x3a106ec2	0.0005509668
11	0x3b852154	0.004062811
12	0x3c294ae0	0.010332793
13	0x3b02837a	0.0019914792
14	0x3b032a84	0.0020014355
15	0x3b00db72	0.001966205
16	0x3ccbcc5c	0.02487772
17	0x3b02cdd2	0.0019959104
18	0x3b813676	0.00394326
19	0x3b023453	0.0019867613
20	0x811d5df0	-2.8903743e-38
21	0x3afe6474	0.00194086
22	0x0022f8b8	3.21163e-39
23	0x3babcae2	0.0052426914
24	0x3b858239	0.0040743616
25	0x3a108e1b	0.00055143394
26	0x3b8a21f5	0.004215474
27	0x3c298208	0.010345943
28	0x3b88b7c8	0.004172299
29	0x3c296f62	0.010341497
30	0x3a0cb8f1	0.00053681346
31	0x3c29667e	0.010339377
32	0x3b88b9de	0.0041725477
33	0x3a107ca4	0.0005511737
34	0x3a0fbb1f	0.00054829003
35	0x00da5754	2.0051466e-38
36	0x3c297516	0.010342857
37	0x3c2bc70a	0.010484466
38	0x81055da6	-2.4495431e-38
39	0x3c095e6e	0.00838433
40	0x3b84842d	0.004044077
41	0x3ba0f211	0.004911669
42	0x3b885172	0.0041600997
43	0x3b0096a7	0.0019621046
44	0x800caf78	-1.164972e-39
45	0x3afe8630	0.0019418653
46	0x3c29afe5	0.010356878
47	0x3b892c34	0.0041861776
48	0x3a101b08	0.0005497192
49	0x3c2969fe	0.010340212
50	0x3b00ae7a	0.0019635246
51	0x3b85cd0d	0.004083282
52	0x3b014fd5	0.0019731421
53	0x3b039776	0.0020079291
54	0x3b86d372	0.0041145617
55	0x3aff2065	0.001946461
56	0x3b00cbce	0.0019652727
57	0x3b028415	0.0019915153
58	0x3b0143e0	0.0019724295
59	0x3a0e18a7	0.00054205436
60	0x3b02af33	0.0019940853
61	0x3c29d129	0.010364809
62	0x3c297306	0.010342365
63	0x80d73ee8	-1.9767198e-38
64	0x3a0fb68d	0.0005482219
65	0x3c299ed2	0.010352807
66	0x3a102872	0.0005499191
67	0x3a0f7b29	0.00054733694
68	0x3b88ef3b	0.004178909
69	0x3b822019	0.0039711115
70	0x3b85e413	0.0040860265
71	0x3baa6d13	0.005200991
72	0x3c29a8b3	0.010355162
73	0x02d30c70	3.1010802e-37
74	0x3b81d353	0.0039619594
75	0x3b82743b	0.003981141
76	0x3a104490	0.00055033807
77	0x81387ca8	-3.38849e-38
78	0x00b1098c	1.6258308e-38
79	0x3b8955ab	0.0041911206
80	0x017465a0	4.4888634e-38
81	0x81b93ac2	-6.804258e-38
82	0x808fa408	-1.3191319e-38
83	0x3c0e73cf	0.008694603
84	0x3c2bbcbc	0.0104820095
85	0x3b86d870	0.004115157
86	0x3b87236f	0.004124097
87	0x3c0a53ab	0.0084428
88	0x3b02438b	0.0019876685
89	0x3b890ac8	0.0041821934
90	0x3c297576	0.010342946
91	0x0018ba38	2.270855e-39
92	0x3a0ef2ac	0.0005453031
93	0x3a100ba0	0.00054948963
94	0x3a0c0cfb	0.00053425104
95	0x3b9b00d9	0.0047303257
96	0x3b815a29	0.0039475155
97	0x01a738bc	6.142752e-38
98	0x3c32e1f0	0.0109181255
99	0x3baa09f7	0.005189176
100	0x3cd3f9b4	0.025875904
101	0x3a0be53d	0.00053365884
102	0x3b8608c0	0.0040903986
103	0x3bb16e7d	0.0054147826
104	0x3a108786	0.00055133586
105	0x3c4f0108	0.012634523
106	0x3b032f6a	0.0020017275
107	0x00afa970	1.6131995e-38
108	0x3b87b008	0.0041408576
109	0x3b00c870	0.001965072
110	0x3bb6aaa6	0.005574542
111	0x3b03c7d1	0.0020108114
112	0x3b00ace3	0.0019634299
113	0x3b86d26b	0.0041144392
114	0x3a107aec	0.0005511481
115	0x01a9be3c	6.235377e-38
116	0x819325da	-5.4053586e-38
117	0x3bc68dd3	0.0060593872
118	0x80d5ca0a	-1.9633439e-38
119	0x3b8968ef	0.0041934173
120	0x3c94154f	0.018076567
121	0x3b05cd5a	0.0020416589
122	0x3b868fd9	0.0041065034
123	0x3afea0da	0.00194266
124	0x3b027c8a	0.0019910657
125	0x3b85be96	0.0040815575
126	0x3c295a03	0.010336402
127	0x3a102c71	0.00054997863
128	0x3bb5cd6a	0.005548169
129	0x3b0341b5	0.0020028178
130	0x3c288929	0.010286608
131	0x01729010	4.455174e-38
132	0x3afed983	0.0019443486
133	0x3d18c6c4	0.037298933
134	0x3b870995	0.0041210153
135	0x3c4ab1c8	0.012371488
136	0x3b866ae9	0.0041021
137	0x3b02c394	0.0019953
138	0x81a2f6e6	-5.9863683e-38
139	0x3b9f8a14	0.004868755
140	0x3b008f6f	0.0019616743
141	0x010ab135	2.5473737e-38
142	0x3b85bde4	0.0040814746
143	0x3afef856	0.0019452672
144	0x3c298917	0.010347626
145	0x3a0c02e1	0.0005341005
146	0x3b83252b	0.0040022335
147	0x3a0c6009	0.00053548865
148	0x3b7fcd50	0.0039032288
149	0x3a0e9dcd	0.0005440384
150	0x3b002590	0.001955364
151	0x3a0fd676	0.0005486974
152	0x3b85ab17	0.0040792334
153	0x3c298fed	0.010349256
154	0x001b4660	2.504804e-39
155	0x3b88efba	0.0041789683
156	0x3b85ca22	0.004082934
157	0x3a0fe947	0.0005489778
158	0x3b863493	0.004095623
159	0x81afc26d	-6.4563835e-38
160	0x3b8968ed	0.0041934163
161	0x3b809b70	0.0039247796
162	0x3c2993ef	0.0103502115
163	0x3a1086e4	0.00055132643
164	0x3a1093e7	0.0005515203
165	0x3a0f3fd3	0.00054645276
166	0x3b8680ba	0.004104701
167	0x3b022df3	0.0019863814
168	0x3b0066b6	0.001959247
169	0x3b81ba3c	0.0039589684
170	0x3b01414f	0.0019722765
171	0x3b80fa5a	0.003936094
172	0x3c96d418	0.018411681
173	0x3a0f21c6	0.000546005
174	0x008dbc04	1.3016252e-38
175	0x3a140fda	0.0005648114
176	0x3bb62d5a	0.0055596055
177	0x017db938	4.660165e-38
178	0x3a3ef0c7	0.00072838034
179	0x005cb270	8.512877e-39
180	0x3d20c86b	0.039253633
181	0x3c331de1	0.010932417
182	0x3b00edc3	0.0019672967
183	0x3b02ae46	0.00199403
184	0x3b8708ce	0.0041209226
185	0x3b896394	0.004192779
186	0x8027ee17	-3.666995e-39
187	0x3b86444c	0.004097497
188	0x3b864b85	0.004098358
189	0x3c294c82	0.010333182
190	0x3bbf4137	0.0058366316
191	0x3c295ca3	0.010337028
192	0x3c296824	0.0103397705
193	0x80e5a1c8	-2.1088365e-38
194	0x3b84f0ac	0.0040570106
195	0x3bb83ebc	0.005622713
196	0x80d5779e	-1.9603871e-38
197	0x3c29930b	0.010349999
198	0x8199c9da	-5.6492966e-38
199	0x3bb8a339	0.005634692
200	0x3b002f1c	0.001955933
201	0x3b883489	0.0041566533
202	0x3cc91cb4	0.02454982
203	0x3baafceb	0.0052181385
204	0x3ba1ba6f	0.0049355547
205	0x3a0fb687	0.0005482216
206	0x3b878d33	0.0041367053
207	0x3a106c30	0.0005509285
208	0x3b87e479	0.004147109
209	0x3b816261	0.0039484953
210	0x3b885121	0.004160062
211	0x3b01315b	0.0019713256
212	0x3a0f93f0	0.00054770615
213	0x3c296839	0.01033979
214	0x819dc208	-5.795111e-38
215	0x012cf174	3.1764645e-38
216	0x80a7f722	-1.5425182e-38
217	0x3c299cac	0.010352295
218	0x01795fb4	4.580274e-38
219	0x3b013568	0.001971567
220	0x3b849434	0.0040459875
221	0x3b0289be	0.0019918527
222	0x3bad0473	0.0052800714
223	0x3b89669f	0.0041931416
224	0x3b1263cb	0.0022337313
225	0x3ca5b7ae	0.020229187
226	0x3b02256c	0.001985873
227	0x3b0090f4	0.0019617649
228	0x80c2b498	-1.7880871e-38
229	0x3b858f71	0.0040759374
230	0x80d08882	-1.9150753e-38
231	0x3b82647a	0.003979263
232	0x3c2982bd	0.010346112
233	0x3b0288bf	0.0019917933
234	0x3b98eef0	0.0046671554
235	0x808d426e	-1.2972635e-38
236	0x3b85ba35	0.0040810355
237	0x3b85ced9	0.004083496
238	0x0139e35c	3.4142256e-38
239	0x3b008325	0.0019609418
240	0x3b013251	0.0019713829
241	0x3b871cc1	0.004123301
242	0x3a0f83bd	0.00054746476
243	0x3b98afef	0.004659645
244	0x80a9b6f6	-1.5585833e-38
245	0x3b00cd98	0.0019653793
246	0x00cf0a08	1.9013546e-38
247	0x3b80738f	0.0039200257
248	0x3d269fda	0.04067979
249	0x3b8843a9	0.0041584563
250	0x81a10f5a	-5.916409e-38
251	0x3c2950e7	0.01033423
252	0x3b86ed85	0.00411767
253	0x818c96a4	-5.1644037e-38
254	0x3b02ad9a	0.00199399
255	0x3cc290a0	0.023750603

fc2.bias f4 [168]
0	0x3cfb3417	0.030664487
1	0x3db016b2	0.08598079
2	0x3c94ab8b	0.018148204
3	0x3cc90663	0.024539178
4	0x3cc0b54b	0.023523947
5	0x3cf9b335	0.03048096
6	0x3c9ef688	0.019404665
7	0x3dab6a38	0.08369869
8	0x3cb1056c	0.02160903
9	0x812cb7bc	-3.1723234e-38
10	0x3d9fb979	0.07799048
11	0x3cc40ef1	0.023932906
12	0x3d9502d5	0.07275931
13	0x3cb5d367	0.022195531
14	0x3daf8367	0.08569985
15	0x3d14f9a0	0.036370873
16	0x3db12af1	0.086507685
17	0x3c96e0ce	0.018417742
18	0x3cca79b0	0.024716228
19	0x81654b2f	-4.21146e-38
20	0x3daf8b08	0.0857144
21	0x3d8d7197	0.06906431
22	0x3d5d49fd	0.05402564
23	0x3cc4b7f3	0.024013495
24	0x3cb75818	0.022380874
25	0x3cb01a81	0.021497013
26	0x3dadf04a	0.08493097
27	0x3cef5780	0.029216528
28	0x3cb890dd	0.022530014
29	0x3daff293	0.08591189
30	0x3cc45949	0.023968356
31	0x3dae6911	0.085161336
32	0x3db86cef	0.090051524
33	0x3da7cf56	0.08193843
34	0x3db0b32e	0.08627926
35	0x3c93ad1f	0.018026887
36	0x3c91f6cf	0.017817883
37	0x3ccbddea	0.02488609
38	0x3c99bba6	0.018766236
39	0x3ce703b0	0.0282
40	0x3ce1302e	0.027488794
41	0x3c936658	0.017993137
42	0x3daf4c96	0.085595295
43	0x3dcdc39f	0.100470774
44	0x3dab6302	0.083684936
45	0x3cb15c45	0.021650443
46	0x3d53273f	0.0515511
47	0x01f3d138	8.9564316e-38
48	0x3d9ad1c6	0.07559542
49	0x80b72a3a	-1.6821044e-38
50	0x3cf9b039	0.030479537
51	0x3e104dad	0.14092131
52	0x3c93d306	0.01804496
53	0x0183d980	4.8433897e-38
54	0x819c44e1	-5.7404186e-38
55	0x81d0acc0	-7.6655017e-38
56	0x3cabe0e1	0.020981254
57	0x3cca36ea	0.024684388
58	0x3c98172b	0.018565735
59	0x3c91f686	0.017817747
60	0x3d865194	0.065585285
61	0x3e139f53	0.14416246
62	0x3c9645aa	0.018343765
63	0x3d8d1426	0.06888609
64	0x3caa4ff5	0.02079008
65	0x00eaa018	2.1546937e-38
66	0x3c91f4d8	0.017816946
67	0x81a8098a	-6.172714e-38
68	0x3c97df28	0.018539026
69	0x3e116c50	0.14201474
70	0x3cd3235a	0.025773693
71	0x3cb90f21	0.022590222
72	0x3e555110	0.20831704
73	0x3cd859b7	0.026409967
74	0x3c92dbd3	0.017927086
75	0x3db218e5	0.086961545
76	0x3cbc035e	0.022950824
77	0x3d3ab673	0.045584153
78	0x3c94af36	0.018149953
79	0x817f1efe	-4.685834e-38
80	0x3cc2a6a0	0.023761094
81	0x3d925d52	0.07146706
82	0x3caa8fb6	0.02082048
83	0x3c7b23a6	0.0153283235
84	0x3cecf45c	0.028925113
85	0x01d21ac6	7.7180235e-38
86	0x3daeebde	0.08541082
87	0x3d71dd14	0.059048727
88	0x3c9230ec	0.017845593
89	0x3c92899e	0.017887887
90	0x3c93a1f2	0.018021557
91	0x81c0e530	-7.085853e-38
92	0x3def84c0	0.11695242
93	0x3cc625ed	0.024188006
94	0x3d4ae443	0.049534094
95	0x3d97f667	0.074200444
96	0x3c546c9f	0.01296535
97	0x3da96e98	0.08273047
98	0x3db2f4f1	0.08738125
99	0x3dae8232	0.085209265
100	0x3dab3349	0.08359391
101	0x3cbd138c	0.02308061
102	0x3c920d2c	0.017828546
103	0x3d22152f	0.039570983
104	0x3ccaac78	0.024740443
105	0x3dae6a31	0.08516348
106	0x3cdb8d53	0.026800787
107	0x3d01aa7f	0.03165674
108	0x019bb599	5.719859e-38
109	0x3e1c11f9	0.15241231
110	0x3d9353cb	0.071937166
111	0x3c9afc18	0.018919036
112	0x3daf970a	0.0857373
113	0x3e5754ac	0.21028394
114	0x3db0055e	0.08594774
115	0x3ca20d15	0.019781629
116	0x3cd83579	0.026392685
117	0x3dab4f17	0.083646946
118	0x3cb5fd9b	0.022215655
119	0x3e0b8da5	0.13628252
120	0x3d906034	0.07049599
121	0x3db51b9b	0.08843156
122	0x3c91f3d7	0.017816467
123	0x3dafe0f3	0.085878275
124	0x3d46e23f	0.04855561
125	0x3c9369f4	0.017994858
126	0x3dd3edfb	0.103481255
127	0x3c994485	0.01870943
128	0x3c3fb617	0.011701128
129	0x819b8acb	-5.7137166e-38
130	0x3ce56751	0.028003367
131	0x3df1a57c	0.11799142
132	0x3d9ceffc	0.07662961
133	0x81e93cf0	-8.5678123e-38
134	0x3cb86ffa	0.022514332
135	0x3d966c99	0.07344932
136	0x3d1a98b1	0.037743274
137	0x3c9de6d1	0.0192751
138	0x3dabae76	0.08382885
139	0x3d9af470	0.07566154
140	0x3d807a1e	0.06273292
141	0x3cc8a2b5	0.024491647
142	0x3c9bd8d6	0.019024294
143	0x3db1382f	0.08653294
144	0x3c97577c	0.018474333
145	0x3c9c2c0e	0.019063976
146	0x3da6a52d	0.081369735
147	0x01f3c997	8.955337e-38
148	0x81aa69c6	-6.2599915e-38
149	0x3cdcc662	0.026950065
150	0x3d33f8f0	0.043938577
151	0x3ca7e2f8	0.02049397
152	0x01f194de	8.874303e-38
153	0x819cb7be	-5.7569007e-38
154	0x3db00081	0.08593846
155	0x01d8860e	7.953823e-38
156	0x3cd52d45	0.026022563
157	0x3cbc12a7	0.022958113
158	0x3c920555	0.017824808
159	0x3cac86b8	0.021060333
160	0x80c97214	-1.8499858e-38
161	0x3ca6a707	0.020343317
162	0x3d1f75c6	0.038930677
163	0x3cb74418	0.022371337
164	0x3cc81425	0.024423668
165	0x01a95b3e	6.221172e-38
166	0x3cbeae3e	0.023276445
167	0x3caf39ee	0.021389928

fc3.weight f4 [84, 168]
0	0x3c589151	0.01321824
1	0x3d1541e2	0.036439784
2	0x3b70f213	0.0036765381
3	0x3c10cc4d	0.008837772
4	0x3c3c33b3	0.011486935
5	0x3c4a9e05	0.012366776
6	0x3b6d0267	0.0036164762
7	0x3d11e45c	0.03561817
8	0x3b680fe4	0.0035409862
9	0x80c1898a	-1.777359e-38
10	0x3d16ddd6	0.036832653
11	0x3c3f7432	0.011685418
12	0x3d00e50a	0.03146843
13	0x3c2ffabe	0.010740934
14	0x3d14daee	0.0363416
15	0x3c86eef1	0.016471358
16	0x3d1600f8	0.036622018
17	0x3b750290	0.003738556
18	0x3c4529f5	0.012033929
19	0x8131ac4e	-3.2633388e-38
20	0x3d287906	0.041131042
21	0x3cf64998	0.03006439
22	0x3ce4110d	0.027840162
23	0x3c3cf7d6	0.011533698
24	0x3c2a7651	0.010404185
25	0x3c2e2644	0.01062924
26	0x3d2726dc	0.040808544
27	0x3c48ecbf	0.012263476
28	0x3c3520f9	0.011055225
29	0x3d1528ea	0.03641597
30	0x3c3fc101	0.011703731
31	0x3d141097	0.036148634
32	0x3c92da88	0.01792647
33	0x3d0f3013	0.034957957
34	0x3d15ae59	0.036543224
35	0x3b8919ba	0.004183975
36	0x3b7e7dac	0.003883223
37	0x3b7b0853	0.0038304522
38	0x3ba6bef6	0.0050886823
39	0x3c5f0195	0.013611217
40	0x3c59b743	0.013288322
41	0x3b85bdda	0.00408147
42	0x3d284538	0.041081637
43	0x3d3d43b1	0.046207134
44	0x3d11dd57	0.035611477
45	0x3b6842df	0.003544025
46	0x3c103399	0.008801364
47	0x81823046	-4.7823727e-38
48	0x3d054f52	0.03254635
49	0x812dcaf1	-3.1920685e-38
50	0x3c703dc0	0.01466316
51	0x3d81c0f7	0.06335633
52	0x3b89ff1c	0.0042113196
53	0x01dffde4	8.228158e-38
54	0x81eb63a6	-8.6468355e-38
55	0x81e7d792	-8.5165327e-38
56	0x3c2a7c8b	0.01040567
57	0x3c42d5e7	0.011891819
58	0x3b9e28f9	0.0048266617
59	0x3b7f1b26	0.0038926094
60	0x3c473c7b	0.012160416
61	0x3d84d2f3	0.06485548
62	0x3b95438d	0.004555172
63	0x3cf5bb03	0.0299964
64	0x3b76db34	0.0037667276
65	0x010c01f5	2.5715343e-38
66	0x3b7e5507	0.0038808004
67	0x81c2fd4c	-7.162781e-38
68	0x3b9d8301	0.0048068766
69	0x3d82803d	0.06372116
70	0x3c198b67	0.009371615
71	0x3c31a2b8	0.010842018
72	0x3db9a24f	0.09064161
73	0x3c221b28	0.00989417
74	0x3b6e7c51	0.0036390016
75	0x3d16a547	0.036778715
76	0x3c34d4ed	0.011037094
77	0x3cb7bfcb	0.022430321
78	0x3b8e182a	0.0043363767
79	0x01f21ffa	8.8942644e-38
80	0x3b7472fa	0.0037299977
81	0x3cfdc4ac	0.03097757
82	0x3bdaf637	0.006682183
83	0x3ac25cab	0.0014828643
84	0x3b976d57	0.0046211886
85	0x81d72062	-7.9024994e-38
86	0x3d147069	0.036240015
87	0x3cd6eded	0.026236499
88	0x3b820eb2	0.003969037
89	0x3b7161d1	0.0036831985
90	0x3b6b8c11	0.003594164
91	0x81c26b4d	-7.1418314e-38
92	0x3d5af57a	0.05345676
93	0x3b85bb9a	0.0040812017
94	0x3c08a54a	0.008340189
95	0x3d032382	0.032016285
96	0x3b3c2a14	0.0028711604
97	0x3d1068e5	0.035256285
98	0x3d173fd9	0.036926124
99	0x3d279f18	0.040923208
100	0x3d11bbc5	0.03557946
101	0x3c344239	0.011002117
102	0x3b7e5cd1	0.0038812647
103	0x3bc7ddfc	0.0060994606
104	0x3c0b40b3	0.008499312
105	0x3d1413d4	0.036151722
106	0x3c2606b5	0.010133435
107	0x3c50db2c	0.012747567
108	0x81913f6f	-5.335561e-38
109	0x3d87de7c	0.066342324
110	0x3d0e9700	0.034811974
111	0x3b78bf31	0.0037955756
112	0x3d14e8f9	0.036354993
113	0x3dbc2bc3	0.091880344
114	0x3d15338c	0.036426112
115	0x3c1f2269	0.009712794
116	0x3c264640	0.010148585
117	0x3d11d046	0.035599016
118	0x3c313d0a	0.0108177755
119	0x3d75f344	0.06004645
120	0x3cfabea7	0.030608488
121	0x3d18d8df	0.0373162
122	0x3b7efb77	0.003890721
123	0x3d151c80	0.036404133
124	0x3cca6b68	0.024709418
125	0x3b85b7e6	0.0040807603
126	0x3d411fb9	0.047149394
127	0x3b75d921	0.0037513452
128	0x3a4e4b3e	0.00078694883
129	0x819a2dd3	-5.663642e-38
130	0x3c39e3a6	0.0113457795
131	0x3d5936e4	0.053030863
132	0x3d1618f0	0.036644876
133	0x81994420	-5.630108e-38
134	0x3c31fea1	0.010863931
135	0x3d01f80a	0.03173069
136	0x3bbecd8c	0.005822843
137	0x3bb4aab5	0.005513514
138	0x3d1216f4	0.03566642
139	0x3d0569f6	0.032571755
140	0x3c3bd8f4	0.0114653
141	0x3c141ba0	0.009039789
142	0x3be75695	0.007059882
143	0x3d160a1e	0.036630742
144	0x3c28fd8a	0.010314355
145	0x3b6a81d3	0.0035782948
146	0x3d0e4e3e	0.034742586
147	0x81bfc649	-7.0446844e-38
148	0x8163fe0c	-4.1875585e-38
149	0x3c2e6a2a	0.010645429
150	0x3ca2a072	0.019851897
151	0x3b74b81f	0.003734119
152	0x81daf879	-8.0437093e-38
153	0x819813c0	-5.586432e-38
154	0x3d15302c	0.036422893
155	0x01367a56	3.3515892e-38
156	0x3c338ca1	0.0109588215
157	0x3c344caa	0.011004606
158	0x3b804b6a	0.00391524
159	0x3bd04f46	0.0063571064
160	0x80c9738a	-1.8500382e-38
161	0x3b60df5e	0.0034312825
162	0x3bc4ab9b	0.0060019023
163	0x3c220877	0.0098897135
164	0x3c0f5066	0.008747196
165	0x01914be4	5.3373485e-38
166	0x3c36fe9e	0.011169104
167	0x3c2d14e0	0.010564059
168	0x3c36ac93	0.011149543
169	0x3c5075d4	0.012723405
170	0x3cb4f59b	0.02208977
171	0x3c6a8c5d	0.014315692
172	0x3bd0cc0a	0.0063719796
173	0x3c4a8b14	0.01236226
174	0x3ccd7aa4	0.025082894
175	0x3c4e5537	0.012593559
176	0x3cf71d82	0.030165438
177	0x807f0700	-1.1665619e-38
178	0xbc361d9b	-0.011115457
179	0x3bc7285e	0.00607781
180	0x3c45ef57	0.012080989
181	0x3bdbaa61	0.0067036604
182	0x3c503156	0.012707075
183	0x3bb21308	0.0054343976
184	0x3c50f947	0.012754745
185	0x3cb6a2ac	0.022294365
186	0x3bcd5ef6	0.0062674237
187	0x014cf2d4	3.7643103e-38
188	0xbc4f06d2	-0.012635903
189	0x3c43d886	0.011953479
190	0xbc169393	-0.009190458
191	0x3b913f90	0.004432626
192	0x3bfff106	0.0078107147
193	0x3baa957c	0.005205808
194	0xbc4d23ab	-0.012520711
195	0x3c399cc6	0.011328882
196	0x3bc3be20	0.0059735924
197	0x3c50666d	0.012719733
198	0x3bc2d0bb	0.0059452928
199	0x3c4f9779	0.012670391
200	0x3da13e4c	0.0787321
201	0x3c4cc5fc	0.012498375
202	0x3c50c0c3	0.0127412705
203	0x3ca077b2	0.019588325
204	0x3ca7a1d3	0.020462906
205	0x3d0f5f64	0.03500308
206	0x3c909ace	0.017651942
207	0x3bee36ac	0.007269701
208	0x3be3f087	0.0069561633
209	0x3ca3669c	0.019946389
210	0xbc4ebbe2	-0.012618037
211	0xbc6d9d14	-0.014502782
212	0x3c4e2efc	0.012584444
213	0x3cf7a24d	0.030228758
214	0x3d80ca87	0.06288629
215	0x81a82b02	-6.1775167e-38
216	0x3c47c9e3	0.01219413
217	0x80fa8ba6	-2.300897e-38
218	0x3c01e99d	0.007929233
219	0xbca4d954	-0.020123161
220	0x3c9fdba8	0.01951392
221	0x818de832	-5.2128404e-38
222	0x81dab2aa	-8.0336923e-38
223	0x80d05c20	-1.9134831e-38
224	0x3ba8d60e	0.0051524704
225	0x3bee9b25	0.0072816783
226	0x3c94f7e6	0.018184613
227	0x3ca7475c	0.020419769
228	0x3d8de03d	0.06927536
229	0xbca899b1	-0.020581098
230	0x3c99b01b	0.018760731
231	0x3c43c1b2	0.011948036
232	0x3cdf8909	0.027287023
233	0x812bc9d9	-3.1552558e-38
234	0x3ca7b4d2	0.020471964
235	0x01a8d5b7	6.202012e-38
236	0x3c952a7e	0.018208738
237	0xbca5d02f	-0.020240871
238	0x3c6c8aea	0.014437417
239	0x3be4d2b7	0.006983127
240	0xbce637e4	-0.028102823
241	0x3c60d260	0.013722032
242	0x3cb2ea25	0.021840164
243	0x3c516728	0.012780942
244	0x3be5fcde	0.0070186695
245	0x3c15e76f	0.009149416
246	0x3c9d7c3f	0.019224284
247	0x8177a4fe	-4.548511e-38
248	0x3d08a383	0.033359062
249	0x3c452e1e	0.012034921
250	0x3c80abd9	0.015706943
251	0x3c98a08c	0.018631242
252	0x3d25d171	0.040482942
253	0x81864968	-4.932916e-38
254	0x3c4febf8	0.012690537
255	0x3c3ff466	0.011715984

fc3.bias f4 [84]
0	0x3d201f93	0.03909261
1	0x3c10330d	0.008801234
2	0x3d5f0d5d	0.054456104
3	0x3c0fed17	0.008784554
4	0x3cbd71a2	0.023125473
5	0x3cf2ebe3	0.029653495
6	0x3d6c8455	0.05774339
7	0x3d1bd324	0.038043156
8	0x3d1d763b	0.03844283
9	0x3d3fd0a9	0.046829853
10	0x8127f52e	-3.0848964e-38
11	0x3c0fe8d4	0.008783538
12	0x3c2e511c	0.010639455
13	0x3d558ae7	0.05213442
14	0x3c1188b6	0.008882692
15	0x3de01d4c	0.10943088
16	0x3d5c7908	0.053826362
17	0x3d6265f1	0.055273
18	0x3c0bb17c	0.008526202
19	0x3d63ce05	0.055616397
20	0x3cc92baa	0.024556953
21	0x3c0fc9d8	0.008776151
22	0x3c1134f2	0.008862721
23	0x3d3e91b4	0.046525672
24	0x3c1407fb	0.009035106
25	0x3c1176ae	0.008878393
26	0x3c0e3965	0.008680676
27	0x3d0c099a	0.034188844
28	0x3bfe92f8	0.007768985
29	0x3d6b78af	0.05748814
30	0x3c0c06e7	0.0085465675
31	0x3c0f373e	0.008741198
32	0x3c80e366	0.015733432
33	0x3d2760c8	0.040863782
34	0x3c0bf462	0.008542152
35	0x3bbe6d54	0.005811373
36	0x3c10b0a5	0.008831178
37	0x3d158e2d	0.036512543
38	0x3d5584d0	0.052128613
39	0x3c64daba	0.013968164
40	0x3c133250	0.008984163
41	0x3d11c6ce	0.035589986
42	0x3c11f6fc	0.008908983
43	0x3d29436e	0.04132407
44	0x3c741bbf	0.014899193
45	0x3c19c8e4	0.009386275
46	0x3c079cee	0.008277161
47	0x3d039758	0.032126755
48	0x3c0fe917	0.0087836
49	0x3c0937cf	0.008375122
50	0x3c0f9507	0.008763558
51	0x3c116f39	0.008876615
52	0x3e0ecdce	0.13945696
53	0x3d401aa8	0.04690042
54	0x3c0b0eab	0.008487384
55	0x3d12c9ed	0.035837103
56	0x3c142942	0.00904304
57	0x3c489bae	0.012244148
58	0x3e01603f	0.12634371
59	0x3c10fbb5	0.008849074
60	0x3d271b26	0.040797375
61	0x3d4f2d80	0.0505805
62	0x3bc2f5fe	0.0059497347
63	0x3d152425	0.036411423
64	0x3d0d73ae	0.03453415
65	0x3d3e3338	0.046435565
66	0x3c0cda6b	0.008596997
67	0x3c07d731	0.008291052
68	0x3bbc8963	0.0057536825
69	0x3c4714c7	0.01215095
70	0x3c1158ee	0.0088713
71	0x3d34b6fe	0.044119827
72	0x3d4ba4da	0.04971776
73	0x3c122c49	0.008921691
74	0x3c0dfc9a	0.008666182
75	0x3cc5eb26	0.02415998
76	0x3c0ea16e	0.00870548
77	0x3d04de0d	0.032438327
78	0x813e81b3	-3.4990543e-38
79	0x3d53f62b	0.051748436
80	0x3c121d99	0.008918189
81	0x3c135fb4	0.008994985
82	0x3c0b206c	0.008491617
83	0x3bb00cda	0.005372626

fc4.weight f4 [42, 84]
0	0x3da2c443	0.0794759
1	0x3a7184c0	0.00092132017
2	0x3dd784dd	0.105233885
3	0x3a7d354e	0.0009659127
4	0x3d57a2d8	0.052645534
5	0xbccfed35	-0.025381664
6	0x3de29a52	0.110645905
7	0xbd0d1a18	-0.034448713
8	0x3da08493	0.078377865
9	0x3dbd74d2	0.09250797
10	0x8068ee2a	-9.636329e-39
11	0x3a7b8c3f	0.00095957884
12	0xbb34fbc1	-0.0027615877
13	0x3dcfa01b	0.101379596
14	0x3a49936b	0.00076895085
15	0x3e571d67	0.2100731
16	0xbd5db9f1	-0.054132406
17	0x3dda4868	0.10658342
18	0x3abfa512	0.0014621338
19	0x3ddb718f	0.10715019
20	0xbc9b0a66	-0.018925857
21	0x3a817c0a	0.0009878885
22	0x3a587d8a	0.0008258453
23	0xbd3a9575	-0.04555269
24	0x3a08caea	0.0005218225
25	0x3a51583d	0.0007985866
26	0x3a970359	0.0011521383
27	0x3d91bf38	0.0711655
28	0x3b57c639	0.0032924546
29	0x3de1bee7	0.1102274
30	0x3ab97d9a	0.0014151812
31	0x3a88b864	0.0010430929
32	0xbc0e16e5	-0.008672451
33	0x3da8e3d1	0.082465775
34	0x3abd4718	0.0014440743
35	0x3c535f47	0.012901134
36	0x3a686ff5	0.00088667806
37	0x3d99d364	0.07511023
38	0x3dcf9af2	0.10136975
39	0xbbcaee4a	-0.006192957
40	0x3a20db77	0.00061362184
41	0x3d969f34	0.07354584
42	0x3a40ff00	0.0007362217
43	0x3daa7ac7	0.08324199
44	0xbc77374a	-0.0150888655
45	0xb791fb26	-1.7402297e-05
46	0x3b13daf1	0.002256092
47	0x3d8a8d8e	0.06765281
48	0x3a77c051	0.00094509596
49	0x3aa9068e	0.001289563
50	0x3a84aaf6	0.0010121751
51	0x3a4e7e8a	0.0007877132
52	0x3e86bce0	0.26315975
53	0x3dbdb2f2	0.09262647
54	0x3aca3cd9	0.0015429511
55	0xbcfad089	-0.030617015
56	0x3a067b25	0.00051300443
57	0x3c9de044	0.019271977
58	0x3e74fdd8	0.23924959
59	0x3a5e8ae0	0.0008489322
60	0x3da8a905	0.08235363
61	0x3dca51d6	0.0987889
62	0x3c5935a0	0.013257414
63	0x3d997987	0.074938826
64	0x3d92f307	0.0717526
65	0x3dbc19df	0.09184622
66	0x3aaba369	0.0013094965
67	0x3ac829d0	0.001527125
68	0x3c6010d3	0.013675886
69	0x3c9a311a	0.018822242
70	0x3a5001d2	0.00079348416
71	0x3db42097	0.087952785
72	0x3dc75de3	0.09734704
73	0x3a3beb90	0.00071685854
74	0x3a9cecbb	0.0011972407
75	0x3d5fe272	0.054659314
76	0x3a90b1fa	0.0011039369
77	0xbceacedb	-0.02866309
78	0x00b0343e	1.6181788e-38
79	0x3dce4f02	0.10073663
80	0x3a3d6401	0.00072246796
81	0x3a1cf566	0.0005987495
82	0x3ac9cf71	0.0015396905
83	0x3bd425ec	0.006474247
84	0x3bc720c3	0.0060769035
85	0x3d633445	0.05546977
86	0xbba1c7b2	-0.0049371356
87	0x3d62d103	0.05537511
88	0x3ca0fe4f	0.019652514
89	0x3e09eda5	0.1346956
90	0xbbdd4615	-0.006752739
91	0x3e266022	0.1624761
92	0x3bd8882a	0.006608029
93	0x38c9da66	9.625107e-05
94	0x812b2935	-3.1437304e-38
95	0x3d62dc0d	0.055385638
96	0x3d7f4d75	0.06232973
97	0xbb6668c9	-0.0035157672
98	0x3d64bf3e	0.055846445
99	0xbd820741	-0.0634904
100	0x3e580833	0.21096878
101	0xbbb1400b	-0.005409246
102	0x3d5de7d0	0.05417615
103	0xbbb79f44	-0.0056037027
104	0x3deff28f	0.11716186
105	0x3d629a62	0.055323012
106	0x3d643d8d	0.055722762
107	0x3e4170de	0.18890712
108	0x3d676276	0.056490384
109	0x3d6485d5	0.055791695
110	0x3d60eeba	0.054915167
111	0x3c26966c	0.010167699
112	0x3d4de61f	0.05026829
113	0xbbd8ec59	-0.0066199717
114	0x3d5e573e	0.05428242
115	0x3d62082a	0.055183567
116	0x3daabd55	0.083368935
117	0x3b985c7a	0.004649696
118	0x3d5e1d72	0.0542273
119	0x3d131408	0.035907775
120	0x3d63a1c1	0.055574182
121	0x3c06739a	0.0082062725
122	0xbb6629ed	-0.0035120205
123	0x3d9bae60	0.07601619
124	0x3d66714c	0.056260392
125	0x3c13220a	0.0089802835
126	0x3d652647	0.055944707
127	0x3b8c5d4b	0.0042835823
128	0x3daf188d	0.085496046
129	0x3d6d4edf	0.057936545
130	0x3d57c9bd	0.052682627
131	0x3c43983c	0.011938151
132	0x3d62f195	0.05540617
133	0x3d5a4105	0.053284664
134	0x3d625e5b	0.055265766
135	0x3d649280	0.055803776
136	0xbd9d6a0f	-0.07686245
137	0x3839306d	4.4152537e-05
138	0x3d5d2197	0.053987112
139	0x3e1f0e06	0.15532693
140	0x3d677d11	0.056515757
141	0x3d33d476	0.04390379
142	0xbd913916	-0.070909664
143	0x3d640030	0.05566424
144	0x3b9a18b3	0.0047026514
145	0xbb245bf0	-0.0025079213
146	0x3d120967	0.035653498
147	0x3c07d6aa	0.008290926
148	0x3c21c67b	0.009873982
149	0x39c828b7	0.00038177308
150	0x3d5f59c8	0.05452898
151	0x3d588d89	0.052869353
152	0x3d0cabd9	0.034343574
153	0x3d35dbb6	0.044398986
154	0x3d648058	0.05578646
155	0x3b0a3cd6	0.002109339
156	0xbafce37f	-0.0019293873
157	0x3d655acd	0.055994797
158	0x3d6086e0	0.054816127
159	0x3c983b3d	0.018582935
160	0x3d6162e1	0.05502594
161	0x3e136835	0.1439522
162	0x015eaf06	4.0900533e-38
163	0xbb564396	-0.0032694093
164	0x3d654c09	0.055980716
165	0x3d669933	0.056298446
166	0x3d5d2ffc	0.05400084
167	0x3d366db4	0.044538215
168	0x3c5a2952	0.013315516
169	0x3d7c808c	0.06164603
170	0x3aea1481	0.0017858894
171	0x3d7c082d	0.061531235
172	0x3cdc59ac	0.026898228
173	0x3e2b2c36	0.16716084
174	0xb9085b34	-0.00013003947
175	0x3e532089	0.2061788
176	0x3c631b79	0.01386153
177	0x3be878e6	0.0070944903
178	0x01226d74	2.983323e-38
179	0x3d7c14bc	0.06154321
180	0x3d8fe6fd	0.070264794
181	0x3b57801b	0.0032882753
182	0x3d7e74a5	0.06212296
183	0xbd919977	-0.07109349
184	0x3e8d1e9d	0.2756242
185	0x3aa8b918	0.0012872545
186	0x3d75d359	0.06001601
187	0x3a8dd182	0.0010819884
188	0x3e12c818	0.14334142
189	0x3d7bc2c5	0.061465044
190	0x3d7dd49a	0.06197033
191	0x3e795306	0.24348077
192	0x3d80e8f7	0.062944345
193	0x3d7e30f6	0.06205841
194	0x3d79a4f8	0.060948342
195	0x3c8f4657	0.017489595
196	0x3d61e26e	0.05514758
197	0x3725085b	9.836712e-06
198	0x3d765e9f	0.06014883
199	0x3d7b0986	0.06128838
200	0x3dc89b2f	0.09795224
201	0x3c420805	0.011842732
202	0x3d761982	0.06008292
203	0x3d1c0f9a	0.038100816
204	0x3d7d1030	0.061783016
205	0x3c7de865	0.015497302
206	0x3b57c336	0.0032922751
207	0x3db4ddbe	0.088313565
208	0x3d805060	0.0626533
209	0x3c85692e	0.016285505
210	0x3d7efb63	0.06225146
211	0x3c3bd1f9	0.011463636
212	0x3dcab93f	0.09898614
213	0x3d84b16c	0.06479153
214	0x3d6e5718	0.058188528
215	0x3c9de2b5	0.019273141
216	0x3d7c2b92	0.06156499
217	0x3d70cbd8	0.05878815
218	0x3d7b7736	0.061392985
219	0x3d7e3c7d	0.062069405
220	0xbdba6939	-0.09102101
221	0x3be6ac50	0.007039584
222	0x3d74d9c7	0.059778
223	0x3e492d9a	0.19646302
224	0x3d80fa19	0.06297702
225	0x3d514955	0.051095325
226	0xbda7df73	-0.081969164
227	0x3d7d86b6	0.06189605
228	0x3c42ede4	0.011897538
229	0x3b8ea042	0.0043526003
230	0x3d1b228c	0.037874743
231	0x3c7f5271	0.01558362
232	0x3c8cd6d1	0.017192276
233	0x3bf248a8	0.007393915
234	0x3d77a35e	0.060458533
235	0x3d6eafad	0.058273006
236	0x3d141faa	0.03616301
237	0x3d537e71	0.051634256
238	0x3d7e2506	0.062047027
239	0x3c16c420	0.009202033
240	0x3ba29fd8	0.0049629025
241	0x3d7f3e10	0.062315047
242	0x3d792361	0.060824756
243	0x3cd3c98f	0.025852947
244	0x3d7a3561	0.061086062
245	0x3e38458d	0.17995282
246	0x00f7e814	2.2766621e-38
247	0x3b688e7e	0.0035485323
248	0x3d7f2b71	0.06229729
249	0x3d80698c	0.062701315
250	0x3d74ee17	0.059797373
251	0x3d453826	0.04814925
252	0xbc2e0448	-0.010621138
253	0x3da0a987	0.07844835
254	0xbd0274c7	-0.03184965
255	0x3da05d5a	0.078303054

fc4.bias f4 [42]
0	0x3d14d539	0.036336157
1	0x3be7c19c	0.0070726406
2	0x3cf8d133	0.030373191
3	0xbc400a8a	-0.011721263
4	0x3c03ce77	0.0080448305
5	0x3d1a9ed2	0.03774912
6	0x3d0d6f7d	0.03453015
7	0x3c0d7d79	0.008635872
8	0x3c2ecca1	0.0106689045
9	0x3d0cf821	0.03441632
10	0xbc2d3b4e	-0.010573221
11	0xbc23673b	-0.0099733425
12	0xbbe7a758	-0.0070695095
13	0x3d097ff3	0.033569288
14	0xbbc7ef77	-0.0061015445
15	0x3bb96b97	0.0056585777
16	0x3d25c39f	0.040469762
17	0x3c127eff	0.008941411
18	0x3d26cd58	0.040723175
19	0x3d21dccf	0.03951722
20	0xbc26e887	-0.010187275
21	0x3d00238f	0.03128391
22	0x3bd72d4d	0.0065666796
23	0x3c93a43e	0.018022653
24	0x3d5270f0	0.051377237
25	0x3d278832	0.04090137
26	0x81055565	-2.448951e-38
27	0xbc1a485f	-0.009416669
28	0x3d4e67bc	0.050391898
29	0x3c6f4708	0.0146043375
30	0x3d03fbad	0.03222244
31	0x3b798b63	0.0038077466
32	0xbc350e6a	-0.0110508
33	0xbc424174	-0.011856426
34	0xbbb04ae7	-0.005380023
35	0x3d205596	0.03914412
36	0xbc1afaa3	-0.0094591705
37	0x3bcd05d2	0.0062567974
38	0x3bb9bcde	0.0056682667
39	0x3bd67597	0.0065447795
40	0x3c4fbb6d	0.012678963
41	0x3c90b23d	0.017663116

fc5.weight f4 [42, 42]
0	0xbd819f0a	-0.063291624
1	0xbd63b4a2	-0.055592187
2	0xbd87694b	-0.0661188
3	0xbd4d7b79	-0.05016658
4	0xbd475ced	-0.048672605
5	0xbd914ccd	-0.07094727
6	0xbd87d869	-0.06633074
7	0xbd6662cd	-0.056246568
8	0xbd78c694	-0.060736254
9	0xbd7f37dd	-0.062309135
10	0xbd5b8bdc	-0.053600177
11	0xbd6055df	-0.054769393
12	0xbd5d3906	-0.05400946
13	0xbd8960e4	-0.067079335
14	0xbd665a16	-0.056238256
15	0xbd61fa42	-0.055170305
16	0xbd884a7e	-0.06654833
17	0xbd616b9b	-0.05503426
18	0xbd8990a8	-0.06717044
19	0xbd8593ec	-0.065223545
20	0xbd62728e	-0.05528503
21	0xbd7b2b5f	-0.06132066
22	0xbd4a368d	-0.04936843
23	0xbd7a1381	-0.061053757
24	0xbd98e67d	-0.07465837
25	0xbd8aa406	-0.06769566
26	0x812fed05	-3.2312477e-38
27	0xbd5b779f	-0.053580876
28	0xbd98007b	-0.07421967
29	0xbd798978	-0.060922116
30	0xbd86bd8e	-0.065791234
31	0xbd5fc61c	-0.05463229
32	0xbd4d269c	-0.05008565
33	0xbd499c8d	-0.049221564
34	0xbd6793f2	-0.056537576
35	0xbd84f85b	-0.064926825
36	0xbd582c44	-0.05277659
37	0xbd62acf7	-0.055340733
38	0xbd605c93	-0.054775786
39	0xbd524b5f	-0.05134141
40	0xbd5fba1a	-0.05462084
41	0xbd763ee3	-0.060118567
42	0xbd9e3917	-0.07725733
43	0xbd650a8c	-0.05591826
44	0xbd947138	-0.07248157
45	0xbd5a7898	-0.053337663
46	0xbd2aec7e	-0.041729443
47	0xbdb0007d	-0.08593843
48	0xbdaaf5cc	-0.08347663
49	0xbd6a4690	-0.0571962
50	0xbd8d2360	-0.06891513
51	0xbd9bb68a	-0.07603176
52	0xbd55cc11	-0.052196566
53	0xbd5d129b	-0.05397282
54	0xbd539d58	-0.051663727
55	0xbda95b69	-0.08269388
56	0xbd65ad45	-0.056073446
57	0xbd665662	-0.056234725
58	0xbda5fc1b	-0.08104726
59	0xbd6b4f12	-0.057448454
60	0xbda765f1	-0.08173741
61	0xbda2ebe1	-0.079551466
62	0xbd61b0a3	-0.055100095
63	0xbd989845	-0.07450918
64	0xbd351715	-0.044211466
65	0xbd924aa7	-0.07143145
66	0xbdaf6bf4	-0.08565512
67	0xbda88f46	-0.08230452
68	0x8136ead9	-3.3596616e-38
69	0xbd53bc0a	-0.051693
70	0xbdae14c5	-0.08500055
71	0xbd8f78b1	-0.07005442
72	0xbda8777b	-0.08225914
73	0xbd656fb5	-0.056014735
74	0xbd58baff	-0.05291271
75	0xbd510159	-0.051026676
76	0xbd68a740	-0.056800127
77	0xbda230ca	-0.07919462
78	0xbd4e469b	-0.050360303
79	0xbd66abcb	-0.05631618
80	0xbd6246a9	-0.055243168
81	0xbd468b00	-0.048472404
82	0xbd6ba415	-0.057529528
83	0xbd844f80	-0.06460476
84	0xbd941394	-0.07230297
85	0xbd551898	-0.052025408
86	0xbd81ac99	-0.063317485
87	0xbd4854c7	-0.048908975
88	0xbd38a334	-0.045077518
89	0xbdac26c1	-0.08405829
90	0xbdafa79a	-0.08576889
91	0xbd5c1a7e	-0.053736202
92	0xbd8ca386	-0.06867127
93	0xbd910a7e	-0.07082079
94	0xbd5c84b7	-0.053837504
95	0xbd66a642	-0.0563109
96	0xbd5c8a92	-0.05384309
97	0xbdb190b1	-0.08670176
98	0xbd6fc8c8	-0.05854109
99	0xbd5d511e	-0.054032438
100	0xbd9dbd5d	-0.07702134
101	0xbd674258	-0.056459755
102	0xbd9f9ea7	-0.077939324
103	0xbd99c8f9	-0.075090356
104	0xbd6bedd9	-0.057599876
105	0xbd8d4a70	-0.068989635
106	0xbd406f25	-0.046980996
107	0xbd8d2103	-0.06891062
108	0xbd96dc17	-0.073661976
109	0xbda145d0	-0.07874644
110	0x8126c756	-3.06324e-38
111	0xbd5a1363	-0.053241145
112	0xbd95acb8	-0.07308334
113	0xbd8cfaef	-0.06883799
114	0xbdacad52	-0.08431496
115	0xbd60fc10	-0.054927886
116	0xbd4758f8	-0.04866883
117	0xbd42e2d3	-0.047579598
118	0xbd724743	-0.05914999
119	0xbd98f1f1	-0.07468022
120	0xbd52e1a5	-0.051484723
121	0xbd5c7a19	-0.05382738
122	0xbd5620c6	-0.05227735
123	0xbd4c8b15	-0.049937326
124	0xbd6adb5b	-0.0573381
125	0xbd7cfb70	-0.061763227
126	0xbd9f3aab	-0.07774862
127	0xbd620b72	-0.055186696
128	0xbd94750a	-0.07248886
129	0xbd588979	-0.05286548
130	0xbd25ac77	-0.04044768
131	0xbdb201ef	-0.08691775
132	0xbdac24b1	-0.08405436
133	0xbd67c9b3	-0.05658884
134	0xbd8cc1c2	-0.06872894
135	0xbd9c99ac	-0.07646498
136	0xbd52f6c6	-0.051504873
137	0xbd5a48aa	-0.053291954
138	0xbd504ed7	-0.050856438
139	0xbdaa57e6	-0.083175465
140	0xbd6269ce	-0.055276684
141	0xbd642f5d	-0.05570923
142	0xbda767ab	-0.0817407
143	0xbd6a0384	-0.05713226
144	0xbda8e510	-0.08246815
145	0xbda42f6f	-0.0801686
146	0xbd5eed22	-0.054425366
147	0xbd994dbf	-0.07485532
148	0xbd306b7d	-0.04307126
149	0xbd925390	-0.071448445
150	0xbdb0ebf1	-0.08638752
151	0xbdaa1d56	-0.08306377
152	0x81322caf	-3.2725496e-38
153	0xbd50b029	-0.05094925
154	0xbdaf7fe1	-0.08569313
155	0xbd8f3db1	-0.069941886
156	0xbda97a49	-0.08275277
157	0xbd63b431	-0.055591766
158	0xbd56a6eb	-0.05240528
159	0xbd4e7f72	-0.05041451
160	0xbd65699e	-0.056008928
161	0xbda36a24	-0.07979229
162	0xbd4afd51	-0.049557988
163	0xbd64673a	-0.055762507
164	0xbd5f8bc9	-0.05457667
165	0xbd42b229	-0.047533188
166	0xbd693c3a	-0.056942202
167	0xbd84383c	-0.06456038
168	0xbcc586ec	-0.024112187
169	0xbbb9f722	-0.0056752125
170	0xbc89d4bf	-0.016825078
171	0xbad404e8	-0.0016175779
172	0x3ad5c462	0.0016309137
173	0xbd13d118	-0.03608808
174	0xbd192a44	-0.037393823
175	0xbbe8761d	-0.0070941583
176	0xbcacad23	-0.021078652
177	0xbcb929b0	-0.022602886
178	0xbbee0fdf	-0.0072650756
179	0xbc1f284c	-0.009714197
180	0xbbf21a81	-0.0073884134
181	0xbd1cf537	-0.038319793
182	0xbc418b3b	-0.01181298
183	0xbbe5cdbf	-0.0070130522
184	0xbced35c4	-0.028956302
185	0xbc124859	-0.008928382
186	0xbcf4ed73	-0.02989838
187	0xbcdcf325	-0.02697141
188	0xbc33bb47	-0.010969943
189	0xbcaa2587	-0.020769848
190	0x3793b5a1	1.7608343e-05
191	0xbcac6f0e	-0.021049049
192	0xbcd991b0	-0.026558727
193	0xbcfbb4b8	-0.030725822
194	0x8093a440	-1.355874e-38
195	0xbbdcdf21	-0.006740466
196	0xbcd5224e	-0.026017334
197	0xbcacbc11	-0.02108577
198	0xbd146139	-0.03622553
199	0xbbfbb7e9	-0.007681836
200	0xbabe64cc	-0.001452589
201	0xb9e58d9b	-0.00043783788
202	0xbc4abb93	-0.012373823
203	0xbcd97ffa	-0.026550282
204	0xbba6a4f7	-0.0050855833
205	0xbbe1da9a	-0.0068925144
206	0xbbb4f699	-0.005522561
207	0xbb3796c6	-0.0028013452
208	0xbc19bc72	-0.009383308
209	0xbc6a39ac	-0.014295977
210	0xbd870bf7	-0.06594079
211	0xbd7e5873	-0.06209607
212	0xbd93947c	-0.072060555
213	0xbd67de3b	-0.05660842
214	0xbd6475bc	-0.055776343
215	0xbd938df6	-0.07204811
216	0xbd865269	-0.06558687
217	0xbd800bee	-0.062522754
218	0xbd823ec8	-0.06359631
219	0xbd858512	-0.06519522
220	0xbd762cb6	-0.060101233
221	0xbd7b6a97	-0.06138095
222	0xbd7792da	-0.060442783
223	0xbd87c958	-0.066302
224	0xbd825c30	-0.063652396
225	0xbd7b4160	-0.061341643
226	0xbd8c4c3b	-0.06850477
227	0xbd7b8499	-0.06140575
228	0xbd8d5408	-0.06900793
229	0xbd8a242c	-0.067451805
230	0xbd7e5c83	-0.062099945
231	0xbd841256	-0.0644881
232	0xbd6742dc	-0.056460246
233	0xbd82a681	-0.06379414
234	0xbda45fd5	-0.08026091
235	0xbd8e2c01	-0.06941987
236	0x80b366c0	-1.6475414e-38
237	0xbd75c5c2	-0.06000305
238	0xbda389fb	-0.07985302
239	0xbd827629	-0.063701935
240	0xbd859516	-0.065225765
241	0xbd78432b	-0.06061093
242	0xbd676923	-0.05649675
243	0xbd63fa86	-0.05565884
244	0xbd82a91b	-0.063799106
245	0xbd89a693	-0.06721225
246	0xbd72bee4	-0.05926408
247	0xbd7c272d	-0.0615608
248	0xbd7af2a2	-0.06126655
249	0xbd6e4b1c	-0.0581771
250	0xbd77f298	-0.06053409
251	0xbd87382e	-0.06602512
252	0xbd8785fe	-0.06617354
253	0xbd3c8000	-0.046020508
254	0xbd6abfbc	-0.05731176
255	0xbd2f97cf	-0.042869385
