models/REINFORCE/policy_weights.pth (torch, 94810 bytes, 10 tensors)

fc1.weight f4 [168, 21]
5.9175074e-38 3.505806e-38 4.0786838e-38 -3.7055796e-38 5.3007035e-38 4.944443e-38 4.731708e-38 3.2661268e-38
-4.4401868e-38 5.72193e-38 4.168721e-38 -6.008196e-38 -6.8477516e-38 5.2253046e-38 -2.1393517e-38 3.0587846e-38
5.1600546e-38 -6.666588e-38 7.1758084e-38 -1.4496108e-38 3.360609e-38 7.448579e-38 -4.88382e-38 7.102004e-38
7.524361e-38 -5.033046e-38 5.2040817e-38 4.81809e-39 -7.595774e-38 -7.617523e-38 -3.3508342e-38 -6.626713e-38
3.558265e-38 4.070391e-38 -4.6351187e-38 3.8617084e-38 -6.337078e-38 7.1669567e-38 5.591405e-38 -3.6027384e-38
1.6961171e-38 4.5991255e-38 6.726124e-38 -3.5300042e-38 5.6601864e-38 2.1696343e-38 -4.4827717e-38 6.8801737e-38
-5.933006e-38 4.4037419e-38 6.032254e-38 -5.2473286e-38 4.7480297e-38 -3.2190202e-38 6.3681174e-38 -1.59609e-39
-3.4358118e-38 -6.201683e-38 7.20338e-38 6.7140935e-38 -5.9558755e-38 2.1374095e-38 6.7824735e-38 6.0338673e-38
-5.980248e-38 -6.617115e-38 5.766947e-38 2.46406e-38 4.750479e-38 -4.0348887e-38 4.0978973e-38 6.3558196e-38
7.188267e-38 -5.41411e-38 -5.5305215e-38 3.775422e-38 5.5520684e-38 -4.6244738e-38 5.560212e-38 3.8767438e-38
6.9414637e-38 5.042596e-38 4.5486014e-38 -5.189066e-38 -3.0722936e-38 6.4499296e-38 4.5976457e-38 -5.65791e-38
-6.635749e-38 5.020913e-38 -4.087007e-38 -4.9164826e-38 -6.8951765e-38 7.39797e-38 -6.124574e-38 -3.6147817e-38
-6.2226357e-38 -4.402387e-38 -6.8889996e-38 4.447458e-38 -6.3340905e-38 -5.9745016e-38 -3.1178885e-38 -4.211532e-38
3.635253e-38 4.974999e-38 -2.465473e-39 7.429903e-38 6.8256525e-38 -4.870934e-38 4.1066094e-38 -3.855225e-38
6.081169e-38 -5.6973214e-38 6.026581e-38 -4.906514e-38 3.3238452e-38 6.0334744e-38 1.534186e-39 -1.8434726e-38
5.712994e-38 -7.8469385e-38 -6.812189e-38 -6.0686896e-38 3.4105497e-38 7.327567e-38 -5.043148e-38 4.3051723e-38
-5.0506804e-38 4.871251e-38 -3.9821108e-38 6.161667e-38 -6.0032714e-38 -4.0688842e-38 5.3882807e-38 5.902575e-38
-6.9322784e-38 6.631685e-38 -7.7680745e-38 5.495486e-38 -3.3153376e-38 -3.8950133e-38 6.695393e-39 7.290864e-38
4.9366775e-38 -6.419248e-38 1.7249267e-38 4.365687e-38 6.3825356e-38 7.0105006e-38 6.258746e-38 1.5955375e-38
-6.799287e-38 -1.3555634e-38 5.306212e-38 -7.3607787e-38 -6.041356e-38 -2.5359293e-38 -7.5265966e-38 -4.155193e-38
-7.116414e-38 5.93084e-38 -4.817435e-38 -3.6902326e-38 6.1969515e-38 3.0447116e-38 -6.7592214e-38 4.7265775e-38
6.1229495e-38 -7.205732e-38 -7.217444e-38 -7.9754885e-38 -3.8586592e-38 -4.941339e-38 -6.588287e-38 5.69357e-38
-3.1496027e-38 -3.5666588e-38 3.557074e-38 -6.1349093e-38 6.9288486e-38 -3.9786624e-38 7.9193615e-38 -6.765938e-38
5.467583e-38 -5.927426e-38 -3.623509e-38 -6.52846e-38 5.3840045e-38 -5.5924224e-38 -3.572973e-38 -1.8167106e-38
6.4893134e-38 3.5007474e-38 5.4216905e-38 7.163651e-38 4.156892e-38 3.092946e-38 5.407404e-38 -4.5066796e-38
-7.34528e-38 5.9424135e-38 -3.262901e-38 -3.6180607e-38 -4.157301e-38 -1.8467982e-38 7.916582e-38 3.6144056e-38
-5.89888e-38 -6.881842e-38 7.23091e-38 6.598097e-38 3.3010937e-38 4.5386819e-38 -4.1471585e-38 5.3336575e-38
4.8266577e-38 -3.7162362e-38 7.507157e-38 7.667256e-38 -5.541064e-38 5.2395553e-38 -6.779645e-38 -4.331918e-38
-1.146481e-39 4.5734094e-38 -3.6533017e-38 2.1716735e-38 6.7857105e-38 5.8750195e-38 -7.48153e-38 7.617326e-38
6.7663787e-38 -4.5600063e-38 5.9952324e-38 6.1719933e-38 5.5760485e-38 3.1937184e-38 2.4401533e-38 -6.07179e-38
-7.2600164e-38 3.1090631e-38 -3.9100297e-38 -4.1450543e-38 -6.8783486e-38 -7.16901e-38 -2.3312803e-38 4.669307e-38
4.355873e-38 3.749382e-38 4.3408286e-38 -4.3171932e-38 -5.4169317e-38 5.5988555e-38 6.0291007e-38 5.7721474e-38
00000000: 0217 a101 cedf 3e01 8e10 5e01 3ec0 4981
00000010: 834c 9001 bd99 8601 31cf 8001 2ad3 3101
00000020: 2cbf 7181 08c4 9b01 7ef7 6201 048f a381
00000030: dd69 ba81 0f3f 8e01 6cf4 e880 3c89 2601
00000040: 5578 8c01 567b b581 1658 c301 40d9 9d80
00000050: 0ef8 3601 05c5 ca01 42f3 8481 bf55 c101
00000060: 25d5 cc01 3603 8981 28ab 8d01 e076 3400
00000070: d2c6 ce81 635e cf81 d06f 3681 7365 b481
00000080: faba 4101 f89c 5d01 205c 7c81 5c40 5201
00000090: fd82 ac81 661a c301 6836 9801 d826 4481
000000a0: d8b0 b800 7466 7a01 3e1a b701 1431 4081
000000b0: be15 9a01 9440 ec00 b810 7481 d04b bb01
000000c0: 0483 a181 34c3 6f01 ad36 a401 8bd8 8e81
000000d0: f040 8101 9842 2f81 4d5b ad01 4061 1180
000000e0: 3a10 3b81 6cd3 a881 3b18 c401 67c6 b601
000000f0: 6522 a281 48be e800 f1a2 b801 eb41 a401
00000100: 3fcc a281 9022 b481 c1fd 9c01 fc27 0601
00000110: 0252 8101 24ae 5b81 5a1c 5f01 9905 ad01
00000120: e9ae c301 d762 9381 1c8e 9681 b48d 4d01
00000130: 4524 9701 c2c7 7b81 065d 9701 ec11 5301
00000140: f1f6 bc01 c445 8901 40a6 7701 8342 8d81
00000150: 8645 2781 7395 af01 d451 7a01 e105 9a81
00000160: 6ca4 b481 a8ae 8801 9084 5e81 e2d6 8581
00000170: 5eb4 bb81 5464 c901 0dba a681 b4ce 4481
00000180: 7165 a981 52b0 6f81 5289 bb81 8424 7201
00000190: 2b6e ac81 33a4 a281 06c1 2981 304c 6581
000001a0: 08ec 4501 af6e 8701 bcd8 1a80 de42 ca01
000001b0: dbcf b901 7599 8481 c895 5f01 fee5 5181
000001c0: 908b a501 8918 9b81 240f a401 6991 8581
000001d0: a4f7 3401 2e3f a401 b0b4 1000 84bc c880
000001e0: c285 9b01 2e9d d581 0772 b981 9834 a581
000001f0: 20b0 3901 b079 c701 9d49 8981 5865 6a01
00000200: 1b7e 8981 aa9b 8401 86ce 5881 8dbc a701
00000210: b26c a381 f887 5d81 d6ae 9201 f2ae a001
00000220: eeb6 bc81 1988 b401 9477 d381 f399 9501
00000230: 1081 3481 9010 5481 08e8 4800 e879 c601
00000240: 9f63 8601 a1bf ae81 f0d3 bb00 ccb0 6d01
00000250: c8bf ad01 0fd8 be01 1861 aa01 18bd ad00
00000260: 1d18 b981 989b 9380 e772 9001 2461 c881
00000270: 1b76 a481 b211 0a81 b9e4 cc81 f03a 6281
00000280: 2bba c181 ec73 a101 9f24 8381 56ea 4881
00000290: 73b2 a801 16c5 2501 e600 b881 70ab 8001
000002a0: bbae a601 9f28 c481 3e7a c481 0b1d d981
000002b0: dc15 5281 1b84 8681 a959 b381 64fe 9a01
000002c0: 0e7b 2b81 f82f 4281 60aa 4101 1402 a781
000002d0: 079f bc01 769e 5881 e595 d701 b52f b881
000002e0: 7ed7 9401 215c a181 5848 4581 bab8 b181
000002f0: 0991 9201 7f3d 9881 fa87 4281 80d2 c580
00000300: eaa7 b001 4c99 3e01 ab97 9301 5c03 c301
00000310: 9e52 6201 6065 2801 1b34 9301 f25d 7581
00000320: 21f5 c781 94c4 a101 34a6 3181 68fc 4481
00000330: 5258 6281 3819 c980 8682 d701 76c9 4401
00000340: 3295 a081 7057 bb81 17d8 c401 069e b301
00000350: 88ba 3301 fe1b 7701 f4ca 6181 2b32 9101
00000360: e564 8301 c654 4a81 405d cc01 fab8 d001
00000370: 95d7 9681 5fa2 8e01 3b8f b881 20da 6b81
00000380: ec7b 0c80 0600 7901 98e7 4681 6c79 ec00
00000390: 80b9 b801 e9ee 9f01 a8aa cb81 045d cf01
000003a0: c732 b801 3645 7881 ac34 a301 8404 a801
000003b0: 63cb 9701 f0e1 2d01 c6da 0401 334a a581
000003c0: eea2 c581 0446 2901 dce1 5481 a0ad 6181
000003d0: 183f bb81 b528 c381 9cda fd80 a438 7e01
000003e0: 0228 6d01 c222 4c01 5256 6c01 e40c 6b81
000003f0: 8176 9381 546a 9801 b320 a401 ff21 9d01

fc1.bias f4 [168]
0.0 0.0 0.0 0.0 0.0 0.0 0.0 0.0
0.0 0.0 0.0 0.0 0.0 0.0 0.0 0.0
0.0 0.0 0.0 0.0 0.0 0.0 0.0 0.0
0.0 0.0 0.0 0.0 0.0 0.0 0.0 0.0
0.0 0.0 0.0 0.0 0.0 0.0 0.0 0.0
0.0 0.0 0.0 0.0 0.0 0.0 0.0 0.0
0.0 0.0 0.0 0.0 0.0 0.0 0.0 0.0
0.0 0.0 0.0 0.0 0.0 0.0 0.0 0.0
0.0 0.0 0.0 0.0 0.0 0.0 0.0 0.0
0.0 0.0 0.0 0.0 0.0 0.0 0.0 0.0
0.0 0.0 0.0 0.0 0.0 0.0 0.0 0.0
0.0 0.0 0.0 0.0 0.0 0.0 0.0 0.0
0.0 0.0 0.0 0.0 0.0 0.0 0.0 0.0
0.0 0.0 0.0 0.0 0.0 0.0 0.0 0.0
0.0 0.0 0.0 0.0 0.0 0.0 0.0 0.0
0.0 0.0 0.0 0.0 0.0 0.0 0.0 0.0
0.0 0.0 0.0 0.0 0.0 0.0 0.0 0.0
0.0 0.0 0.0 0.0 0.0 0.0 0.0 0.0
0.0 0.0 0.0 0.0 0.0 0.0 0.0 0.0
0.0 0.0 0.0 0.0 0.0 0.0 0.0 0.0
0.0 0.0 0.0 0.0 0.0 0.0 0.0 0.0
00000000: 0000 0000 0000 0000 0000 0000 0000 0000
00000010: 0000 0000 0000 0000 0000 0000 0000 0000
00000020: 0000 0000 0000 0000 0000 0000 0000 0000
00000030: 0000 0000 0000 0000 0000 0000 0000 0000
00000040: 0000 0000 0000 0000 0000 0000 0000 0000
00000050: 0000 0000 0000 0000 0000 0000 0000 0000
00000060: 0000 0000 0000 0000 0000 0000 0000 0000
00000070: 0000 0000 0000 0000 0000 0000 0000 0000
00000080: 0000 0000 0000 0000 0000 0000 0000 0000
00000090: 0000 0000 0000 0000 0000 0000 0000 0000
000000a0: 0000 0000 0000 0000 0000 0000 0000 0000
000000b0: 0000 0000 0000 0000 0000 0000 0000 0000
000000c0: 0000 0000 0000 0000 0000 0000 0000 0000
000000d0: 0000 0000 0000 0000 0000 0000 0000 0000
000000e0: 0000 0000 0000 0000 0000 0000 0000 0000
000000f0: 0000 0000 0000 0000 0000 0000 0000 0000
00000100: 0000 0000 0000 0000 0000 0000 0000 0000
00000110: 0000 0000 0000 0000 0000 0000 0000 0000
00000120: 0000 0000 0000 0000 0000 0000 0000 0000
00000130: 0000 0000 0000 0000 0000 0000 0000 0000
00000140: 0000 0000 0000 0000 0000 0000 0000 0000
00000150: 0000 0000 0000 0000 0000 0000 0000 0000
00000160: 0000 0000 0000 0000 0000 0000 0000 0000
00000170: 0000 0000 0000 0000 0000 0000 0000 0000
00000180: 0000 0000 0000 0000 0000 0000 0000 0000
00000190: 0000 0000 0000 0000 0000 0000 0000 0000
000001a0: 0000 0000 0000 0000 0000 0000 0000 0000
000001b0: 0000 0000 0000 0000 0000 0000 0000 0000
000001c0: 0000 0000 0000 0000 0000 0000 0000 0000
000001d0: 0000 0000 0000 0000 0000 0000 0000 0000
000001e0: 0000 0000 0000 0000 0000 0000 0000 0000
000001f0: 0000 0000 0000 0000 0000 0000 0000 0000
00000200: 0000 0000 0000 0000 0000 0000 0000 0000
00000210: 0000 0000 0000 0000 0000 0000 0000 0000
00000220: 0000 0000 0000 0000 0000 0000 0000 0000
00000230: 0000 0000 0000 0000 0000 0000 0000 0000
00000240: 0000 0000 0000 0000 0000 0000 0000 0000
00000250: 0000 0000 0000 0000 0000 0000 0000 0000
00000260: 0000 0000 0000 0000 0000 0000 0000 0000
00000270: 0000 0000 0000 0000 0000 0000 0000 0000
00000280: 0000 0000 0000 0000 0000 0000 0000 0000
00000290: 0000 0000 0000 0000 0000 0000 0000 0000

fc2.weight f4 [84, 168]
3.445512e-38 -6.6332077e-38 -5.1589335e-38 -3.8672362e-38 7.0133805e-38 4.5011214e-38 4.99263e-38 4.903813e-38
-4.3945605e-38 6.396023e-38 4.908225e-38 -5.698982e-38 5.551115e-38 5.71936e-39 5.3368183e-38 -6.0140714e-38
3.3539328e-38 3.7738296e-38 2.004595e-38 -4.4047867e-38 -3.5308955e-38 5.733872e-38 5.423226e-38 5.248074e-38
-3.0753053e-38 -5.5375593e-38 -7.5197156e-38 4.95024e-38 -6.753391e-38 -7.793176e-38 3.9646495e-38 7.951736e-38
2.9573905e-38 6.58571e-38 7.374198e-38 4.874193e-38 -1.9859448e-38 -5.1243753e-38 -5.49847e-38 5.538871e-38
1.8313525e-38 -5.1015616e-38 -6.8282e-38 -7.1293783e-38 7.2857156e-38 3.5902657e-38 2.3696831e-38 5.6511665e-38
7.553852e-38 4.4813261e-38 -5.447686e-38 -3.7593833e-38 7.59635e-38 -5.0288667e-38 6.0124493e-38 4.3773178e-38
-6.5442174e-38 3.1087487e-38 6.9589805e-38 -5.6219203e-38 -5.7245626e-38 3.9344083e-38 -3.7192658e-38 -2.2596134e-38
-4.6966037e-38 -5.2042386e-38 3.0359866e-38 -6.6024873e-38 -4.6555765e-38 3.9298098e-38 6.4576626e-38 -6.625824e-38
5.5879966e-38 -6.505964e-38 -6.142192e-38 -4.2534162e-38 6.17016e-38 -1.5574569e-38 5.425111e-38 5.7166716e-38
6.954879e-38 5.4768837e-38 -7.1731964e-38 4.1741755e-38 -4.4360732e-38 -2.6318095e-38 -5.769127e-38 -5.505327e-38
-4.7464356e-38 6.063782e-38 -7.491185e-38 6.114202e-38 5.5941427e-38 3.2554293e-38 -7.291967e-38 -7.0271424e-38
-3.9858365e-38 6.395136e-38 -6.991447e-38 4.6695401e-38 4.513162e-39 -3.3402365e-38 -4.4636984e-38 5.3153235e-38
7.282273e-39 4.8332824e-38 4.3413678e-38 1.774406e-38 -3.5118574e-38 5.1931465e-38 3.37634e-38 3.0698705e-38
6.221063e-38 -4.971447e-38 1.6579973e-38 6.620016e-38 -6.298635e-39 -5.571646e-38 -7.694819e-38 -3.4193157e-38
-7.222695e-38 3.923777e-38 4.1018467e-38 5.366871e-38 2.2559459e-38 6.7025384e-38 5.064051e-38 3.2889826e-38
-3.6790973e-38 -3.9399866e-38 5.542211e-38 -5.699787e-38 -6.47789e-38 -4.7489293e-38 -2.639044e-38 -5.713137e-38
7.5765176e-38 -5.9471953e-38 -5.731135e-38 -3.1183084e-38 -6.5234793e-38 7.9609924e-38 6.747164e-38 4.3294231e-38
-6.6450033e-38 -5.67666e-38 3.595132e-38 -6.3244585e-38 6.9135694e-38 -3.5632296e-38 5.074564e-38 -2.9720616e-38
-6.013071e-38 7.4068786e-38 -3.8540377e-38 5.713399e-38 6.5039256e-38 -7.088004e-38 -4.6076044e-38 -3.8833108e-38
-6.2694727e-38 5.9623506e-38 -4.8325795e-38 6.253935e-38 4.5432876e-38 -4.852228e-38 -5.573999e-38 5.9392813e-38
4.6752518e-38 -6.1842294e-38 6.8545815e-38 7.1907216e-38 -1.1073223e-38 3.688638e-38 3.014189e-38 4.937086e-38
1.4227097e-38 -3.9022311e-38 -4.6165217e-38 5.357905e-38 3.4424158e-38 6.067432e-38 3.5466606e-38 -3.9747685e-38
-4.262033e-38 6.1429965e-38 -1.729464e-38 7.6054325e-38 3.566544e-38 -1.9197811e-38 -6.800597e-39 5.9468456e-38
-6.598153e-38 -4.784183e-38 -7.5588657e-38 4.0262915e-38 -4.8092827e-38 3.1974643e-38 -3.5864278e-38 1.198965e-38
3.5597712e-38 2.6626812e-38 -3.404325e-38 -2.1948706e-38 -7.165362e-38 5.422459e-38 -6.705996e-38 -5.169328e-39
-5.2470786e-38 -6.709499e-38 6.929155e-38 4.8452955e-38 -5.177869e-38 -5.54218e-38 5.2778074e-38 6.1607667e-38
-5.4812243e-38 -6.966693e-38 1.3345955e-38 2.7793326e-38 6.4105414e-38 3.5878622e-38 -7.594051e-38 4.8296514e-38
-7.1552514e-38 -5.9205365e-38 -7.4815095e-38 6.469772e-38 6.2739927e-38 -3.9467498e-38 5.3286465e-38 2.9418434e-38
4.0098004e-38 1.547022e-39 4.65427e-38 1.3262006e-38 -4.726521e-38 6.883541e-38 6.553925e-38 6.5396436e-38
4.9690503e-38 6.039648e-38 -4.737309e-38 -5.928275e-38 3.0557807e-38 -6.91805e-38 7.091591e-38 -5.1940383e-38
4.0257298e-38 4.863349e-38 6.341706e-38 -6.693627e-38 2.0089239e-38 4.1387003e-38 4.980534e-38 -6.92078e-38
00000000: 6e97 3b01 b692 b481 8570 8c81 688d 5281
00000010: 21ec be01 7a10 7501 8ee9 8701 977e 8501
00000020: 3c43 6f81 c61d ae01 569d 8501 1c24 9b81
00000030: a01d 9701 4047 3e00 3248 9101 f6b7 a381
00000040: 009b 3601 8277 4d01 f447 da00 c4d1 6f81
00000050: 803d 4081 4117 9c01 5ea2 9301 bddd 8e01
00000060: 806f 2781 28bf 9681 c5b4 cc81 23c2 8601
00000070: 44d8 b781 8326 d481 26db 5701 8377 d801
00000080: 0204 2101 b347 b301 a9be c801 2bb0 8401
00000090: 1040 d880 af7f 8b81 beae 9581 4cc8 9601
000000a0: a86a c700 b2e0 8a81 9ce1 b981 8414 c281
000000b0: 0756 c601 0079 4301 9004 0101 e2d6 9901
000000c0: aaa2 cd01 92fc 7301 d54c 9481 28ae 4c81
000000d0: d5ca ce01 16e6 8881 a8ac a301 e852 6e01
000000e0: 8a26 b281 a241 2901 0471 bd01 110b 9981
000000f0: 61d6 9b81 a635 5601 007f 4a81 d40c f680
00000100: 1ab5 7f81 40ac 8d81 7a4b 2501 9fbc b381
00000110: 4479 7d81 8ef5 5501 57cb af01 415f b481
00000120: a71e 9801 f41b b181 d534 a781 f893 6781
00000130: bdf7 a701 9097 a980 81af 9301 639f 9b01
00000140: 6f54 bd01 4f18 9501 e245 c381 8443 6301
00000150: d685 7181 124a 0f81 f20c 9d81 88de 9581
00000160: d435 8181 6512 a501 f1ed cb81 c571 a601
00000170: 7c49 9801 103e 3101 9881 c681 094c bf81
00000180: 7402 5981 9817 ae01 4653 be81 e43b 7e01
00000190: dc24 3100 1adc 3581 e006 7381 66b2 9001
000001a0: 044c 4f00 1093 8301 d65d 6c01 3837 c100
000001b0: 2634 3f81 f35e 8d01 50d3 3701 c023 2701
000001c0: 7b5a a901 ee55 8781 388a b400 c736 b401
000001d0: 0896 4480 b5ac 9781 1079 d181 4e2a 3a81
000001e0: d69e c481 78a1 5501 6653 5f01 a219 9201
000001f0: 98a6 f500 e075 b601 49db 8901 ba11 3301
00000200: 224f 4881 6683 5681 93df 9601 b829 9b81
00000210: 4e58 b081 3547 8181 e8ae 0f81 c186 9b81
00000220: 9f40 ce01 e7e5 a181 2f04 9c81 e0c6 2981
00000230: 0496 b181 05b8 d801 dfac b701 5ab7 6b01
00000240: eae4 b481 8c88 9a81 d4bc 4301 0b2b ac81
00000250: 8c34 bc01 2c00 4281 8d24 8a01 7ed0 2181
00000260: fdb0 a381 69a2 c901 72d5 5181 9488 9b01
00000270: bf0d b101 2ef4 c081 a2dc 7a81 746d 5381
00000280: d9ab aa81 854f a201 2a8e 8381 913f aa01
00000290: 305c 7701 1817 8481 1bbd 9781 c0ae a101
000002a0: 808b 7e01 ca59 a881 7699 ba01 04c0 c301
000002b0: a493 7880 1cd4 4801 aa1b 2401 7866 8601
000002c0: 5ceb 9a00 2a75 5481 ec58 7b81 26db 9101
000002d0: 466c 3b01 d42b a501 3c19 4101 3068 5881
000002e0: 120c 6881 703a a701 6c52 bc80 210a cf01
000002f0: 5e2e 4201 b00b d180 4c0d 4a80 77e3 a101
00000300: 6a9e b381 e43c 8281 9bc5 cd81 5036 5b01
00000310: cfeb 8281 2616 2e01 8243 4381 448e 8200
00000320: f8cf 4101 5cf8 1001 5e59 3981 1000 ef80
00000330: 490f c381 069d 9301 f98d b681 fc49 3880
00000340: cdd6 8e81 62a6 b681 2aa1 bc01 c8e6 8301
00000350: 7bf4 8c81 5cdf 9681 f3ac 8f01 47b6 a701
00000360: 8f36 9581 c4a6 bd81 1853 9100 3e52 1701
00000370: f482 ae01 8057 4301 d0ba ce81 c279 8301
00000380: d3c8 c281 1e2c a181 83aa cb81 bb1f b001
00000390: 59cb aa01 aae1 5681 3f0f 9101 502b 2001
000003a0: 7650 5a01 78d8 1000 0e67 7d01 1469 9000
000003b0: 0bab 8081 4863 bb01 316a b201 aa06 b201
000003c0: 3a45 8701 346a a401 3af6 8081 0c62 a181
000003d0: 5e5f 2601 c653 bc81 2d0d c101 2a65 8d81
000003e0: 7c2e 5b01 9964 8401 3ea3 ac01 c637 b681
000003f0: a0c0 da00 1055 6101 4295 8701 cc66 bc81

fc2.bias f4 [84]
0.0 0.0 0.0 0.0 0.0 0.0 0.0 0.0
0.0 0.0 0.0 0.0 0.0 0.0 0.0 0.0
0.0 0.0 0.0 0.0 0.0 0.0 0.0 0.0
0.0 0.0 0.0 0.0 0.0 0.0 0.0 0.0
0.0 0.0 0.0 0.0 0.0 0.0 0.0 0.0
0.0 0.0 0.0 0.0 0.0 0.0 0.0 0.0
0.0 0.0 0.0 0.0 0.0 0.0 0.0 0.0
0.0 0.0 0.0 0.0 0.0 0.0 0.0 0.0
0.0 0.0 0.0 0.0 0.0 0.0 0.0 0.0
0.0 0.0 0.0 0.0 0.0 0.0 0.0 0.0
0.0 0.0 0.0 0.0
00000000: 0000 0000 0000 0000 0000 0000 0000 0000
00000010: 0000 0000 0000 0000 0000 0000 0000 0000
00000020: 0000 0000 0000 0000 0000 0000 0000 0000
00000030: 0000 0000 0000 0000 0000 0000 0000 0000
00000040: 0000 0000 0000 0000 0000 0000 0000 0000
00000050: 0000 0000 0000 0000 0000 0000 0000 0000
00000060: 0000 0000 0000 0000 0000 0000 0000 0000
00000070: 0000 0000 0000 0000 0000 0000 0000 0000
00000080: 0000 0000 0000 0000 0000 0000 0000 0000
00000090: 0000 0000 0000 0000 0000 0000 0000 0000
000000a0: 0000 0000 0000 0000 0000 0000 0000 0000
000000b0: 0000 0000 0000 0000 0000 0000 0000 0000
000000c0: 0000 0000 0000 0000 0000 0000 0000 0000
000000d0: 0000 0000 0000 0000 0000 0000 0000 0000
000000e0: 0000 0000 0000 0000 0000 0000 0000 0000
000000f0: 0000 0000 0000 0000 0000 0000 0000 0000
00000100: 0000 0000 0000 0000 0000 0000 0000 0000
00000110: 0000 0000 0000 0000 0000 0000 0000 0000
00000120: 0000 0000 0000 0000 0000 0000 0000 0000
00000130: 0000 0000 0000 0000 0000 0000 0000 0000
00000140: 0000 0000 0000 0000 0000 0000 0000 0000

fc3.weight f4 [42, 84]
-3.3541816e-38 3.04519e-39 -6.058535e-38 -2.8830673e-38 -7.0659287e-38 -7.7268096e-38 5.972648e-38 -7.4910815e-38
-6.8313334e-38 -7.5400575e-38 2.837699e-38 3.2442974e-38 -4.4718248e-38 1.5975402e-38 -4.2794226e-38 5.2355963e-38
4.3180967e-38 -3.0392118e-38 3.4931596e-38 4.935116e-38 6.847201e-38 2.2133408e-38 6.836449e-38 -3.872921e-38
-6.9079244e-38 7.078536e-38 3.5965637e-38 7.018001e-38 2.9004434e-38 4.875745e-39 -6.139274e-38 -6.837275e-38
-3.5724356e-38 4.4056022e-38 -3.2013302e-38 -6.89656e-38 -7.588403e-38 -4.6583987e-38 -3.3351178e-38 2.6729477e-38
-3.3729136e-38 7.1261626e-38 -4.0605325e-38 2.5846642e-38 3.0871239e-38 -7.401776e-38 -5.725356e-38 7.057259e-38
3.7553498e-38 -6.9260006e-38 -6.175746e-38 7.151026e-38 -5.54382e-38 -5.087536e-38 -6.7340883e-38 -5.9166565e-38
6.878536e-38 -6.3758015e-38 3.5195102e-38 -2.7781028e-38 -6.5158865e-38 -2.487024e-38 -4.8110175e-38 -3.6321488e-38
-4.0956922e-38 -5.799392e-38 -5.7520707e-38 5.121343e-38 2.6631408e-38 -2.9454548e-38 -6.093931e-38 -3.4875611e-38
-6.5350865e-38 3.959657e-38 2.9674165e-38 2.3493632e-38 3.993306e-38 -5.5787766e-38 7.4709174e-38 -3.8195943e-38
-3.7140014e-38 -5.4814166e-38 -6.017156e-38 -6.48399e-38 6.261553e-38 3.8744653e-38 2.4725278e-38 -2.1143279e-38
-3.4772e-38 -7.1477057e-38 6.023289e-38 5.527448e-38 -6.702856e-38 6.350648e-38 -2.9936645e-38 -6.666724e-38
6.5910516e-38 -3.7849385e-38 -6.2307666e-38 -7.201298e-38 4.005221e-38 5.6431685e-38 4.1131176e-38 -4.6443414e-38
-3.8343074e-38 3.9761334e-38 -6.2930414e-38 -6.7839723e-38 -3.6761025e-38 -6.6566436e-38 -6.546345e-38 -5.896723e-38
5.367665e-38 3.2510012e-38 7.419166e-38 -4.3955426e-38 6.0151583e-38 3.3914848e-38 5.4600485e-38 6.927104e-38
-7.552521e-38 7.0798e-38 6.0480737e-38 -3.328901e-38 -5.8449493e-38 -5.698107e-38 -3.909083e-38 4.2271228e-38
-7.7325757e-38 -6.899913e-38 -6.9556835e-38 -3.0778254e-38 3.0875106e-38 -3.412989e-38 -3.929639e-38 -4.5443173e-38
-4.981043e-38 6.81146e-38 -6.211005e-38 -1.86588e-39 5.554046e-38 5.5731927e-38 -2.0419037e-38 5.225416e-38
-4.2094855e-38 -6.9949787e-38 4.3501304e-38 7.8959833e-38 -3.393334e-38 -4.2292864e-38 5.829838e-38 3.0907835e-38
-3.101884e-38 7.7257357e-38 -4.5809024e-38 7.643592e-38 2.6456504e-38 -3.722704e-38 4.8538456e-38 7.0805885e-38
-4.957655e-38 3.1405716e-38 3.3615614e-38 -2.893784e-38 -3.3331807e-38 -5.28734e-38 -3.056117e-38 -7.497448e-38
-6.0228884e-38 -5.932803e-38 2.7898995e-38 5.008085e-38 5.7791146e-38 -6.153681e-38 4.2921223e-38 5.665687e-38
4.3290437e-38 -1.8975728e-38 -3.9614046e-38 -6.44677e-38 -5.430065e-38 3.5209418e-38 -5.099484e-38 6.057717e-38
3.7492273e-38 -7.1862627e-38 -5.4785893e-38 6.630036e-38 -8.0054584e-38 5.7773395e-38 6.6129864e-38 -5.5677775e-38
-7.2203305e-38 -6.185154e-38 6.973971e-39 5.3972064e-38 6.3975513e-38 -4.2577484e-38 -5.243721e-38 5.272151e-38
6.105693e-38 -1.6881095e-38 -3.2724097e-38 4.2341477e-38 -4.0336074e-38 4.3214223e-38 1.8605752e-38 4.951795e-38
3.511872e-38 3.5867832e-38 5.258366e-38 -3.4591495e-38 7.2140207e-38 3.1741495e-38 -4.7375334e-38 -3.0397723e-38
6.377473e-38 -7.004252e-38 -7.1756386e-38 4.431571e-38 4.9412603e-38 4.6192e-38 -2.0993312e-38 6.1271977e-38
-6.8316613e-38 -4.9640124e-38 4.150423e-38 4.3159236e-38 4.0468328e-38 5.5451e-38 -1.26307e-40 -3.757338e-38
6.456236e-38 -4.4657146e-38 -5.084384e-38 5.3234017e-38 5.4683145e-38 -6.3934865e-38 5.025638e-38 9.127834e-39
-6.979644e-38 4.08208e-38 -6.8962695e-38 -4.7871965e-38 -6.7200697e-38 -6.301362e-38 -4.5715647e-38 -4.925514e-38
-6.115618e-38 3.4452033e-38 -3.129494e-38 -5.747872e-38 6.2462285e-38 -8.604219e-39 3.1276455e-38 -3.3962509e-38
00000000: 789e 3681 c028 2100 d4ed a481 18f8 1c81
00000010: 565a c081 0158 d281 4897 a201 38ed cb81
00000020: 72f7 b981 8842 cd81 c07f 1a01 e8a2 3001
00000030: 2478 7381 ecf4 ad00 72fe 6881 c886 8e01
00000040: 7c19 6b01 6e78 2581 8a2f 3e01 bd58 8601
00000050: 0766 ba01 f002 f100 191b ba01 a4dc 5281
00000060: 350d bc81 32b2 c001 c8d0 4301 540c bf01
00000070: 48ea 1d01 9817 3500 7f20 a781 da20 ba81
00000080: 7c80 4281 22dd 6f01 084c 2e81 02be bb81
00000090: 7393 ce81 9aa0 7d81 c294 3581 7487 1101
000000a0: 8ea3 3781 1bfe c101 9013 5d81 f6b8 0c01
000000b0: 3a14 2801 da7e c981 e8db 9b81 eb1d c001
000000c0: f075 4c01 2e8b bc81 ab1e a881 61ab c201
000000d0: c9ea 9681 f47e 8a81 bf51 b781 1411 a181
000000e0: 6640 bb01 da90 ad81 d09e 3f01 1a41 1781
000000f0: 1a61 b181 0e68 0781 e6f7 8281 c4c0 4581
00000100: 9efd 5e81 dddf 9d81 1596 9c81 8d6a 8b01
00000110: c4fe 1001 a65d 2081 80e4 a581 82e1 3d81
00000120: e8e6 b181 9095 5701 c08f 2101 b0d2 ff00
00000130: 906a 5901 66de 9781 b260 cb01 60f5 4f81
00000140: a035 4a81 e637 9581 75cd a381 d182 b081
00000150: a874 aa01 2af2 5201 029e 0601 dc3a e680
00000160: 1851 3d81 3d94 c281 33f8 a301 b178 9601
00000170: 1778 b681 8fe1 ac01 98fd 2281 497c b581
00000180: ed6c b301 5812 4e81 1b9e a981 b909 c481
00000190: a210 5a01 259f 9901 7ef0 5f01 acdc 7c81
000001a0: 72c2 5081 367b 5801 1950 ab81 63ad b881
000001b0: 6425 4881 0936 b581 5e35 b281 2986 a081
000001c0: 2a1f 9201 5800 3101 0af8 c901 ec50 6f81
000001d0: 89bf a301 66a6 3801 fca2 9401 df92 bc01
000001e0: 6499 cd81 01bb c001 eca4 a401 1c3e 3581
000001f0: 5a1d 9f81 031e 9b81 aad4 5481 7e25 6601
00000200: 3080 d281 60d5 bb81 0a5a bd81 a092 2781
00000210: 9e19 2801 20d2 3981 2cf3 5581 8a6a 7781
00000220: ce98 8781 f36c b901 6314 a981 5051 1480
00000230: 0d32 9701 7cb7 9701 f857 de80 d63f 8e01
00000240: aa2f 6581 e36b be81 f8d7 6c01 f9f2 d601
00000250: 2cc0 3881 a643 6681 0bb4 9e01 3c47 2801
00000260: f4e1 2881 8550 d201 7668 7981 1014 d001
00000270: fc0a 1001 ecae 4a81 5e22 8401 80c0 c001
00000280: d0f5 8681 2efd 2a01 5405 3701 768d 1d81
00000290: c279 3581 62ef 8f81 0e64 2681 9619 cc81
000002a0: 68f5 a381 9a81 a181 86e5 1701 4255 8801
000002b0: 8d52 9d01 e684 a781 74af 6901 133c 9a01
000002c0: 10b2 6b01 9ca0 ce80 ecad 5781 6e7f af81
000002d0: 08d2 9381 c4b2 3f01 37d2 8a81 20e8 a401
000002e0: 9a20 4c01 f1a0 c381 3224 9581 9b7c b401
000002f0: e7ed d981 2e46 9d01 ca05 b401 bf91 9781
00000300: 5c8e c481 3b60 a881 98f0 4b00 0aed 9201
00000310: 6d28 ae01 5ad0 6781 67bf 8e81 8885 8f01
00000320: 7836 a601 a0d1 b780 bc2a 3281 6887 6601
00000330: 489c 5b81 d647 6b01 4499 ca00 f9cc 8601
00000340: 5a34 3f01 7648 4301 7625 8f01 8255 3c81
00000350: 6362 c401 30d1 2c01 caf7 8081 3e80 2581
00000360: 809c ad01 83ac be81 e756 c381 1647 7101
00000370: 8f83 8601 407e 7b01 d098 e480 56cc a601
00000380: bbf9 b981 1e22 8781 74f8 6101 32fb 6a01
00000390: 9e54 5c01 b5f3 9601 1860 0180 a691 4c81
000003a0: 66c1 af01 fa22 7381 fc68 8a81 b2ea 9001
000003b0: 97dc 9401 190c ae81 96cf 8801 b064 6300
000003c0: 0501 be81 e43f 5e01 fcbb bb81 e451 8281
000003d0: 0df0 b681 158a ab81 50e6 7881 d315 8681
000003e0: a37b a681 2093 3b01 c862 2a81 d278 9c81
000003f0: dc09 aa01 10b1 5d80 0449 2a01 d4e8 3881

fc3.bias f4 [42]
0.0 0.0 0.0 0.0 0.0 0.0 0.0 0.0
0.0 0.0 0.0 0.0 0.0 0.0 0.0 0.0
0.0 0.0 0.0 0.0 0.0 0.0 0.0 0.0
0.0 0.0 0.0 0.0 0.0 0.0 0.0 0.0
0.0 0.0 0.0 0.0 0.0 0.0 0.0 0.0
0.0 0.0
00000000: 0000 0000 0000 0000 0000 0000 0000 0000
00000010: 0000 0000 0000 0000 0000 0000 0000 0000
00000020: 0000 0000 0000 0000 0000 0000 0000 0000
00000030: 0000 0000 0000 0000 0000 0000 0000 0000
00000040: 0000 0000 0000 0000 0000 0000 0000 0000
00000050: 0000 0000 0000 0000 0000 0000 0000 0000
00000060: 0000 0000 0000 0000 0000 0000 0000 0000
00000070: 0000 0000 0000 0000 0000 0000 0000 0000
00000080: 0000 0000 0000 0000 0000 0000 0000 0000
00000090: 0000 0000 0000 0000 0000 0000 0000 0000
000000a0: 0000 0000 0000 0000

fc4.weight f4 [21, 42]
5.559836e-38 4.502325e-38 -4.441301e-38 -7.7883434e-38 -5.506811e-38 -3.420522e-38 -3.6724838e-38 5.4971016e-38
2.820649e-38 -7.859491e-38 -4.7203983e-38 4.0771883e-38 3.5497407e-38 -7.17685e-38 5.4349714e-38 4.977053e-38
5.809504e-38 4.8968543e-38 -8.924803e-39 -7.222262e-38 7.2444535e-38 -4.753564e-38 5.852124e-38 -2.854963e-38
6.027673e-38 6.890762e-38 -6.3934506e-38 -7.2293873e-38 3.563132e-38 4.8274396e-38 6.61326e-39 6.47099e-38
-7.023112e-38 6.916312e-38 4.902769e-38 6.435844e-38 -6.6863864e-38 5.686836e-38 1.4180636e-38 4.495944e-38
9.328147e-39 6.668988e-38 1.2389956e-38 -6.4545455e-38 4.3987297e-38 4.1112987e-38 3.761047e-38 -4.0502615e-38
-4.6142937e-38 1.0752e-38 -7.73403e-38 -2.482653e-38 -5.869962e-38 -4.9788785e-38 3.9362905e-38 -1.5738017e-38
-5.35838e-38 -6.674961e-38 -4.89065e-38 -4.8527784e-38 -4.4442596e-38 -2.6513576e-38 6.977336e-38 7.105117e-38
7.410254e-38 -1.8765516e-38 -2.9574146e-38 -7.657994e-38 5.552331e-38 -3.8577943e-38 5.412511e-38 -4.4847027e-38
-7.273359e-38 6.80746e-38 7.242465e-38 -6.1144465e-38 -2.6420143e-38 5.029593e-38 -2.1151675e-38 -6.2687294e-38
4.317937e-38 3.2803007e-38 -2.946971e-38 4.399937e-38 4.1692766e-38 7.5033485e-38 -4.590828e-38 6.191272e-38
4.1123755e-38 4.3683697e-38 6.846389e-38 3.607935e-38 -2.9413658e-38 1.7365518e-38 -6.228416e-38 -7.387758e-38
-7.783714e-38 -5.585984e-38 -7.3393646e-38 -6.1491146e-38 4.151604e-38 -5.432382e-38 6.373182e-38 -4.596366e-38
-3.9577063e-38 6.1281366e-38 -5.848153e-38 3.7906833e-38 5.035992e-38 5.538472e-38 6.551563e-38 -5.354271e-38
6.023463e-38 -7.0178227e-38 6.11639e-38 -3.5617313e-38 -5.391228e-38 2.0528608e-38 -4.6702195e-38 -6.968979e-38
2.2412721e-38 -5.9422353e-38 4.7860676e-38 5.413383e-38 -6.125266e-38 -7.166182e-38 3.1025337e-38 -6.938729e-38
-2.9970058e-38 -2.0339169e-38 7.735e-40 3.6896082e-38 5.046641e-38 -1.4362827e-38 -2.8143208e-38 -3.8887607e-38
4.1178624e-38 6.033742e-38 -3.1016458e-38 6.4991645e-38 6.284043e-38 2.525835e-39 3.93603e-38 -4.3930673e-38
3.5405263e-38 5.438548e-38 2.1001624e-38 4.4426722e-38 6.427546e-38 -7.347948e-38 7.572096e-38 -4.4127135e-38
-3.0220761e-38 5.0975275e-38 6.8310744e-38 -5.0386674e-38 -3.5431473e-38 3.5974375e-38 -2.3275371e-38 6.2159655e-38
4.4740792e-38 7.366479e-38 7.822424e-38 -6.0193897e-38 3.2685976e-38 5.4750547e-38 -1.4159185e-38 5.1271123e-38
7.4137853e-38 1.6864431e-38 6.1253076e-38 4.5068186e-38 -4.3151574e-38 3.2727628e-38 3.9803373e-38 -6.739539e-38
-3.4944987e-38 3.6992334e-38 7.2271845e-38 -6.1815283e-38 -3.497086e-38 -6.2825967e-38 -5.1588214e-38 6.959462e-38
-4.0430807e-38 7.3479854e-38 -4.6259508e-38 -3.7795716e-38 -3.6622577e-38 3.4697506e-38 -5.5005656e-38 5.894229e-38
6.3774825e-38 -2.8364304e-38 -3.4360354e-38 1.620181e-39 -4.4386807e-38 5.4357634e-38 -3.588852e-38 3.6975065e-38
-5.4556927e-38 -7.163849e-38 -3.2694967e-38 5.4510146e-38 3.5641455e-38 -6.316224e-38 4.9709107e-38 -7.727285e-38
5.029851e-38 5.4423075e-38 4.6438678e-38 7.3519163e-38 -3.411789e-38 -4.6963666e-38 -3.1999144e-38 -3.7125637e-38
4.3797903e-38 5.698714e-38 -6.286255e-38 4.260802e-38 -4.9987534e-38 5.6938714e-38 4.91682e-38 6.796281e-39
4.6654472e-38 4.988275e-38 7.141597e-38 3.8256367e-38 -6.2109477e-38 4.708343e-38 -6.346248e-38 4.849753e-38
-4.3222009e-38 -5.833993e-38 -7.740042e-38 1.3383796e-38 -6.2600907e-38 5.734802e-38 -4.0050237e-38 5.724511e-38
-4.7221466e-38 -5.1203054e-38 5.2861955e-38 5.1411494e-38 5.832255e-38 6.4078094e-38 7.423032e-38 6.023137e-38
-7.2204437e-38 4.1931727e-38 -1.4282292e-38 5.857361e-38 7.3616537e-38 -6.999956e-38 -4.1656881e-38 -3.427297e-38
00000000: 675a 9701 4021 7501 b4ce 7181 d504 d481
00000010: dfe8 9581 1e3b 3a81 f4f2 4781 35a5 9501
00000020: 1c92 1901 a8f4 d581 6080 8081 b6fb 5d01
00000030: 2a44 4101 585f c381 39f4 9301 ff7c 8701
00000040: 5526 9e01 184e 8501 b82e 6180 d29b c481
00000050: 7936 c501 8267 8181 5a4f 9f01 6070 1b81
00000060: c016 a401 9a95 bb01 d90b ae81 7acd c481
00000070: d0fe 4101 586a 8301 1403 4800 3828 b001
00000080: f22f bf81 a947 bc01 5077 8501 4933 af01
00000090: 5005 b681 76cf 9a01 d869 9a00 50c8 7401
000000a0: 1493 6500 108c b501 28ea 8600 9eb5 af81
000000b0: 587d 6f01 24d7 5f01 58c5 4c01 6884 5c81
000000c0: de39 7b81 3414 7500 538a d281 222b 0781
000000d0: aacb 9f81 b889 8781 e24f 5601 305f ab80
000000e0: 75de 9181 b0b5 b581 db22 8581 ee1a 8481
000000f0: f0f7 7181 885a 1081 eff0 bd01 706b c101
00000100: efb9 c901 a056 cc80 5804 2181 6e78 d081
00000110: 1a26 9701 ce09 5281 b257 9301 a22b 7481
00000120: eaff c581 1251 b901 9d28 c501 7973 a681
00000130: 4ed8 0f81 26eb 8801 4452 e680 aba6 aa81
00000140: 4217 6b01 b898 3201 c872 2081 2c8e 6f01
00000150: 3cff 6201 b542 cc01 cef2 7981 de8a a801
00000160: 26e6 5f01 30d6 6d01 5e60 ba01 466f 4401
00000170: a824 2081 0018 bd00 b98d a981 291d c981
00000180: 92e4 d381 a010 9881 e8cb c781 1365 a781
00000190: ea08 6201 2de2 9381 997e ad01 fe3f 7a81
000001a0: 607a 5781 e1d2 a601 ae33 9f81 6a62 4e01
000001b0: be17 8901 84c5 9601 bb59 b201 d3c1 9181
000001c0: 69f9 a301 160b bf81 0481 a601 4aeb 4181
000001d0: 60c3 9281 6889 df00 5c45 7e81 b2b6 bd81
000001e0: 8c0d f400 56c3 a181 064a 8201 c65d 9301
000001f0: e0be a681 0015 c381 02eb 2801 e2e3 bc81
00000200: 2a2c 2381 5479 dd80 346c 0800 a2e1 4801
00000210: f461 8901 b865 9c80 e839 1981 6ab9 5381
00000220: a032 6001 0b41 a401 a2de 2881 91ec b001
00000230: 6311 ab01 0081 1b00 404c 5601 6c2e 6f81
00000240: bcc3 4001 260d 9401 fcaf e400 d0e1 7101
00000250: 75f9 ae01 b907 c881 cf21 ce01 4040 7081
00000260: 9889 2481 95c4 8a01 a4f5 b901 632a 8981
00000270: 44e8 4081 f6dc 4301 4472 fd80 f536 a901
00000280: 9097 7301 de88 c801 57f2 d401 06dd a381
00000290: 9af5 3101 900b 9501 0c2e 9a80 c292 8b01
000002a0: 8bd2 c901 2ca3 b700 2abf a601 e25f 7501
000002b0: 84f0 6a81 a82f 3201 ceb5 5801 bb77 b781
000002c0: 3442 3e81 ca67 4901 20be c401 f746 a881
000002d0: 4466 3e81 4f07 ab81 bd6f 8c81 5f74 bd01
000002e0: 5220 5c81 fc07 c801 58dc 7b81 8ac7 4d81
000002f0: 6c64 4781 44e9 3c01 59bd 9581 c874 a001
00000300: 919c ad01 126e 1a81 5813 3b81 68a4 1100
00000310: 2eaa 7181 bef9 9301 4c65 4381 b84f 4901
00000320: a184 9481 be04 c381 2202 3281 0764 9401
00000330: f00c 4201 a8f1 ab81 3152 8701 515b d281
00000340: f2ec 8801 5927 9401 12d6 7c01 6123 c801
00000350: 66c1 3981 ccb1 7f81 4c38 2e81 9621 4a81
00000360: 5e75 6e01 3e22 9b01 ce20 ab81 eafa 6701
00000370: 3a14 8881 7e00 9b01 3cd9 8501 4401 4a00
00000380: d802 7e01 34cb 8701 ab69 c201 9849 5001
00000390: fd13 a981 5d2c 8001 e5c2 ac81 d805 8401
000003a0: b052 6b81 ffd0 9e81 38b4 d281 94bc 9100
000003b0: 776a aa81 bd1d 9c01 e20d 5a81 05d6 9b01
000003c0: 8f8c 8081 5263 8b81 68e7 8f01 95f4 8b01
000003d0: e3c4 9e01 ea6f ae01 fc12 ca01 23f7 a301
000003e0: 268f c481 4c4c 6401 3885 9b80 d973 9f01
000003f0: 3d67 c801 938e be81 38cd 6281 8c99 3a81

fc4.bias f4 [21]
0.0 0.0 0.0 0.0 0.0 0.0 0.0 0.0
0.0 0.0 0.0 0.0 0.0 0.0 0.0 0.0
0.0 0.0 0.0 0.0 0.0
00000000: 0000 0000 0000 0000 0000 0000 0000 0000
00000010: 0000 0000 0000 0000 0000 0000 0000 0000
00000020: 0000 0000 0000 0000 0000 0000 0000 0000
00000030: 0000 0000 0000 0000 0000 0000 0000 0000
00000040: 0000 0000 0000 0000 0000 0000 0000 0000
00000050: 0000 0000

fc5.weight f4 [21, 21]
6.247299e-38 -2.5958247e-38 1.8166316e-38 5.3317624e-38 -5.949504e-38 -7.0281575e-38 5.820513e-38 4.4627914e-38
-3.658116e-38 -6.562162e-38 6.1980205e-38 4.2383544e-38 -6.712166e-38 4.5386656e-38 3.812552e-38 4.932743e-38
4.863772e-38 -2.9765373e-38 6.7413885e-38 4.930906e-38 -5.81695e-38 -5.034622e-38 -7.315193e-39 2.9938798e-38
3.8060813e-38 -4.4374778e-38 4.5967943e-38 4.9275046e-38 -4.3742922e-38 3.5310216e-38 4.791532e-38 -3.1091635e-38
1.092346e-39 -2.52931e-38 5.562498e-38 1.9760158e-38 -6.372231e-38 4.152563e-39 5.5356295e-38 4.5608403e-38
7.1905546e-38 4.4419928e-38 -3.6504974e-38 1.5213404e-38 4.2880467e-38 7.3551214e-38 2.5475292e-38 6.6349005e-38
3.8333758e-38 6.774353e-38 1.9480924e-38 4.744158e-38 -6.734598e-38 8.2099756e-38 4.5134815e-38 -6.260439e-38
5.895932e-38 -4.6460908e-38 -6.098967e-38 7.8582167e-38 -5.374317e-38 3.6797565e-38 5.081702e-38 5.437832e-38
5.368941e-38 -7.4548036e-38 -2.0523143e-38 7.312598e-38 4.7108796e-38 1.3453603e-38 -7.4577777e-38 -3.9553118e-38
6.938373e-38 -6.4076536e-38 -5.9652715e-38 1.6101312e-38 -5.1302535e-38 3.4741754e-38 5.139476e-38 -2.9657198e-38
-3.7626753e-38 -6.453906e-38 -4.9607485e-38 4.6383747e-38 -6.3048784e-38 -6.1621915e-38 2.486858e-38 -4.4196287e-38
5.718004e-38 -3.2246675e-38 -6.8083084e-38 2.977359e-38 -3.4037344e-38 -5.584048e-38 1.5138833e-38 -5.420502e-38
-7.808214e-38 -6.6671455e-38 6.1995546e-38 -7.062115e-38 8.040026e-38 6.6300565e-38 4.5886942e-38 7.412422e-38
-5.2201344e-38 -1.6171478e-38 7.3824164e-38 6.219391e-38 -7.221302e-38 2.357895e-38 -3.4222197e-38 5.691287e-38
-3.730581e-38 5.71578e-38 2.9929202e-38 -6.896688e-38 -7.1242076e-38 -3.0725683e-38 4.900933e-38 4.0443553e-38
-6.169648e-38 -3.933492e-38 -1.8443689e-38 -6.5810194e-38 -4.6989198e-38 6.574072e-38 -3.3562455e-38 -5.2416976e-38
6.6631417e-38 3.73693e-38 -6.4989964e-38 4.3983065e-38 -2.5278348e-38 -4.9067856e-38 6.609675e-38 -3.8757466e-38
-2.2461895e-38 -6.303991e-38 -6.721433e-38 -3.541172e-38 4.592499e-38 7.049089e-38 4.5320582e-38 3.4338987e-38
6.3831477e-38 -3.1261982e-38 2.7579207e-38 -4.3188831e-38 6.7388303e-38 -3.1568031e-38 4.142019e-38 -4.3626793e-38
4.9924907e-38 4.7375283e-38 -2.2271537e-38 -6.364169e-38 -4.332678e-38 -6.026489e-38 -6.7856006e-38 4.8211264e-38
4.5515284e-38 1.9493911e-38 3.9528326e-38 -5.562746e-38 -6.596375e-38 -6.8286776e-38 7.153868e-38 6.185947e-38
-7.210705e-38 -3.9866672e-38 -5.9061513e-38 -5.036911e-38 6.733458e-38 2.8341093e-38 3.0009877e-38 -4.903239e-38
2.4428197e-38 6.7380585e-38 -4.5618044e-38 3.607884e-39 -5.488806e-38 6.4859015e-38 5.8557864e-38 -4.5940146e-38
5.6806577e-38 -7.241544e-38 4.0703825e-38 -3.6597364e-38 6.62158e-38 4.0271793e-38 -5.67621e-38 -4.4017907e-38
5.626204e-38 6.738973e-38 -5.1982467e-38 4.0418145e-38 1.2998893e-38 7.3944345e-38 -5.370319e-38 -2.92577e-38
7.9937463e-38 6.6947225e-38 -5.476217e-38 4.4607988e-38 7.1495055e-38 1.698719e-38 -5.085101e-38 5.7676817e-38
-3.361575e-38 5.2267065e-38 6.811816e-38 -8.007897e-38 -7.648498e-38 1.5677234e-38 7.598834e-38 5.546571e-38
-2.5886826e-38 5.421897e-38 -5.3146503e-38 6.9084014e-38 -7.496345e-38 3.069203e-38 -4.452427e-38 4.2433038e-38
4.931945e-38 7.939752e-38 4.3770202e-38 3.324279e-38 2.6607513e-38 -7.918558e-39 4.4777416e-38 6.958856e-38
6.2953827e-38 4.9153167e-38 1.946496e-38 6.680388e-38 -4.884817e-38 -8.0269986e-38 3.2049787e-38 -1.9041314e-38
3.4148646e-38 4.6926918e-38 4.135749e-38 7.650128e-38 6.904879e-38 -6.133008e-38 -6.661582e-38 -6.31443e-38
-2.3669103e-38 -4.150516e-38 -5.360561e-38 1.1366162e-38 -6.035522e-38 8.0936247e-38 7.02325e-38 -5.7107425e-38
00000000: 5211 aa01 8454 0d81 4cd0 c500 f624 9101
00000010: fef5 a181 1c53 bf81 0e73 9e01 3cfa 7201
00000020: b22a 4781 98a3 b281 e6b9 a801 0ac2 6601
00000030: f8b8 b681 c41b 7701 3893 4f01 3448 8601
00000040: 8b67 8401 e00e 2281 9f84 b701 663b 8601
00000050: 3a5a 9e81 320e 8981 c8a7 4f80 9800 2301
00000060: 0839 4f01 6a99 7181 f645 7a01 b223 8601
00000070: bc28 6e81 423f 4001 1b70 8201 6a47 2981
00000080: 04e5 0b00 70b5 0981 f46c 9701 482b d700
00000090: f877 ad81 a837 2d00 b5b1 9601 d650 7801
000000a0: dabe c301 58d8 7101 82c0 4681 c8a8 a500
000000b0: a676 6901 b739 c801 60b3 0a01 829e b401
000000c0: 76b5 5001 5a6a b801 e420 d400 f525 8101
000000d0: 4c55 b781 2e7f df01 c0bc 7501 e46c aa81
000000e0: a680 a001 0ef5 7c81 9907 a681 c7eb d501
000000f0: 864d 9281 5258 4801 4b56 8a01 2808 9401
00000100: 0f28 9201 66f0 ca81 2c7a df80 5f11 c701
00000110: 0a3e 8001 2c7f 9200 2005 cb81 0059 5781
00000120: 67e1 bc01 d46e ae81 e063 a281 e853 af00
00000130: a6a8 8b81 f026 3d01 ece8 8b01 1a78 2181
00000140: 0adc 4c81 29b1 af81 5f0b 8781 8289 7c01
00000150: 97a2 ab81 35c0 a781 be65 0701 a2a0 7081
00000160: aca8 9b01 4e91 2f81 fc56 b981 541a 2201
00000170: 2251 3981 2303 9881 e8d8 a400 638f 9381
00000180: 4f8f d481 397f b581 97c4 a801 c23f c081
00000190: cede da01 c07c b401 10d5 7901 0bc9 c901
000001a0: 071b 8e81 8017 b080 eff7 c801 d44e a901
000001b0: 2195 c481 4260 0001 c852 3a81 7bee 9a01
000001c0: b61c 4b81 2c99 9b01 38f3 2201 e7be bb81
000001d0: 7bf0 c181 5a49 2781 856a 8501 1632 5c01
000001e0: 2cf4 a781 e028 5681 80d5 c880 0327 b381
000001f0: 62d5 7f81 98f6 b201 3cbb 3681 4db1 8e81
00000200: 5263 b501 3475 4b01 65eb b081 7277 6f01
00000210: e0a0 0981 4e93 8581 b6ee b301 0604 5381
00000220: a096 f480 689c ab81 8df9 b681 bccc 4081
00000230: 180a 7a01 fbe4 bf01 acbf 7601 90f5 3a01
00000240: 0cc4 ad01 d834 2a81 ce27 1601 7224 6b81
00000250: cb72 b701 6adf 2b81 5283 6101 e086 6d81
00000260: 95e8 8701 c1f7 8001 fc83 f280 c93f ad81
00000270: b8e4 6b81 800e a481 bcb8 b881 593e 8301
00000280: 0ccf 7701 1845 d400 7236 5701 ae6e 9781
00000290: 0692 b381 f0e4 b981 2fbf c201 c265 a801
000002a0: 484b c481 080e 5981 dec7 a081 261e 8981
000002b0: 5a4d b701 b84d 1a01 aa63 2301 977a 8581
000002c0: f0ff 0401 6a6d b701 465e 7881 5049 2700
000002d0: 656b 9581 2390 b001 e068 9f01 381f 7a81
000002e0: 68a4 9a01 3222 c581 da9c 5d01 4841 4781
000002f0: ad41 b401 b042 5b01 6985 9a81 02a8 6f81
00000300: eb28 9901 ca73 b701 7e82 8d81 ac0e 5c01
00000310: a08b 8d00 b04b c901 a931 9281 484b 1f81
00000320: 489c d901 683f b601 aa13 9581 76de 7201
00000330: c8a0 c201 60f9 b800 fb6d 8a81 e002 9d01
00000340: 8405 3781 d448 8e01 6e6f b901 e6fe d981
00000350: 4036 d081 c0b5 aa00 25dc ce01 f5fd 9601
00000360: f8f0 0c81 1b99 9301 b5ad 9081 8810 bc01
00000370: e611 cc81 721a 2701 c669 7281 0607 6701
00000380: a442 8601 ff23 d801 c24e 6e01 b0fd 3401
00000390: 76dd 1001 b839 5680 9cca 7301 2670 bd01
000003a0: 6a60 ab01 c2ce 8501 64f4 d300 82db b501
000003b0: 35fa 8481 0484 da81 e27e 2e01 7057 cf80
000003c0: 44ec 3901 947e 7f01 ee2b 6101 9c41 d001
000003d0: fcf7 bb01 d4f4 a681 7358 b581 28e5 ab81
000003e0: eadd 0081 c0f9 6181 a8ed 9181 3cc4 7b00
000003f0: 734d a481 5554 dc01 e930 bf01 1176 9b81

fc5.bias f4 [21]
-0.12012518 -0.043058418 -0.15006752 -0.14763854 -0.10927361 0.0052680145 -0.1493523 -0.1426306
-0.14826438 -0.14345516 -0.14568439 0.04999396 0.03707567 -0.07499641 -0.10615451 0.013443091
0.049529217 0.047294766 -0.072180666 -0.10380844 0.004097762
00000000: 3104 f6bd 065e 30bd 4dab 19be 8f2e 17be
00000010: d8ca dfbd 4f9f ac3b cfef 18be c20d 12be
00000020: 9ed2 17be e9e5 12be 4a2e 15be 77c6 4c3d
00000030: a8dc 173d b897 99bd 8967 d9bd 6940 5c3c
00000040: 26df 4a3d 28b8 413d 75d3 93bd 8599 d4bd
00000050: 8546 863b
