models/REINFORCE/policy_weights.pth (torch, 2952 bytes, 4 tensors)

fc1.weight f4 [5, 21]
0	0x81e9cab0	-8.5881525e-38
1	0x00aeb078	1.6042681e-38
2	0x81eb127a	-8.635188e-38
3	0x8055cee8	-7.880241e-39
4	0x00d51230	1.9567485e-38
5	0x006ff8a8	1.0282941e-38
6	0x81eaf910	-8.631541e-38
7	0x80a6c528	-1.5315419e-38
8	0x81040c28	-2.4253293e-38
9	0x007e7808	1.1614332e-38
10	0x006525b0	9.288905e-39
11	0x8175bda4	-4.5135454e-38
12	0x81e1e6fe	-8.2983404e-38
13	0x00979210	1.3919557e-38
14	0x81865dca	-4.9358407e-38
15	0x80441c50	-6.25497e-39
16	0x00c594c8	1.8144965e-38
17	0x8055b0f0	-7.86949e-39
18	0x00009578	5.3619e-41
19	0x81f4bb8a	-8.990055e-38
20	0x815f510c	-4.101678e-38
21	0x3c2f9db8	0.010718755
22	0x3c3b8909	0.011446246
23	0x3c227c88	0.009917386
24	0x3bcde8c9	0.0062838537
25	0x3bf2b375	0.007406647
26	0x3c09aa33	0.008402395
27	0x3bd32b2f	0.006444357
28	0x3b8ceb73	0.0043005287
29	0x3aa48539	0.001255191
30	0x3bad794a	0.005294
31	0x3aa8869e	0.0012857502
32	0x3bcc8e42	0.0062425444
33	0x3ba0679a	0.004895163
34	0x3ba6ffb9	0.0050964025
35	0x3bad0217	0.00527979
36	0x3bf1b213	0.0073759644
37	0x3bd39111	0.0064565022
38	0x3b4e6d84	0.0031498382
39	0x3c1caeb7	0.00956314
40	0xbaf409ab	-0.0018618604
41	0x3bc40005	0.0059814476
42	0x818bb9a6	-5.132693e-38
43	0x81c08878	-7.0725484e-38
44	0x813d91bc	-3.4818377e-38
45	0x81b648b4	-6.6960565e-38
46	0x8186f82c	-4.9579935e-38
47	0x81572adc	-3.9520013e-38
48	0x819ce989	-5.7640456e-38
49	0x81643296	-4.191328e-38
50	0x817559dc	-4.5063864e-38
51	0x819c99f0	-5.752624e-38
52	0x8076ea98	-1.0920745e-38
53	0x816e1688	-4.3729862e-38
54	0x0162a158	4.1625403e-38
55	0x81a55488	-6.0732724e-38
56	0x81041b24	-2.4264043e-38
57	0x819db178	-5.7927347e-38
58	0x8127f41e	-3.08482e-38
59	0x813b950c	-3.4453411e-38
60	0x802e893c	-4.273663e-39
61	0x80d56b58	-1.9599468e-38
62	0x8196d37b	-5.540476e-38
63	0x81c98a01	-7.4033765e-38
64	0xb3134905	-3.4292515e-08
65	0x019f0d1f	5.8426203e-38
66	0x80adbfd0	-1.595635e-38
67	0x0124a5ca	3.024099e-38
68	0x814833d6	-3.677139e-38
69	0x012e22be	3.198368e-38
70	0x01aa341e	6.252292e-38
71	0x818f540a	-5.2650494e-38
72	0x0057c900	8.061793e-39
73	0x0180d44e	4.7324416e-38
74	0x816a3662	-4.301803e-38
75	0x81afecb7	-6.4624516e-38
76	0x0147f2e2	3.6724787e-38
77	0x81b1adcf	-6.5268934e-38
78	0x00f51098	2.2505649e-38
79	0x01be4005	6.988684e-38
80	0x81451986	-3.6201498e-38
81	0x01acb842	6.344722e-38
82	0x93b6d514	-4.615337e-27
83	0x01ba7d67	6.850555e-38
84	0x008d8320	1.2995844e-38
85	0x81a591f8	-6.082088e-38
86	0x81a92618	-6.213546e-38
87	0x0161165c	4.1342015e-38
88	0x009ff0b0	1.4688186e-38
89	0x818cc144	-5.17052e-38
90	0x010399d4	2.4171266e-38
91	0x012638e4	3.0530202e-38
92	0x81ba959e	-6.85403e-38
93	0x808714f0	-1.2405303e-38
94	0x013cb840	3.466234e-38
95	0x00e8db78	2.1384566e-38
96	0x81c646e8	-7.283546e-38
97	0x81930928	-5.401241e-38
98	0x81795178	-4.5792528e-38
99	0x803af470	-5.414146e-39
100	0x00d20b08	1.9289411e-38
101	0x00fe7400	2.3367829e-38
102	0x80896530	-1.2617762e-38
103	0x003e1e08	5.704574e-39
104	0x015c2fb8	4.0441855e-38

fc1.bias f4 [5]
0	0x81d1937c	-7.6986104e-38
1	0x3cf37d72	0.029722903
2	0x81a3583c	-6.0003354e-38
3	0xb5eca073	-1.7630067e-06
4	0x828fe4ee	-2.114336e-37

fc5.weight f4 [21, 5]
0	0x01810c30	4.7404604e-38
1	0xbca382cb	-0.019959828
2	0x00e45df0	2.0972192e-38
3	0x992a289f	-8.796997e-24
4	0x81cbca6a	-7.4860873e-38
5	0x8196f738	-5.545604e-38
6	0xbc7e6aba	-0.015528375
7	0x00613238	8.926058e-39
8	0xb5212d1c	-6.0042817e-07
9	0x01cb2182	7.4618504e-38
10	0x01975f28	5.560518e-38
11	0xbcb7c785	-0.022434006
12	0x80949500	-1.3645105e-38
13	0x993d74a6	-9.794628e-24
14	0x014ed908	3.7991937e-38
15	0x8140ea9c	-3.5433154e-38
16	0xbc5df0ce	-0.013546182
17	0x8188c180	-5.023617e-38
18	0x99302be8	-9.1078535e-24
19	0x001ad4f0	2.46411e-39
20	0x004c4b50	7.006515e-39
21	0xbc935907	-0.017986787
22	0x8105d220	-2.4579e-38
23	0x9944396e	-1.014456e-23
24	0x80863808	-1.2326057e-38
25	0x015fdc14	4.111653e-38
26	0xbc8c6369	-0.017137246
27	0x0051a110	7.496454e-39
28	0x996dd5e8	-1.2295811e-23
29	0x018edcec	5.247957e-38
30	0x81af17b8	-6.431888e-38
31	0xbc23dcd8	-0.010001384
32	0x809e2198	-1.452206e-38
33	0x99a1c55a	-1.672672e-23
34	0x01e894a2	8.543662e-38
35	0x01616be8	4.1403392e-38
36	0xbca074f9	-0.019587027
37	0x019486b0	5.455988e-38
38	0x994f8034	-1.07275396e-23
39	0x8076fa48	-1.0926373e-38
40	0x81cc959a	-7.515243e-38
41	0xbc656b69	-0.014002659
42	0x0171c94e	4.4409138e-38
43	0x991f69bb	-8.2414594e-24
44	0x013f87d0	3.51786e-38
45	0x014287d4	3.5729624e-38
46	0xbc3e7870	-0.011625394
47	0x0126de9c	3.06491e-38
48	0x996be277	-1.21949495e-23
49	0x81a26526	-5.965454e-38
50	0x8171110c	-4.427694e-38
51	0xbc7df8d4	-0.01550122
52	0x8074c810	-1.0724686e-38
53	0x999ee1d2	-1.6428025e-23
54	0x0176ec00	4.5352386e-38
55	0x81b452f2	-6.624058e-38
56	0xbc394178	-0.011307113
57	0x80d59c54	-1.961704e-38
58	0x9958e298	-1.12126985e-23
59	0x01f0dc20	8.847794e-38
60	0x81aeb858	-6.4182026e-38
61	0x3b82f1a5	0.0039960914
62	0x818adc3c	-5.1009215e-38
63	0x99a44ff9	-1.6989503e-23
64	0x01b878c6	6.7764227e-38
65	0x804ea9e0	-7.224108e-39
66	0xbc477d75	-0.012175907
67	0x81811c41	-4.742766e-38
68	0x9922e0ee	-8.420628e-24
69	0x01b0c460	6.4933974e-38
70	0x016d8948	4.362852e-38
71	0x3c8b4edb	0.017005375
72	0x01532380	3.878005e-38
73	0xb4d5479d	-3.9726447e-07
74	0x81fa83ae	-9.202445e-38
75	0x81cf9884	-7.625864e-38
76	0xbc8392d0	-0.016061217
77	0x8124f7a4	-3.0299716e-38
78	0x9fb0398f	-7.463412e-20
79	0x81342598	-3.308775e-38
80	0x00fd2ee0	2.3251196e-38
81	0x3bd87404	0.006605627
82	0x81ae86d1	-6.411096e-38
83	0xb319d412	-3.5815965e-08
84	0x009ca558	1.4385652e-38
85	0x01040e20	2.4254705e-38
86	0xbcb1c9a9	-0.021702604
87	0x81b03c98	-6.4739137e-38
88	0x995aed86	-1.1318303e-23
89	0x00a84ad0	1.5455201e-38
90	0x80fdea20	-2.3318369e-38
91	0xbb98e7af	-0.0046662907
92	0x81af9c98	-6.450955e-38
93	0x20012b49	1.0941047e-19
94	0x80a753a0	-1.5366527e-38
95	0x010c85a8	2.5809833e-38
96	0x3c67aa90	0.014139786
97	0x81b7bcb0	-6.7494336e-38
98	0xb358b0fe	-5.0452392e-08
99	0x0090ab08	1.3285666e-38
100	0x00247fb0	3.351884e-39
101	0xbbbad010	-0.0057010725
102	0x01dd9bc4	8.140609e-38
103	0x99cf0b6f	-2.1407916e-23
104	0x808e81e0	-1.3087231e-38

fc5.bias f4 [21]
0	0xbd0c2f78	-0.034224957
1	0xbcdd5c4e	-0.027021553
2	0xbcfc5f53	-0.030807173
3	0xbcdcf54b	-0.026972434
4	0xbccc46d9	-0.024936127
5	0xbcc05d13	-0.023481881
6	0xbc38c648	-0.011277743
7	0xbcd8a7a0	-0.026447117
8	0xbcde76c6	-0.027156245
9	0xbc8dd190	-0.017311841
10	0xbc51cd23	-0.012805256
11	0xbcaff3f6	-0.021478634
12	0xba008d71	-0.0004903889
13	0xbcf7132a	-0.030160505
14	0x3cc982b7	0.024598463
15	0xbd0a7d15	-0.033810694
16	0x399e7caf	0.00030229005
17	0xbce262f3	-0.027635073
18	0xbc258dd1	-0.010104612
19	0x3c3ce8f4	0.01153015
20	0xba09d9e5	-0.0005258604
